Training/train_ckpt/layernorm/46/NONE.tflite (tflite, 16288 bytes, 10 tensors)

sequential_3/layer_normalization_7/mul_2/ReadVariableOp f4 [6]
00000000: 550e c53f 22d5 a33f b5e0 943f 5f47 c83f
00000010: 63ca 8e3f 4dac d03f
1.5394999 1.2799418 1.1631075 1.5646781 1.1155514 1.6302582

sequential_3/layer_normalization_7/add/ReadVariableOp f4 [6]
00000000: 7392 c63e 26d3 873e b5c3 813e aaab bb3e
00000010: 860c 8b3e 5cf2 b53e
0.38783607 0.2652828 0.25344625 0.36654407 0.27157992 0.35536468

sequential_3/layer_normalization_6/mul_2/ReadVariableOp f4 [16]
00000000: d12c 513f eeae 643f a426 783f af72 813f
00000010: ebcb 913f c02f 963f 9782 1c3f 7a52 1b3f
00000020: d527 e93e 6dde 783f 0577 ac3f 743c 8c3f
00000030: 812d 903f b535 663f 0976 7b3f 6f48 943f
0.8170901 0.8932942 0.9693396 1.0113124 1.1390356 1.1733322 0.61136764 0.60672724
0.45538202 0.97214395 1.3473822 1.0955949 1.1263887 0.899257 0.9822698 1.1584605

sequential_3/layer_normalization_6/add/ReadVariableOp f4 [16]
00000000: fbaf 45be 7072 33be 7590 5abe 10a0 ccbd
00000010: 224c f0bd 1cef f9bc f2c4 90be 8b04 a1be
00000020: 8efd 12bf 4ccc 0bbe aaa3 b43c e597 1dbd
00000030: fefb 30be 8ae2 0ebe 244f 5dbd 83bc ffbd
-0.19305412 -0.17524123 -0.21344168 -0.09991467 -0.11733271 -0.030509524 -0.28275257 -0.3144878
-0.57418144 -0.13652152 0.022050697 -0.038474936 -0.17283627 -0.13953605 -0.054030553 -0.12487128

sequential_3/dense_9/BiasAdd/ReadVariableOp f4 [16]
00000000: 33b8 7dbe be2d 063f 5048 ce3e 588f e3be
00000010: 8510 d53e 1d77 523f 90b2 da3e 39d2 833f
00000020: c274 2d3f 6ee0 373f 82f4 43bf 7a67 4dbf
00000030: a469 31bf 88bb 133f 3f0e adbe 7d5d e0be
-0.24777298 0.5241355 0.40289545 -0.444453 0.41614166 0.82213 0.42714357 1.029853
0.67756283 0.7182683 -0.76544964 -0.8023602 -0.6930182 0.57708025 -0.3379993 -0.43821326

sequential_3/dense_11/BiasAdd/ReadVariableOp f4 [2]
00000000: d92b 7dbd d12b 7d3d
-0.061809395 0.061809365

sequential_3/dense_10/BiasAdd/ReadVariableOp f4 [6]
00000000: d10b 2b3e 0244 1cbd a487 403d bf22 7e3d
00000010: 93a1 45be b7f4 f2be
0.16703726 -0.038150795 0.047004357 0.062044855 -0.19299917 -0.47452328

sequential_3/dense_9/MatMul f4 [16, 62]
00000000: a5fc b43e d0cd 78be ed1b e73d c24e dfbd
00000010: 0fd7 793e 5d4b a13e a5d7 113d 48a3 0e3d
00000020: fbef 983e eff2 67bf 8146 27be 1966 dd3e
00000030: cffe fdbe 14cb 00c0 e989 92be 42b6 11c0
00000040: bba7 c23d ff8d 4d3f 4c91 fdbd 6400 523e
00000050: 77e0 9dbc 1e8c bcbe adde 5b3e f1d5 ff3d
00000060: 2157 b0bd cfb8 babe c822 8b3e bb02 0a3f
00000070: f271 023f 5fc4 543f 93d3 81bd f7ce 603d
00000080: 41dc 12bc 64b7 0e3f 4358 303d 26d2 df3d
00000090: f287 3dbe 3f1e 673d bd44 a4bc 4562 2a3e
000000a0: be61 433e 5f9f 1f3f 006d 763d 16ca b73d
000000b0: a67e 223e 8d65 e93e 2f08 e1bc 5521 b7bb
000000c0: 1102 1ebf f173 01c0 c0a6 b5be d044 fcbf
000000d0: c269 063e 6a29 383f bcd9 c2bd a80e 043d
000000e0: 8011 31bd 9882 f5be a154 283e a57b 4fbc
000000f0: 9fc0 e7be 1c37 fd3e 3eec 8cbd 65c1 313f
00000100: d545 51be a914 423f 75bf fabe e3bf 00bf
00000110: 5e52 b3bd 7913 3f3e ba93 dfbe 9102 b03f
00000120: 4186 73bd c32a 51bd 18c4 0c3f 8ab6 3240
00000130: 6869 153f bb4c 4b40 ac7b 82be 6079 5abf
00000140: 6a45 bcbd ab91 1e3e 4c9f bbbe a1c3 843f
00000150: e875 40bd 9d95 34be 2c0d 103d e774 eb3e
00000160: d4e6 dc3e 719f d33e ff0d 34bf 1123 b9bf
00000170: 5b87 82bd ba5c 6b3d 505f 5dbf c545 28bf
00000180: 763a 973d d42c c23d 8dd4 933e 8989 86be
00000190: fa06 ed3e 3861 c73e 2de0 afbe a142 7ebf
000001a0: f242 a53d e621 1d3e 7a4a 6dbf 5b42 a7be
000001b0: fc41 f5ba aef6 263d 6373 6e3e 8817 4540
000001c0: 2ee9 e43e 9d18 4740 fc75 efbd 81fe 0dbf
000001d0: 9fa4 babd fa9d 253e 39c8 dabe 4d6d 343f
000001e0: 9f31 d93c 63c4 04be 4b4b 423e 52d8 90be
000001f0: 9107 3f3e 19f5 043f d350 923e bfc9 813e
00000200: 3bea 67bf 51bd 66bf 6dcf 293c 1e9f a5bd
00000210: 35d2 773e fff6 9abd b98d 843c 02d3 613e
00000220: 6698 833e e002 af3f e063 ac3e 3e54 d63f
00000230: 8dc5 6bbf 7968 b4bf 04f4 48bd 1864 d3bd
00000240: 8d11 ed3e d238 9bbd 8cbe 823c 0ec0 6f3e
00000250: cad5 b1be 67ba aebf 7547 a6be a03e 13bf
00000260: 5234 8abf 92b5 6bbf dc8a b3bd a843 b33c
00000270: 066c 0b3f 833a 27bf 6240 87bc c9c8 3d3b
00000280: ddc9 8bbe 3431 60bf 4a5d 4abe 1dd4 ddbe
00000290: c499 3ebf c253 84bf 4b54 593d 2ae0 e33d
000002a0: ed19 0a3f a5fd c5be dcb1 bfbd 337f ecbd
000002b0: cee1 843e 3032 943f f7df 5d3e 31f2 963f
000002c0: 3325 dfbe f27c a7bf 72a0 40bd 16c7 62bd
000002d0: abc8 d73e e642 dcbe 644e ba3d b737 a23d
000002e0: b1fc 0abe ec84 263d 148d 85be 4c37 34bf
000002f0: 18b0 42be 5a87 cdbe 698f 22bf 6aa4 37bf
00000300: 2087 c4bb 7315 04be c4b5 943f 715f 99bf
00000310: 17a6 d53e 12e9 1d3e 31cd ebbd cb1b 9abf
00000320: f66e 2abd dc38 95bf 3f0a 87bf cff4 09bf
00000330: 6cae 66bd a260 1f3c c787 753f 7f29 9dbf
00000340: 3fab e43b e984 033c 6dd6 9e3e 73b8 043f
00000350: a4a0 62be 9582 ff3d 7e1e 3fbf 69f1 03be
00000360: fa34 97bd 76be 283d 3815 013d ec71 c33e
00000370: 7919 d93c 7a40 6abe 7785 8b3c 17a3 9f3e
00000380: c187 51be cf37 81be 2389 b0be fb06 f7bd
00000390: 349f 3c3d bb88 773d 0089 3ebb 42a6 16be
000003a0: b846 f6bc da85 87be 34e1 d6bd 0a13 ccbe
000003b0: 3e9d 0fbe 892e 2abf ee5a 6fbf 5487 01bf
000003c0: df0d 81bd 5720 ab3d baa7 943f 6fff 1abf
000003d0: 24e9 8f3d 3cc2 5b3d ce75 80bf 871e bf3e
000003e0: f4bf 323e d60d c83e b1df e33d a69e 253f
000003f0: c68b b43e cccb 9dbe a02b b4bc 7f76 27bf
0.35349002 -0.24297261 0.11284623 -0.10903694 0.24398445 0.3150281 0.035606045 0.034823686
0.2987059 -0.9060506 -0.16335489 0.43241957 -0.49608466 -2.012395 -0.28620842 -2.2767491
0.09504648 0.80294794 -0.12381229 0.20507962 -0.019272072 -0.3682565 0.21471663 0.12491978
-0.086103685 -0.36469123 0.27174973 0.53910416 0.50955117 0.8311214 -0.06339183 0.054884877
-0.008963645 0.5574858 0.043052923 0.109287545 -0.1850889 0.05642533 -0.020052308 0.1663905
0.19080254 0.62352556 0.060162544 0.08974092 0.15868625 0.4558529 -0.027469723 -0.0055886903
-0.61721903 -2.0227015 -0.35478783 -1.97085 0.13126281 0.7193819 -0.09514186 0.03224054
-0.04322958 -0.47951198 0.16438533 -0.0126637565 -0.45264146 0.49456108 -0.06880997 0.6943572
-0.20436795 0.75812775 -0.48974195 -0.50292796 -0.08755945 0.18659772 -0.43667394 1.3750783
-0.059454206 -0.05106617 0.54986715 2.7923913 0.5836396 3.1765583 -0.2548498 -0.85341454
-0.09192927 0.15485255 -0.3664497 1.0372201 -0.046987444 -0.17635198 0.03516881 0.45987627
0.43144858 0.41332582 -0.70333856 -1.4463826 -0.06373473 0.057461478 -0.8647356 -0.6573146
0.073841974 0.094812065 0.288731 -0.26276806 0.46294385 0.3894136 -0.3435072 -0.9932042
0.080694094 0.15344962 -0.9269177 -0.32667813 -0.0018711681 0.040762596 0.23286204 3.0795612
0.44709152 3.1108773 -0.116924256 -0.5546647 -0.0911343 0.16173545 -0.42730883 0.7047928
0.026512919 -0.1296554 0.18974034 -0.2829004 0.1865523 0.5193649 0.2857729 0.25349233
-0.9059178 -0.90132624 0.010364396 -0.0808699 0.24201281 -0.07566642 0.01618086 0.2205315
0.25702208 1.3672752 0.3366995 1.6744459 -0.92098314 -1.4094383 -0.049060836 -0.10321826
0.46302453 -0.07579197 0.01596 0.23413107 -0.3473342 -1.3650635 -0.32476392 -0.57517433
-1.0797217 -0.9207393 -0.0876672 0.021882847 0.54461706 -0.65323657 -0.016510192 0.0028958789
-0.27302447 -0.8757508 -0.1976215 -0.43325892 -0.7445338 -1.0338061 0.053058904 0.1112674
0.5394581 -0.38670078 -0.09360096 -0.11547699 0.25953525 1.1577816 0.21667467 1.1792661
-0.43583068 -1.3085005 -0.047028013 -0.055365644 0.42145285 -0.4301979 0.09096983 0.07920783
-0.13572957 0.040654108 -0.26084197 -0.70396876 -0.19012487 -0.40142328 -0.63500077 -0.7173525
-0.0059975535 -0.12898807 1.161797 -1.1982251 0.4172828 0.1542094 -0.115137465 -1.2039732
-0.041609727 -1.1657977 -1.0550002 -0.53889173 -0.056318685 0.009727629 0.95910305 -1.2278289
0.006978422 0.008027294 0.3102297 0.5184395 -0.22131592 0.124760784 -0.746559 -0.1288506
-0.07383151 0.041197263 0.031514376 0.38172853 0.026501404 -0.22876158 0.017031414 0.31179115
-0.20461942 -0.2523789 -0.34479627 -0.12061878 0.046050265 0.06043313 -0.0029073358 -0.1471186
-0.030063018 -0.26469308 -0.10492173 -0.39858276 -0.14024827 -0.66477257 -0.9349812 -0.5059712
-0.06301474 0.08355778 1.1613686 -0.6054601 0.0702689 0.053652033 -1.0035951 0.37327978
0.17456037 0.39073056 0.1112665 0.64695203 0.3526289 -0.30819547 -0.021993458 -0.65415186

sequential_3/dense_10/MatMul f4 [6, 16]
00000000: affd 64be 8ab0 ad3e a117 143f 7192 8fbe
00000010: 01e9 5bbe 0222 88bd 7ae7 ba3e 9180 c7bd
00000020: ff5d b13c b55e f03e 9a84 4fbe 1ed3 bbbe
00000030: 2c95 22bf 56b7 0e3f e0b8 d5bd 097f 27be
00000040: 4860 8d3e aa23 c23d 5d6b 46bd f808 023f
00000050: bf15 0fbf 5bf7 10be 2f4c 20bd 805a fcbd
00000060: ab99 093e e940 16be c116 1a3f cc5b 0d3f
00000070: d48e ab3e 90b6 f5bd 7213 5bbe cfa4 b5be
00000080: 8194 6f3e f88f 5ebe 7765 383e 5253 07be
00000090: efed a93e 00c4 f53e a182 b8be cb72 58be
000000a0: 9bf2 f93d a29b b23e a633 04bf 11cc ebbe
000000b0: 3616 13bf 3426 9cbe b009 8f3e f536 60be
000000c0: 1274 6a3d ef91 05be 9382 c3be 45ac 37bd
000000d0: f824 2a3e 71e1 623d a5ca b4be be95 ecbd
000000e0: 6dfc 413e fdf1 3b3d 9156 293f 85f6 123f
000000f0: f1d7 633d 48bc 22be f5cf ce3e 8d89 b33e
00000100: 4701 28bf b1fe 0ebe b150 cf3d 0478 76be
00000110: 1dec 2dbf daaf a1be 1ab4 1bbd f70f 86be
00000120: 80be 9cbe 0182 423d e9de 61be 987a 1d3c
00000130: 9146 e8be 5c74 3f3d 6bb1 febc f33b 53ba
00000140: 0e5b a2be 3fca 953e 6f26 efbd be54 03bf
00000150: 6dc7 dcbe a164 9a3e 3bd8 8cbd f613 203d
00000160: 379b 743d ea8b 2ebf db57 b5be 5364 3cbe
00000170: dfb0 36bf 074c 8bbd a680 0dbe 7756 47be
-0.22362398 0.3392375 0.57848555 -0.28041413 -0.21475603 -0.066471115 0.36504728 -0.09741319
0.021651266 0.46947256 -0.20265427 -0.36684507 -0.6350887 0.557485 -0.10435653 -0.16357054
0.2761252 0.09479459 -0.048442233 0.50794935 -0.55892557 -0.14156859 -0.039135154 -0.12321949
0.13437526 -0.14673199 0.6019097 0.55218196 0.33507407 -0.11997712 -0.21394137 -0.354773
0.23396493 -0.21734607 0.18007456 -0.13215378 0.3318934 0.480011 -0.36037162 -0.2113754
0.122044764 0.34884363 -0.5164131 -0.46054128 -0.57455766 -0.30497897 0.27937078 -0.21895964
0.0572396 -0.1304395 -0.38185558 -0.044842023 0.16615665 0.05539078 -0.35310856 -0.115519986
0.18943949 0.045885075 0.66147715 0.5740741 0.05562586 -0.15892136 0.40393034 0.3506588
-0.6562695 -0.13964345 0.101228125 -0.2406922 -0.67938405 -0.31579477 -0.038013555 -0.26184055
-0.3061409 0.047487263 -0.2205769 0.009611748 -0.45366338 0.04674183 -0.031090459 -0.00080579444
-0.31710094 0.29255864 -0.116772525 -0.5130118 -0.431209 0.301549 -0.0687718 0.039081536
0.059718337 -0.6818224 -0.3541859 -0.18397646 -0.71363634 -0.068016104 -0.13818607 -0.19466577

sequential_3/dense_11/MatMul f4 [2, 6]
00000000: 3201 a9be 3974 423f 3e2a 77be 1af8 803f
00000010: 0ba7 213e 2e20 68bf 8b28 a73f ee4c 4abf
00000020: 4d75 fc3e a6ed 3ebf 0a8d 67bf b4f1 603e
-0.33008724 0.7595859 -0.24137208 1.0075715 0.15786378 -0.906741 1.3059248 -0.79023635
0.49308243 -0.7458137 -0.90449584 0.21967202
