Training/train_ckpt/pca/495/NONE.tflite (tflite, 3220 bytes, 6 tensors)

sequential_33/dense_100/BiasAdd/ReadVariableOp f4 [6]
00000000: 5119 a13d 3b39 043d d5a8 4e3f 27b3 033e
00000010: 371f dc3a c6de 4e3f
0.07866157 0.03228114 0.8072637 0.1286131 0.0016793971 0.80808675

sequential_33/dense_101/BiasAdd/ReadVariableOp f4 [2]
00000000: 7206 2cbe 7306 2c3e
-0.16799334 0.16799335

sequential_33/dense_99/BiasAdd/ReadVariableOp f4 [8]
00000000: 9edd 5dbe 87ff 8dbe 80ed 37be 6ae2 fdbd
00000010: fa2f 3cbd bf89 5e3f e24e 833e baf8 9c3d
-0.21666571 -0.27734014 -0.17961693 -0.12396701 -0.04594419 0.86928934 0.2564612 0.07664628

sequential_33/dense_99/MatMul f4 [8, 12]
00000000: dc14 a0be 266a d9be 849f 9ebd 5392 53bd
00000010: fe42 2d3e 683b 753e c80d a03e bceb c13e
00000020: 8689 0d3e 9a78 49bd 1793 283f 784a f43e
00000030: 37e1 0cbe d25d 283d e857 c6bd 432e 043f
00000040: 2e5e 7c3e fb47 c3bd 3519 683e 1fb5 793e
00000050: f570 f8be 781d dc3e 5f5e f5bc 4379 b1be
00000060: 824f 02be 76f3 813c 2dc8 86be 7e21 9a3e
00000070: 7c4b 2f3d 9ca4 613e 7208 273e f286 2dbe
00000080: 051b d5bc 48c8 003d 9b39 b2bc d7f7 73be
00000090: 9f68 90bd 07e5 88be 8728 023f 8a0c 0bbf
000000a0: b22b 313e 9f62 99be fc52 bf3d e65e 333e
000000b0: 4862 883e 5579 52bc 34c0 5abf 8e39 f33d
000000c0: 22d5 82bd 7313 0ebe f416 f63e d1b8 1ebf
000000d0: 7e8e 8dbe a05b 923e 0684 853c 26f9 7bbe
000000e0: c73a f23e 655b 6bbe 0ad9 3a3f 3a1b 9fbe
000000f0: d6c3 8d3e 3e1e 753d 4d7c ba3e 6316 07bf
00000100: 5b9f c9bd a924 c3be b8d4 87be 44ba a83e
00000110: e376 523c f4a5 983c 19d4 3cbf 4aba 20bc
00000120: ac1d 5d3d 25da a6bb 5b8e 3f3e 5492 1fbf
00000130: 5dcd 48be 4594 febd 783b 03bf 3488 1bbe
00000140: 8592 203e 2934 823e 0a51 393e e4e9 06be
00000150: 471d 8c3e fe02 de3d 3f55 ad3e 9abc 4abe
00000160: 4f0b 6fbe 00fa 09bf 83ff 49bd 556b 5f3e
00000170: dfd8 c2be bb46 4f3e 9434 94be 0892 cebe
-0.31265914 -0.42463797 -0.07745269 -0.051653218 0.16920087 0.23948443 0.31260514 0.37875164
0.13821992 -0.04918728 0.6584944 0.47713065 -0.13757788 0.0411051 -0.096847355 0.5163309
0.24645302 -0.095352136 0.22665866 0.24385498 -0.4852368 0.42991233 -0.029952226 -0.34662828
-0.12725642 0.015863162 -0.26324597 0.30103678 0.042796597 0.2203545 0.16311815 -0.16946009
-0.02601386 0.031441003 -0.021755984 -0.23825012 -0.07051205 -0.26737234 0.5084309 -0.5431601
0.17301825 -0.29958054 0.09342 0.1751667 0.26637483 -0.012846311 -0.8544953 0.11876212
-0.06388308 -0.13874607 0.48064387 -0.6200076 -0.27647775 0.2858553 0.016298305 -0.24606761
0.4731047 -0.22984083 0.72987425 -0.3107546 0.27688473 0.059843294 0.3642296 -0.52768534
-0.09844848 -0.38113907 -0.2652948 0.3295461 0.012845728 0.01863382 -0.73761135 -0.00981004
0.053983375 -0.005091923 0.18706648 -0.62332654 -0.1960959 -0.12430624 -0.5126262 -0.15188676
0.15680893 0.2543042 0.1809732 -0.1317516 0.27366087 0.108404145 0.338541 -0.19798508
-0.23344158 -0.53897095 -0.04931594 0.21818288 -0.38056085 0.20241825 -0.28946364 -0.40345788

sequential_33/dense_100/MatMul f4 [6, 8]
00000000: f388 f33c b943 23be ea49 8cbe d2af 3c3e
00000010: 2cf5 55be 4b96 adbe 38ed f53e cf61 2c3e
00000020: 0fb6 b6be d0a4 0f3f 3a07 ec3c 14cd a3bd
00000030: 1489 e1be 688b 5d3d 905b cfbb 7b22 213f
00000040: a229 e73e b006 d63d 0cd2 193f 1d2d 1a3f
00000050: f074 0bbd 17bc fbbe e080 e8be ae50 56be
00000060: b46a 49be 6f42 a83e 9ec9 b63d 8d0e 51bd
00000070: eea8 a3be d1b2 07bd 1ba7 ce3d 108b d73e
00000080: 1662 9f3d c09d e038 0fca e33e b9ac d43e
00000090: c3bf 0c3f 6af0 193f de1a 9f3d a0f5 1c3e
000000a0: ad1d cebe 0a20 f43e 6841 293e a223 50be
000000b0: 6889 a53e 06da 54bf 650b 0bbf a657 a7be
0.029728388 -0.15943803 -0.27400142 0.18426445 -0.20894307 -0.33903727 0.48032546 0.16834186
-0.35685775 0.5611086 0.02881204 -0.079981 -0.44049895 0.054088026 -0.006328054 0.6294324
0.4514895 0.10450494 0.6008613 0.6022509 -0.034047067 -0.4916694 -0.45410824 -0.20929214
-0.1966961 0.32863185 0.08925174 -0.051039267 -0.3196482 -0.033129517 0.100904666 0.42098284
0.0778238 0.000107105356 0.44490096 0.41538027 0.54980105 0.6013247 0.077687964 0.15328074
-0.40257016 0.47680694 0.16528857 -0.20326093 0.32331395 -0.8314518 -0.5431426 -0.32684058

sequential_33/dense_101/MatMul f4 [2, 6]
00000000: e1d0 b6be b437 9fbe 202e 2abf d62c ae3e
00000010: e808 80be 15c3 ac3b dcda e0be 06ae e8be
00000020: 9c73 23bf 81a7 113f 5e82 8cbe e91b a63c
-0.35706237 -0.31097186 -0.6647663 0.34018582 -0.25006795 0.005272279 -0.43916976 -0.4544527
-0.6384828 0.56896216 -0.27443212 0.02027698
