Training/train_ckpt/model_best/875/FLOAT16.tflite (tflite, 5636 bytes, 5 tensors)

sequential_58/re_lu_116/Relu;sequential_58/batch_normalization_58/batchnorm/add_1 f2 [16]
000000 6e bc c2 38 52 bc 16 3c d8 be 90 38 74 32 d9 b0
       -1.107 0.5947 -1.08 1.021 -1.711 0.5703 0.2017 -0.1515
000010 b6 be 4e bf b5 bf a6 be 0e be c1 3e a4 bd ba 3c
       -1.678 -1.826 -1.927 -1.662 -1.514 1.688 -1.41 1.182

sequential_58/batch_normalization_58/batchnorm/mul_1 f2 [16, 62]
000000 1b 98 4e 9f 70 1b 49 9c 3e 9c fd 94 b1 95 1a 1f
       -0.002005 -0.007133 0.003632 -0.004185 -0.004143 -0.001218 -0.0013895 0.006935
000010 7a 1c 2d 99 06 1c 7b 1e 12 9f d1 9f 3e 9c 77 9e
       0.00437 -0.002527 0.00393 0.00633 -0.006905 -0.007633 -0.004143 -0.006313
000020 b8 9d 50 96 aa 1b 03 91 89 1f 42 9a 60 9a ab 02
       -0.005585 -0.001541 0.003742 -0.000612 0.00736 -0.003056 -0.003113 4.07e-05
000030 3b 19 13 9d 1e 9c 4c 91 48 98 28 14 d2 06 79 92
       0.002554 -0.004955 -0.00402 -0.0006466 -0.00209 0.001015 0.00010407 -0.00079
000040 e8 17 58 91 37 10 c9 8c 28 98 24 8c a1 9c 93 9c
       0.00193 -0.0006523 0.0005145 -0.000292 -0.00203 -0.0002527 -0.00452 -0.004467
000050 7f 9b e3 16 e1 0b 8d 95 a2 94 17 9b fc 8f 44 97
       -0.00366 0.001681 0.0002404 -0.001355 -0.001131 -0.003462 -0.0004873 -0.001774
000060 41 9c 51 a1 4f 9f 91 a1 27 9a d3 90 c2 1e 40 94
       -0.004154 -0.01038 -0.007137 -0.01087 -0.003004 -0.000589 0.0066 -0.001038
000070 33 1a 6e 9d bf 8e 5f 11 37 99 3d 1a d8 98 ad 9c
       0.003027 -0.005302 -0.0004117 0.0006557 -0.002546 0.003046 -0.002365 -0.004566
000080 a8 1a bc 13 c3 19 a3 96 59 19 df 1d 68 0d 75 9d
       0.00325 0.000944 0.002813 -0.00162 0.002611 0.005733 0.00033 -0.00533
000090 3e 10 63 17 48 a0 ae 9f 8d a0 83 a1 09 9d c1 97
       0.000518 0.001803 -0.00836 -0.0075 -0.00889 -0.010765 -0.004917 -0.001893
0000a0 b0 1c c6 18 d2 1b b7 9d ab 95 3a 1b 05 1e 28 18
       0.004578 0.00233 0.003819 -0.00558 -0.001384 0.003529 0.00588 0.00203
0000b0 cc 10 72 99 07 9a 8d 9a 16 03 27 90 8f 1c ac 9e
       0.0005856 -0.002659 -0.002943 -0.003199 4.71e-05 -0.000507 0.00445 -0.006516
0000c0 68 99 b7 9c 2f 90 42 1f c5 9a 55 9c 8e 9f 00 9c
       -0.00264 -0.004604 -0.0005107 0.007088 -0.003305 -0.00423 -0.007378 -0.003906
0000d0 86 80 b0 99 43 16 a4 88 83 95 ac 90 b0 a0 5b a2
       -8e-06 -0.002777 0.001529 -0.0001416 -0.001346 -0.0005703 -0.009155 -0.01241
0000e0 f5 99 67 a3 aa 10 17 9a 9d 15 d3 94 3b 1d 27 96
       -0.002909 -0.01446 0.0005693 -0.002974 0.00137 -0.001178 0.005108 -0.001502
0000f0 e9 98 0d 9d c5 99 32 1c 0d 94 37 9d 36 18 a5 9d
       -0.002398 -0.004932 -0.002817 0.004097 -0.000989 -0.005093 0.002056 -0.005512
000100 f4 96 c3 12 cc 1d f8 8b 6f 1b 43 9d d8 14 c5 1b
       -0.001698 0.0008254 0.00566 -0.0002432 0.00363 -0.00514 0.001183 0.003794
000110 4e 9b 37 9b 0c a0 2d 9c 75 81 90 9d c3 88 45 93
       -0.003567 -0.003523 -0.007904 -0.004078 -2.223e-05 -0.005432 -0.0001453 -0.0008874
000120 ba 1f 23 9e 9d 8d 78 14 74 08 d7 8f bc 95 42 9a
       0.007545 -0.005993 -0.0003426 0.001091 0.0001359 -0.0004785 -0.0014 -0.003056
000130 43 0b dd 1c d5 98 56 85 f6 17 f5 9b 85 00 6f 19
       0.0002216 0.00475 -0.00236 -8.14e-05 0.001944 -0.003885 7.9e-06 0.002653
000140 b0 0d e4 19 8e 9b 7f 12 95 9a 1e 0f a7 0c 38 09
       0.0003471 0.002876 -0.003689 0.000793 -0.003214 0.0004344 0.000284 0.0001593
000150 82 1d 02 9c 7c 12 13 17 7b 98 e9 a0 ee 9c e4 9c
       0.00538 -0.003914 0.0007915 0.001727 -0.002188 -0.00959 -0.004814 -0.004776
000160 f7 9d 11 99 8e 1f d2 98 eb 15 89 9d 45 9a aa 92
       -0.005825 -0.002474 0.007378 -0.002354 0.001445 -0.005405 -0.003061 -0.0008135
000170 d9 9c 10 9a 12 0e 5c 1b fa 90 94 16 7b 19 3e 18
       -0.004734 -0.00296 0.0003705 0.003593 -0.0006075 0.001606 0.002676 0.002071
000180 48 9b e8 99 72 98 f5 1c 66 88 2f 90 2a 1c 6b 20
       -0.003555 -0.002884 -0.00217 0.00484 -0.0001342 -0.0005107 0.004066 0.00863
000190 b2 1f 10 20 bc 1a d7 16 2c 93 84 94 d3 9e 56 20
       0.007515 0.007935 0.003288 0.00167 -0.0008755 -0.001102 -0.006664 0.00847
0001a0 3e 94 11 18 3c 9a 9b 92 d8 1c b4 16 6e 1a 43 15
       -0.001036 0.001986 -0.003044 -0.0008063 0.00473 0.0016365 0.00314 0.001285
0001b0 b3 99 b7 8e f5 9e a0 17 b4 16 3d 15 45 10 c8 9b
       -0.002783 -0.0004098 -0.006794 0.001862 0.0016365 0.001279 0.000521 -0.0038
0001c0 3c 1a 6a 1d a9 91 a4 92 f3 90 b2 80 4d 9d 25 1c
       0.003044 0.005287 -0.000691 -0.0008106 -0.000604 -1.06e-05 -0.005177 0.004047
0001d0 45 94 55 14 0d 20 a2 20 e9 18 77 20 46 14 4d 18
       -0.001042 0.001058 0.00791 0.00905 0.002398 0.00872 0.001043 0.0021
0001e0 9b 90 c1 1c 46 9e d8 1e 59 97 32 0a 5e 1c 78 9a
       -0.000562 0.004642 -0.006126 0.006683 -0.001794 0.0001891 0.004265 -0.003159
0001f0 3d 1e 03 95 58 1e 53 89 b0 9b 18 9a 67 1b 7e 1c
       0.006092 -0.001224 0.006195 -0.0001625 -0.003754 -0.002975 0.003614 0.004387

sequential_58/dense_175/BiasAdd/ReadVariableOp f2 [6]
000000 c8 31 ba 30 8c 2e 74 31 45 2d 04 32
       0.1807 0.1477 0.1023 0.1704 0.08234 0.188

sequential_58/dense_175/MatMul f2 [6, 16]
000000 06 b6 e2 28 e5 b5 f1 36 85 b3 f1 a6 d8 35 8a b1
       -0.3765 0.03815 -0.3684 0.4338 -0.235 -0.02711 0.3652 -0.1731
000010 16 b8 da b0 be b0 8f b3 b7 ae a6 30 e5 b8 b6 2f
       -0.5107 -0.1516 -0.1482 -0.2362 -0.1049 0.1453 -0.612 0.1205
000020 40 39 15 39 ef ae 53 a3 37 3a f1 b4 87 ae 3b ab
       0.6562 0.6353 -0.10834 -0.014305 0.777 -0.3088 -0.102 -0.0565
000030 02 37 27 3b 24 33 7d 38 86 37 a4 2d 72 36 e6 33
       0.438 0.894 0.2231 0.561 0.4702 0.08813 0.4028 0.2468
000040 9f b6 21 31 48 b5 46 34 40 b5 f3 2c ab b1 ee 34
       -0.4138 0.1603 -0.33 0.267 -0.3281 0.07733 -0.1771 0.308
000050 78 b3 27 b4 4e 34 2a b6 06 35 c5 b3 23 32 17 36
       -0.2334 -0.2595 0.269 -0.3853 0.314 -0.2428 0.1918 0.3806
000060 3c 34 fe ad e5 b6 12 b2 99 b5 b5 36 6b 31 eb a8
       0.2646 -0.0936 -0.431 -0.1897 -0.3499 0.4192 0.1693 -0.03842
000070 b2 b6 ea 30 8b b2 9f 9d 29 b4 76 35 54 b4 20 35
       -0.4185 0.1536 -0.2045 -0.00549 -0.26 0.3413 -0.2705 0.3203
000080 06 39 8e ac ca 33 93 b6 6e 36 48 36 77 38 49 a0
       0.628 -0.07117 0.2434 -0.411 0.4019 0.3926 0.558 -0.00837
000090 65 37 5c 2e 81 34 ce 30 a2 aa 6a 32 50 37 e4 30
       0.4622 0.09937 0.2815 0.1501 -0.05182 0.2004 0.457 0.1528
0000a0 6b b4 05 b4 72 35 fb af 7f b2 e4 37 35 b3 a9 2c
       -0.2761 -0.2512 0.3403 -0.1247 -0.203 0.4932 -0.2252 0.0728
0000b0 31 2a 70 b1 43 b7 eb 24 33 34 e2 35 24 b6 98 2d
       0.04837 -0.1699 -0.4539 0.01921 0.2625 0.3677 -0.3838 0.0874

sequential_58/dense_176/MatMul f2 [2, 6]
000000 3a b9 e4 35 f7 b9 e0 ae 44 39 05 bb ea 38 09 b4
       -0.6533 0.3682 -0.7456 -0.1074 0.658 -0.8774 0.6143 -0.2522
000010 d8 38 09 39 7b 28 c5 31
       0.6055 0.6294 0.035 0.1803
