Training/train_ckpt/model_best/228/NONE.tflite (tflite, 6924 bytes, 6 tensors)

sequential_15/re_lu_30/Relu;sequential_15/batch_normalization_15/batchnorm/add_1 f4 [16]
00000000: 245f a43f 8ea5 e1bf 542f 1ebe a331 7dbf
00000010: 1682 f0bf 2112 80bf edef 9bbe 80e1 773e
00000020: 449d 06be 6605 a6bf 31a6 2cc0 7ed2 4ec0
00000030: 9187 99bf d040 acbf 425e 46be 47aa 8fbd
1.2841535 -1.7628648 -0.15447742 -0.98903865 -1.8789699 -1.0005533 -0.30456486 0.24207115
-0.1314593 -1.2970397 -2.6976435 -3.2315974 -1.1994497 -1.3457279 -0.19371894 -0.070149

sequential_15/batch_normalization_15/batchnorm/mul_1 f4 [16, 62]
00000000: c9c7 ceb9 87a5 a63b 8d38 b43a 2d7e f33a
00000010: 4368 543b c858 2fbb d670 68bb 2e34 93ba
00000020: 3786 93bc 8e5a cd3c 3b29 37ba bc02 a3ba
00000030: c9e0 933a 2740 7e3d 7ac8 1e3c 1a19 813d
00000040: 1b05 aa3a c646 47bc 9186 92ba d416 f2bb
00000050: bd33 87bc 1316 ee3c bd2e 92ba 7d10 e9bb
00000060: c9ce ef3a 292d 613c 6622 8fbb 1856 5e3b
00000070: ca61 7b3a cdb6 c9bb 6823 9439 b822 f7b9
00000080: 3999 71bc 4ef4 f5bb 7f08 a6b6 f927 9839
00000090: 1b4b 7c3b 45dc 2fbc 713c 873b 3596 e9bb
000000a0: c1cd a13b 9531 10bc 14b2 d1b9 5881 3839
000000b0: 30d0 a4bc b6e8 bbbb 43f5 4139 091e 11b9
000000c0: 8e19 253c dc91 793d 5403 b43b 1275 793d
000000d0: ff17 193b d975 0dbc 7481 fbba ea6c 6bbb
000000e0: cf3e 91bc d255 be3c 3ca5 5bba 5862 b0bb
000000f0: 21f1 8b3c 60b2 90bb 1b63 163b 1ca7 a4bc
00000100: ab8b 8e3b d891 35bc fc13 143c 023d d43c
00000110: 8d7c 2239 1d10 9c3b 76e2 2dbc ac89 9f3c
00000120: f0f1 8fba c2a3 a0ba 6ed4 9c37 7848 c1bd
00000130: cb72 743b 770e b2bd 6108 e23b d25f 613c
00000140: f064 903c b1dd 08bb 0abc 0dbc b773 e0bc
00000150: 0956 a3ba 1001 1a3b 83b5 48bc f63d 4fbd
00000160: 0ec8 18bc 7488 00bd 8e0c e1ba 7590 8c3c
00000170: e4f6 ca36 505a 99b9 2b22 0c3c 5ccd 9f3c
00000180: ce33 e0b7 afe7 0db9 d7ab ecbb 39ef adba
00000190: 9c21 18bc bb28 0dbc 4adf cd3b 366f 5a3c
000001a0: 790d e6b6 97ed 003a 2361 263c 5d72 7b3c
000001b0: 544d b9b8 3ff4 8bb9 0bcc 9d39 ccf3 bdbd
000001c0: e1d6 6e3a 1eff b7bd ab56 1c3c f33b 173a
000001d0: f7a2 b4ba 06e8 dcba 1f44 bf3b 88bd b8bc
000001e0: eff7 93ba f49a fc3a d5ea a13b 812b 693b
000001f0: a556 73ba 8b15 beba 3bf0 0d3b 9369 81bb
00000200: a038 803c fd5f f43b 8816 e3ba c751 893b
00000210: e28b 2abd 6ab3 6a3d 9cfa 12ba 9b5d b9bb
00000220: 626e 443c ce5c 913d 1e78 0f3c 7b30 8f3d
00000230: 65be 7b3c a9eb cb3b 80fb 7fba 6699 993b
00000240: 00af 0abd fc91 693d 7eeb 84ba 3623 bd3b
00000250: 0525 12bc cc13 08bc a469 143c 94bc 253c
00000260: c06d 0abc febc 75bc dcd0 3fba e14d 10bc
00000270: d9d3 b2bc 2d22 83bc 0477 c5b9 608a a13a
00000280: 7b0d b8bb e591 b6bc 585d 753c afca 273b
00000290: d0ab e33a 90cf ffbb d289 6739 1605 083b
000002a0: 8cd4 2cbd 5d23 80bc 3330 d6b8 409e f6b9
000002b0: f61a a63b 1893 493d 079b 4e3c 74ee 0c3d
000002c0: 3dfb 7e3c 9b55 17bb 496e 87ba e6d0 6b3b
000002d0: dde8 07bd 73d7 223d 2aff 56ba c5af a13b
000002e0: 7189 073d 5523 f4bc 93d9 953a f00b 7cbc
000002f0: 4c08 853b 4d75 2dbc c923 4abc 1641 433c
00000300: 10e3 a639 381e 1aba 1dc3 d13c b793 7d3c
00000310: 3948 ccba 8da8 813b 626d a0bb e3d9 35be
00000320: fa4c 8239 57d2 2ebe ebad aebc fc3c c6ba
00000330: 18b1 aeb9 c300 533b 9a76 013b a8cf 4abd
00000340: 7d30 bcba 240d c5b9 28ba cebc 12d0 c3bd
00000350: d208 b03c e154 51bc 84ad bbbc be6c 1a3c
00000360: ebb2 a3b9 6b36 083a 5d82 0a3d a873 093d
00000370: edd5 f239 c1ef 3fb9 4628 a4bc 173a d5ba
00000380: 4b2f 2b3c 5255 213d e1df 05bd 0099 953b
00000390: 7993 fa38 541c 813a a9d6 073d 4a66 0c3d
000003a0: 6a3d d539 c211 3839 38cd 21bb d110 20be
000003b0: 202f 863b 2a06 24be cdc6 febc b0a7 47bc
000003c0: 65ec 5aba e5be 313a f57b 283d 3467 c3bc
000003d0: 63f1 493c 7110 a7bb 7329 d5bc f7e4 503c
000003e0: 6e96 8f39 5452 07bc 7406 943b 3950 8bbc
000003f0: c823 9ebc e308 0b3c 217d 3eba fb6b c339
-0.00039440233 0.0050856504 0.0013749764 0.0018577032 0.0032410778 -0.0026755799 -0.0035467646 -0.0011230761
-0.018008335 0.025067594 -0.000698704 -0.0012436728 0.0011282201 0.0620729 0.009691352 0.06303616
0.0012971492 -0.01216287 -0.001117902 -0.007387975 -0.016504163 0.02906326 -0.0011152845 -0.0071125613
0.001829588 0.013743677 -0.0043681143 0.0033925828 0.0009589462 -0.0061558248 0.0002825514 -0.0004713738
-0.014746004 -0.00750593 -4.9481746e-06 0.0002902148 0.0038496915 -0.010733669 0.004127078 -0.007128502
0.004937858 -0.008800884 -0.00039996265 0.00017595792 -0.020118803 -0.0057345284 0.00018497281 -0.00013839467
0.0100768935 0.060930118 0.005493561 0.060902663 0.002336025 -0.008634054 -0.001918836 -0.0035923072
-0.017730145 0.023234282 -0.0008378809 -0.0053828172 0.017082753 -0.004415795 0.0022947255 -0.020099215
0.004350146 -0.011082135 0.009037968 0.025907997 0.00015495923 0.004762663 -0.0106130745 0.019474827
-0.0010982137 -0.0012255835 1.869557e-05 -0.094376504 0.0037299867 -0.08694165 0.0068979715 0.0137557555
0.017626256 -0.0020884092 -0.008650789 -0.027398927 -0.0012461554 0.0023499168 -0.012250307 -0.0505962
-0.0093250405 -0.03138013 -0.0017169879 0.017158726 6.048811e-06 -0.00029249722 0.008553068 0.019507103
-2.6727004e-05 -0.00013533117 -0.0072226333 -0.0013270146 -0.009285357 -0.008615668 0.0062827216 0.013332179
-6.8561026e-06 0.0004918216 0.010154995 0.015347091 -8.835891e-05 -0.00026694124 0.00030097397 -0.09275016
0.0009110999 -0.089842066 0.009542148 0.0005769126 -0.0013781477 -0.0016853816 0.005836978 -0.022551313
-0.00112891 0.0019272254 0.0049413242 0.003557891 -0.00092826254 -0.001450227 0.002165808 -0.003949353
0.015652 0.0074577318 -0.001732544 0.004190657 -0.04163731 0.05730001 -0.0005606802 -0.0056569106
0.011989208 0.07097779 0.0087566655 0.06991669 0.015365218 0.0062231612 -0.00097649544 0.004687476
-0.0338583 0.057023987 -0.0010140983 0.0057720197 -0.008919959 -0.008305501 0.00905839 0.010115761
-0.008449018 -0.0149986725 -0.0007317194 -0.00880763 -0.021829532 -0.016007507 -0.00037663442 0.0012324564
-0.0056168414 -0.022286365 0.014975868 0.0025602987 0.001736993 -0.007806726 0.00022081219 0.0020754985
-0.042194888 -0.015641863 -0.00010213293 -0.00047038682 0.005069132 0.049212545 0.012610204 0.034407094
0.01556283 -0.0023091796 -0.001033255 0.0035982667 -0.03318106 0.03975625 -0.00082014746 0.0049342834
0.03309006 -0.029802004 0.001143264 -0.0153837055 0.004059827 -0.010587049 -0.012337633 0.011917373
0.00031831162 -0.0005879137 0.025605733 0.0154771125 -0.0015585489 0.0039568604 -0.004895852 -0.17758898
0.00024852884 -0.17072426 -0.021323165 -0.0015124376 -0.0003331981 0.00321965 0.001975453 -0.049514443
-0.0014357712 -0.0003758456 -0.02523525 -0.09561171 0.02148858 -0.012776584 -0.022909887 0.00942534
-0.00031223087 0.0005196097 0.03381573 0.033557564 0.00046317224 -0.00018304495 -0.020038735 -0.0016267922
0.010448287 0.03938801 -0.03268421 0.004565358 0.00011948398 0.0009850361 0.0331637 0.034277238
0.00040672283 0.00017554223 -0.002468897 -0.15631415 0.004094973 -0.16017976 -0.031100655 -0.012185976
-0.00083512656 0.00067804597 0.04113384 -0.023852922 0.0123256175 -0.0050983955 -0.026020741 0.012749902
0.00027387164 -0.008259375 0.004517371 -0.017006027 -0.019304171 0.0084860055 -0.00072665705 0.0003727375

sequential_15/dense_47/BiasAdd/ReadVariableOp f4 [2]
00000000: 3f79 e8bd 4b79 e83d
-0.11351251 0.1135126

sequential_15/dense_46/BiasAdd/ReadVariableOp f4 [6]
00000000: a61a 3d3e fcba b23e dc7e 393e 4804 ce3e
00000010: 3ce4 153e b4d5 50bb
0.18467197 0.34908283 0.181148 0.4023764 0.14637846 -0.0031865658

sequential_15/dense_46/MatMul f4 [6, 16]
00000000: 28fd 3f3e 6735 43be 7c5f f53e d43d 8c3d
00000010: c859 053d 5181 cb3e 0bea b63e 158a 76be
00000020: aa04 c6bd 617f 10bd 195d 2abe 0da8 0b3f
00000030: 2e16 03bf 1ec2 243d 9b96 b0be 6451 883e
00000040: 3507 933e d335 0e3e cf50 09bf 6d08 9e3e
00000050: b8ee 403f 52be 3bbf 6121 bc3e 3eb5 813e
00000060: e4bb 3cbe b8bf 053f ae4c 00bf 48d1 f5be
00000070: c301 273e 213e 673f 8598 993e 4d6f 0cbf
00000080: 6e1c 303e 0e9e eabe 6363 5bbe cda7 27bf
00000090: d337 1abe 62b5 2a3e f062 0e3c dcd1 833e
000000a0: e4e4 a13e 311a 07bf af39 db3e 79a0 80be
000000b0: 1d0b d13e 4c96 08bf 625e 3dbd 5da2 f63e
000000c0: f792 883e 55ee 9bbe 71f5 813e 2d8d 02bf
000000d0: 5107 d5be 8cdb d53e 7ea9 253f 4f8e 1cbc
000000e0: fd90 0b3e 8e95 fcbe 2976 163f 641f 173f
000000f0: e04c 073f 7ab4 06bf 1201 0bbf 1359 953e
00000100: 122b f1be 8099 453f 75bd dabd 0dc6 723f
00000110: c9fa ad3e 75a8 b33e 20bd ca3e 42e1 3ebf
00000120: 92a9 a4be 8729 e03e b37d 233e 9450 733e
00000130: e1e3 2d3f 7d2c 293f 48b8 203e 74c1 f03d
00000140: c1af 31bf 967b 293f c296 d3bc e135 b13d
00000150: b298 d73e c126 ed3e f4a8 59bc dec1 70bf
00000160: 56fc e3be ff66 023f 641f b23e 5207 263e
00000170: 3962 8abd c812 18bf 8223 503f 1da9 333e
0.18748915 -0.1906334 0.4792441 0.0684773 0.032556325 0.39747098 0.35725436 -0.24076112
-0.09668858 -0.035277728 -0.16637076 0.545533 -0.5120572 0.040224187 -0.34489903 0.26624596
0.28716436 0.1388772 -0.5363893 0.30865803 0.75364256 -0.7333728 0.36744216 0.2533359
-0.1843105 0.52245665 -0.50117004 -0.4801123 0.16309266 0.90329176 0.29999176 -0.5485733
0.17198345 -0.4582371 -0.21424632 -0.6549042 -0.15060358 0.16670755 0.008690581 0.25746047
0.31619942 -0.5277434 0.42817447 -0.2512243 0.4082879 -0.53354335 -0.04623259 0.48170748
0.26674625 -0.3045527 0.2538257 -0.5099667 -0.41607144 0.41769063 0.6471175 -0.009555413
0.13629527 -0.4933285 0.5877405 0.59032273 0.52851677 -0.52619135 -0.5429851 0.2916952
-0.47103173 0.7718735 -0.10680667 0.9483345 0.33980396 0.3508946 0.39597416 -0.74562466
-0.32160622 0.43781683 0.15965919 0.23761207 0.6792584 0.6608351 0.15695298 0.11755648
-0.69408804 0.662042 -0.025828723 0.08652855 0.42108685 0.4631863 -0.0132849105 -0.9404582
-0.44528455 0.5093841 0.34789574 0.1621373 -0.06757016 -0.5940366 0.8130418 0.1754498

sequential_15/dense_47/MatMul f4 [2, 6]
00000000: b254 9bbe a000 7d3f c83b 03bf aebc 85bf
00000010: 14f0 873f 31d4 823f 65d4 bb3d 6b5a c0be
00000020: f591 a63d ca44 05bc 22b3 4e3e 0d8b aabd
-0.30338055 0.9882908 -0.51263094 -1.0448205 1.0620141 1.0221006 0.091713704 -0.37568983
0.08133308 -0.008134076 0.20185521 -0.08327303
