Training/train_ckpt/5featuresV3adjust_simple/37/16_6_model_features_2023-09-26-05:27:20.012049.tflite (tflite, 6828 bytes, 6 tensors)

sequential/re_lu/Relu;sequential/batch_normalization/batchnorm/add_1 f4 [16]
00000000: c2f2 9abe c42f 8e3e 8412 093f 3b6c 843f
00000010: 4d85 a5be 0b8f 00c0 798c 86bf 402e dcbf
00000020: c6da a5bf 8e05 24bf 14dc fc3e 3231 8b3f
00000030: 15b6 eebe ee22 b2bf e777 dbbf 2847 9bbe
-0.30263335 0.27770817 0.5354388 1.0345529 -0.32328263 -2.0087306 -1.0511619 -1.7201614
-1.2957389 -0.64070976 0.49386656 1.0874388 -0.46623293 -1.391691 -1.7145966 -0.30327725

sequential/batch_normalization/batchnorm/mul_1 f4 [16, 62]
00000000: 74eb 6ebb c5e7 033c ac56 8f3b db72 ad3b
00000010: d101 313d 069c 453d b485 d2b9 77c7 71bb
00000020: 9846 9cbd 215c 7b3d 69e4 8f39 8fdc 86bb
00000030: bc46 033c 0dd2 5f3d 888b 303b 250d 4c3d
00000040: 20ee 573d 6e04 3b3d d210 0eb9 9a97 ca39
00000050: b1d4 86bd c958 a03d e6ba 853a 6484 123a
00000060: 5ba8 90bb 8c87 773c ca8f 6a3c b752 0c3c
00000070: 7921 e53c 628b c13c 7020 76b8 6dc8 52bc
00000080: a6df 18bd 953d 553c 958e c4b8 7bd1 0b3a
00000090: 98c4 b83a 2b7e 4dbc 6fff d13b 4ed6 773c
000000a0: 56c3 183d e998 d93c 5f96 9d39 d855 b5ba
000000b0: 3ad4 4bbd c994 463c 4edf 5b38 fc7b 7539
000000c0: d182 63b9 505a 913c c910 ce3a 0ef9 ec3c
000000d0: 5141 3f3d a81d 3a3d 2207 bb39 324b 9f3b
000000e0: 5458 93bd 148e 9c3d 96d0 f239 18cb 963b
000000f0: f44e 853d 0cea aebc 87c9 033b 171d 9bbc
00000100: 62d7 88ba 0d04 63bc 5f41 773c 31ae 013d
00000110: ae01 94bc d79c cf3a 71f9 8e3c 8eda 51bc
00000120: 19dd 243c e7b7 a63b e767 d6bb 2f9b b5bd
00000130: e51b 16bb 1294 c0bd f60f 1e3b 09a6 903c
00000140: ac1c e33a f988 beb9 d1f2 5b3c e777 18bd
00000150: b9f5 893b 33a9 deb9 273d a63a 7047 d5bc
00000160: e361 2ebc 5817 59bc e6a7 263c 5bd2 043d
00000170: d37c 553a 8a2e 6fbb 9196 4b3c 5b70 663c
00000180: baa1 0eb8 bde7 783a ad81 c4bb 9dec cc3c
00000190: c2d4 003b 75e9 dcbb 9037 a23c 1855 e33c
000001a0: 7559 9f39 8b62 58ba ae6f 873b 2c9b ac3a
000001b0: 2b4f de39 0f5c ac39 f9a5 d1bb e647 a2bd
000001c0: e0aa b3bb 3b36 abbd fecd 543c ada2 d93c
000001d0: bbd9 01ba cc89 c7b9 f8ee 813c 9e15 9fbc
000001e0: 08b0 07ba 3bc3 7fba d779 acbb 3b0a f13b
000001f0: 6dc3 ad3b 98ae 7fbb 8d3e 013c 96be 73bb
00000200: 2078 d2bc d38b 0cbd ce62 02bb ad35 b43b
00000210: 136a 3b3c b509 153c f67a 35bb 579b 103c
00000220: d680 a43b ff62 003d fc8c 293c f83d 043d
00000230: f557 f6bc 463e 0fbd 9f1f 48bb b3e5 02bc
00000240: 7c34 4c3c a4d6 933b 74bb dcba 77aa 963b
00000250: 845a 4dbc 9bb5 30bd f456 cb3b 4beb 38bc
00000260: 0f66 eabc ac26 e9bc 796b 183b 5005 a2b9
00000270: d4c3 503b 4395 63bc 9936 6dba 6fa7 cebb
00000280: 9114 2ebb 300d e4bc c1dd f73a 766d 22bb
00000290: a64c e7bc de1a 00bd 850a 8fb9 4da9 f53a
000002a0: ed3c 3fbc 9069 0abc 5e49 8cb9 89ac 94b9
000002b0: 82e8 4b3c cc85 cb3c 8442 c63a 75dd 9d3c
000002c0: afad b0bc 621f 0dbd 21a7 e2ba 21c7 d0b9
000002d0: 509c 813c 29cc 203b 4dc1 be37 c1ee 28b8
000002e0: fe38 3dbc e3d4 5abb d06c 0e3c 81c4 81bb
000002f0: e6ea ab3b 4f75 7838 edf7 56bc de30 73bc
00000300: 329c 8dbb 6e51 243b b2ac febb 3ff4 503c
00000310: b13d fdba 4eb6 43ba 1e94 093c a6c4 a23c
00000320: 0b4b f23b 4e05 a13c 919c e3bb ff67 76bc
00000330: ddab 03bb a5c9 833a 4380 adbb fc45 e53b
00000340: 0901 daba d09e 1c3a 9961 14bc c377 b0bc
00000350: aa3b 053b 40ea 85bb 138e 85bc f592 83bc
00000360: f672 4fbb 616e 6a3b 2f9a 9eba 4324 e03a
00000370: 79f6 6eba 785e ceba 7aad 5ebb c181 99bc
00000380: 98c8 e03a a098 06bb c4d2 8ebc 58bd b5bc
00000390: 9662 4038 a113 f73a d971 e2bb d3ed 193a
000003a0: a5a0 43b9 c993 6eba 391a 1e3c 0af5 0a3c
000003b0: 1ad0 9b3b 4449 733b a711 34bc 901f 98bc
000003c0: 5443 8aba 7294 603b 948b 34bb 994d 063c
000003d0: 1948 bbb9 fd76 a13b 4853 2a3b 4535 debb
000003e0: 3731 143c 6f0f c73c 2422 2e3b db3a 913c
000003f0: 1e73 123e c373 1c3e 911c 19bb 5d4f 56bb
-0.003645626 0.008050864 0.0043743458 0.005293233 0.043214623 0.0482445 -0.00040153938 -0.0036892572
-0.07630652 0.061367158 0.00027445264 -0.004115648 0.00801247 0.05464368 0.0026938636 0.049817223
0.052717328 0.04565852 -0.00013548441 0.00038641394 -0.065835364 0.078294344 0.0010202795 0.0005589186
-0.004414601 0.0151080005 0.014316509 0.008564643 0.027970063 0.023626033 -5.868118e-05 -0.012865168
-0.037322663 0.013015171 -9.372566e-05 0.0005333644 0.0014096675 -0.012542288 0.006408624 0.015126778
0.037295662 0.026562171 0.0003005741 -0.0013834788 -0.049762942 0.012120434 5.2421638e-05 0.00023411209
-0.0002169714 0.01774326 0.0015721555 0.028927352 0.04669315 0.04543844 0.00035672734 0.004861259
-0.07194582 0.07644287 0.00046313246 0.0046018474 0.065092 -0.021351837 0.0020109133 -0.01893477
-0.0010440166 -0.013855946 0.015091269 0.031660262 -0.018067207 0.0015839589 0.017452927 -0.012808455
0.010062479 0.005087841 -0.006543148 -0.088674895 -0.002290481 -0.09403242 0.00241184 0.017657297
0.001732727 -0.00036341677 0.013424591 -0.037223723 0.0042102006 -0.00042469203 0.001268302 -0.02603504
-0.010643455 -0.0132501945 0.010171866 0.032427173 0.00081439054 -0.0036496245 0.012426035 0.014064874
-3.4006058e-05 0.0009494981 -0.005996904 0.02501517 0.0019658064 -0.0067416974 0.019801885 0.027750537
0.00030393494 -0.000825443 0.0041331863 0.0013168803 0.00042402124 0.00032874985 -0.0063979593 -0.0792387
-0.0054830164 -0.08359953 0.0129885655 0.026566828 -0.0004953404 -0.00038058904 0.01586102 -0.019419488
-0.0005176072 -0.00097565696 -0.005263548 0.007355956 0.0053028376 -0.0039013978 0.007888448 -0.0037192455
-0.025692046 -0.034313034 -0.0019895318 0.0054995627 0.011438864 0.009096553 -0.0027691699 0.008826098
0.0050202413 0.03134441 0.010348555 0.03228566 -0.030071238 -0.034971498 -0.0030536426 -0.007989335
0.012463685 0.004511671 -0.0016840533 0.0045979577 -0.012533788 -0.043141942 0.006205434 -0.011286567
-0.028613118 -0.028460823 0.0023257418 -0.00030903006 0.0031855004 -0.013890567 -0.0009048968 -0.0063065807
-0.0026562552 -0.02783832 0.0018910692 -0.0024784482 -0.028234791 -0.031275623 -0.00027282923 0.0018742472
-0.011672241 -0.00844802 -0.00026757544 -0.00028357308 0.012445571 0.024844073 0.0015126024 0.019270638
-0.021567194 -0.034453757 -0.001729224 -0.00039821214 0.015821606 0.0024535751 2.2739778e-05 -4.027668e-05
-0.0115492325 -0.003339105 0.008692935 -0.0039601927 0.005246508 5.923706e-05 -0.013120634 -0.014843194
-0.0043215984 0.002507295 -0.0077720517 0.012753545 -0.0019320754 -0.0007465825 0.00839713 0.01986916
0.0073941997 0.01965585 -0.0069461544 -0.015039443 -0.0020091452 0.0010054602 -0.005294831 0.006996868
-0.0016632389 0.00059745926 -0.009056472 -0.021541482 0.0020329752 -0.0040867627 -0.016303098 -0.016061286
-0.0031654215 0.0035771357 -0.0012100394 0.0017100651 -0.0009115707 -0.0015744707 -0.0033977912 -0.01873863
0.0017149625 -0.002053775 -0.017434485 -0.022185013 4.5868182e-05 0.0018850454 -0.0069105444 0.00058719254
-0.00018656494 -0.0009101001 0.009649807 0.008481273 0.0047550322 0.0037122527 -0.010990537 -0.018569738
-0.001054863 0.0034268168 -0.0027549015 0.008197212 -0.00035721136 0.0049275146 0.002598958 -0.0067812526
0.009044937 0.024299351 0.0026570642 0.01772826 0.14301726 0.15278535 -0.0023362974 -0.0032701113

sequential/dense_2/BiasAdd/ReadVariableOp f4 [2]
00000000: 4eef b0bd 51ef b03d
-0.08639394 0.08639396

sequential/dense_1/BiasAdd/ReadVariableOp f4 [6]
00000000: 263d c13e 889b de3e 8abf 683e 876e e93d
00000010: 3d96 023e 4707 993e
0.37741965 0.43478036 0.22729316 0.113980345 0.12752624 0.29888365

sequential/dense_1/MatMul f4 [6, 16]
00000000: af9f a7be a5e3 a93e 2338 ae3e 0687 59bf
00000010: 5650 173e ae2b d03e 094a a8be f918 08be
00000020: 758a c7be 4e85 1a3e 70b4 98be 4641 9cbe
00000030: 76f9 b4be c64b 3abf af49 b4be ce0e 7a3d
00000040: 7580 c73e 6792 3cbe 4ac4 9e3d 0f31 153f
00000050: a0b6 103f 5c5e 943e df3c 6ebe f6f3 53bc
00000060: 3f88 4d3c 30a6 ea3e eb97 20be 8de1 bdbe
00000070: 8323 1d3e c24d 64be 4143 6abe cedc 153f
00000080: a5c2 74be ab11 00be 774d 0d3f 956f d53e
00000090: 0b55 48bf 1fc9 2abe 1882 33bf fd45 16be
000000a0: bd01 11bf 2117 243e 75d6 03be 0615 a0be
000000b0: 74af 113f ba59 14bf 8b00 e2bd db67 fd3e
000000c0: b64c 43be f99d e33e 0745 cb3e 577f 363e
000000d0: c5e0 77bd 369a 2cbd 69e3 0f3f aadd 0a3f
000000e0: 2d4c 143f be70 e53d 82f4 aa3e 4e11 073f
000000f0: eebc 51bd 04ec 2b3f a093 693f c72e 8c3e
00000100: 3195 e1be 4ef5 8a3e 0bbc 0dbe 303c f53c
00000110: 2c28 38bd 8477 79be 2b6f b53e 208e d83e
00000120: 1583 c53e f57d ec3d 69ff 4f3f 6578 403f
00000130: fae0 ab3e b180 b63d e965 02bd 2161 54be
00000140: 2592 773e c8ce bc3d 39f5 673d 4670 ff3d
00000150: a712 ab3e fe10 0a3f 9d7a 11bd 8514 12bf
00000160: f5ce 27be e2f7 133f 47e8 8dbd 5863 17bf
00000170: 8d3e ee3e a0f7 b2bd 3ced 1abe 04c3 bd3a
-0.32739016 0.33181491 0.34027204 -0.84971654 0.1477674 0.40658325 -0.32868984 -0.13290776
-0.38972822 0.15089914 -0.29825163 -0.3051855 -0.35346574 -0.7277187 -0.35212466 0.061049275
0.38965192 -0.18415223 0.07752283 0.5827798 0.56528664 0.2897824 -0.23265408 -0.012936583
0.012544691 0.45829916 -0.15682952 -0.37086144 0.15345578 -0.22295287 -0.22877218 0.58540046
-0.23902376 -0.1250674 0.55196327 0.41686693 -0.78254765 -0.16678284 -0.7012038 -0.14675136
-0.5664328 0.16024448 -0.12874778 -0.3126604 0.56908345 -0.5794941 -0.1103526 0.49493298
-0.19072232 0.4445646 0.397011 0.17822014 -0.06051709 -0.042139255 0.56206375 0.5424448
0.57928735 0.112031445 0.3338967 0.5276078 -0.051205568 0.67157006 0.9124088 0.27379438
-0.44059137 0.27140278 -0.13841264 0.029935926 -0.044960186 -0.24361998 0.35436377 0.42295933
0.3857657 0.11547462 0.812491 0.7518371 0.3357008 0.08911265 -0.03183547 -0.20740177
0.24176843 0.09219128 0.056630347 0.12472586 0.33412668 0.5393218 -0.035517324 -0.5706256
-0.16387542 0.57800114 -0.06929069 -0.5913596 0.46532097 -0.08738637 -0.1512956 0.0014477675

sequential/dense_2/MatMul f4 [2, 6]
00000000: e45c 3bbf 2657 ba3e 062b 3cbf 9eb7 273f
00000010: 6e07 bdbe 2df1 cbbe de6a 423e e4d4 813f
00000020: a997 113f f7cb bfbe 2d76 82bf 281d 403d
-0.73188615 0.36394614 -0.7350315 0.6551455 -0.3691973 -0.3983244 0.18986079 1.0143094
0.5687204 -0.374603 -1.0192314 0.046902806
