Training/train_ckpt/no_reject/10/FLOAT16.tflite (tflite, 5664 bytes, 5 tensors)

sequential/dense_1/BiasAdd/ReadVariableOp f2 [6]
-0.6245 -0.3882 -0.387 -0.4336 -0.05234 0.118
00000000: ffb8 36b6 31b6 f0b6 b3aa 8d2f

sequential/dense/BiasAdd/ReadVariableOp f2 [16]
-0.08923 -0.09503 -0.2355 -0.12354 0.04428 -0.1643 -0.03073 -0.005833
-0.1805 -0.002663 -0.1655 -0.05704 -0.05347 0.1403 -0.4004 0.227
00000000: b6ad 15ae 89b3 e8af ab29 42b1 dea7 f99d
00000010: c7b1 7499 4cb1 4dab d8aa 7d30 68b6 4433

sequential/dense/MatMul f2 [16, 62]
0.06177 0.05322 0.04456 0.1642 -0.4136 -0.1996 -0.0559 0.1702
0.03207 -0.3665 -0.07916 0.169 0.0948 0.7617 0.03967 0.672
-0.1902 -0.5083 -0.09534 -0.2275 0.0857 -0.0799 -0.0626 0.132
-0.166 -0.4944 -0.1868 -0.01217 -0.3118 0.05853 0.0896 0.086
0.364 -0.588 -0.3384 -0.2573 0.1726 -0.09625 -0.1431 -0.3801
-0.2734 -0.0785 -0.02429 0.055 -0.2382 -0.01387 -0.2306 -0.0791
0.323 0.6406 0.08887 0.701 -0.0744 -0.38 -0.0763 -0.1135
-0.04193 -0.2109 -0.04022 0.0818 -0.2346 0.01924 -0.02693 -0.0269
-0.2019 -0.02408 -0.147 -0.2483 -0.164 -0.3142 0.3376 0.02705
-0.0996 -0.161 -0.147 -0.3909 -0.1316 -0.2108 -0.3232 -0.2896
0.10474 -0.1981 0.02072 -0.05182 0.04456 0.002705 0.1087 -0.2406
-0.2085 0.0769 -0.1243 -0.04874 -0.03375 -0.1847 -0.04556 0.111
-0.01591 0.1437 0.1492 0.07745 -0.2487 0.09503 -0.136 -0.2532
-0.3127 -0.1984 0.3184 0.03583 -0.2861 -0.1907 0.006733 -0.1483
-0.04913 -0.305 -0.1418 -0.1855 -0.0818 0.10944 0.2942 -0.3176
-0.2046 -0.02612 -0.3574 -0.0476 0.03262 -0.4727 0.1721 -0.866
-0.8193 -0.334 -0.0979 0.2747 0.972 -0.477 0.006603 0.099
-0.668 -3.426 -0.526 -3.162 -0.6084 -0.4727 -0.02821 0.0653
0.6025 -0.7563 0.2247 0.0745 -0.255 -1.508 -0.0464 -0.384
-0.2399 -0.1335 0.002058 -0.02788 0.3792 0.3328 0.004772 0.03604
-0.4417 -0.2054 -0.1317 0.03476 -0.26 0.00656 0.01446 -0.009766
0.5454 0.2576 0.003155 0.004776 -0.792 -3.29 -0.5415 -3.467
-0.3975 -0.1641 0.07007 0.002583 0.4766 -0.615 -0.03134 -0.0481
-0.5396 -0.01561 -0.1426 -0.135 -0.1704 -0.2505 0.1805 0.0671
-0.003288 -0.3337 0.1893 -0.1362 0.07477 -0.011406 -0.177 0.2069
-0.3567 -0.05078 0.1898 -0.2109 -0.2006 -0.3054 -0.08905 0.1175
-0.1464 -0.3354 -0.167 0.01575 -0.28 0.2019 -0.03772 0.05234
0.002426 0.06036 0.1451 -0.02687 0.10443 -0.0884 -0.1835 -0.2751
-0.1055 -0.145 0.1559 -0.2817 -0.1298 0.04633 0.3018 -0.3562
-0.1588 -0.2542 -0.2372 -0.2382 0.09406 -0.2125 -0.1559 -0.127
-0.1329 -0.3486 -0.0839 0.069 -0.1779 0.11743 0.01836 -0.1758
-0.004513 0.2124 0.1436 0.0961 0.3179 0.1252 0.2708 -0.10803
00000000: e82b d02a b429 4131 9eb6 63b2 28ab 7231
00000010: 1b28 ddb5 11ad 6831 112e 183a 1429 6039
00000020: 16b2 11b8 1aae 48b3 7c2d 1dad 02ac 3930
00000030: 50b1 e9b7 fab1 3ba2 fdb4 7e2b bc2d 812d
00000040: d335 b4b8 6ab5 1eb4 8631 29ae 94b0 15b6
00000050: 60b4 06ad 38a6 0a2b 9fb3 1aa3 61b3 10ad
00000060: 2b35 2039 b02d 9c39 c3ac 14b6 e2ac 44af
00000070: 5ea9 c0b2 26a9 3c2d 82b3 ed24 e5a6 e3a6
00000080: 76b2 2aa6 b4b0 f2b3 3fb1 07b5 6735 ed26
00000090: 60ae 27b1 b4b0 41b6 36b0 bfb2 2cb5 a2b4
000000a0: b42e 57b2 4e25 a2aa b429 8a19 f52e b3b3
000000b0: acb2 ec2c f5af 3daa 52a8 e9b1 d5a9 1b2f
000000c0: 13a4 9930 c630 f52c f5b3 152e 5ab0 0db4
000000d0: 01b5 59b2 1835 9628 94b4 1ab2 e51e bfb0
000000e0: 4aaa e1b4 8ab0 f0b1 3cad 012f b534 15b5
000000f0: 8cb2 b0a6 b8b5 18aa 2d28 90b7 8231 eeba
00000100: 8eba 58b5 44ae 6534 c73b a2b7 c31e 562e
00000110: 58b9 dac2 35b8 53c2 deb8 90b7 39a7 2e2c
00000120: d238 0dba 3133 c52c 14b4 08be f0a9 25b6
00000130: adb3 46b0 3718 23a7 1136 5335 e31c 9d28
00000140: 11b7 93b2 37b0 7328 29b4 b81e 6723 00a1
00000150: 5d38 1f34 761a e41c 56ba 94c2 55b8 efc2
00000160: 5cb6 40b1 7c2c 4a19 a037 ecb8 03a8 28aa
00000170: 51b8 fea3 90b0 52b0 74b1 02b4 c731 4b2c
00000180: bc9a 57b5 0f32 5cb0 c92c d7a1 aab1 9f32
00000190: b5b5 80aa 1332 c0b2 6bb2 e3b4 b3ad 852f
000001a0: afb0 5eb5 58b1 0824 7bb4 7632 d4a8 b32a
000001b0: f818 ba2b a530 e1a6 af2e a8ad dfb1 67b4
000001c0: c1ae a4b0 fd30 82b4 27b0 ee29 d434 b3b5
000001d0: 15b1 11b4 97b3 9fb3 052e cdb2 fdb0 10b0
000001e0: 41b0 94b5 5fad 6a2c b1b1 842f b324 a0b1
000001f0: 9f9c cc32 9830 272e 1635 0230 5534 eaae

sequential/dense_1/MatMul f2 [6, 16]
-0.1814 0.08594 0.4377 0.1647 -0.4993 -0.02992 -0.2524 -0.1182
-0.1788 -0.2135 0.5005 -0.4265 0.1932 0.00867 0.6465 -0.2341
0.0648 0.196 -0.3982 0.2537 0.2251 -0.1943 -0.3252 0.516
0.11365 0.1808 -0.2615 0.3586 -0.01339 -0.3972 -0.252 -0.4976
0.1643 0.0581 -0.3313 -0.435 0.3333 -0.603 0.2212 -0.2495
0.3247 0.1433 -0.5674 -0.2966 0.4019 -0.271 -0.477 -0.2666
0.12146 0.1805 -0.5024 0.4072 0.3884 -0.4092 0.3503 0.0988
0.1383 -0.1896 -0.2595 0.302 -0.3171 -0.4963 -0.1632 0.1278
0.2517 -0.4495 -0.3506 0.4282 -0.2903 0.004368 0.51 0.386
-0.1759 0.531 -0.01587 -0.008064 -0.00257 0.3066 -0.688 -0.1573
-0.282 0.3188 0.4006 -0.2915 -0.3013 0.2369 -0.196 0.4329
-0.11096 -0.183 -0.3665 -0.2917 0.128 0.03464 0.4617 -0.06506
00000000: ceb1 802d 0137 4531 fdb7 a9a7 0ab4 91af
00000010: b9b1 d5b2 0138 d3b6 2f32 7020 2c39 7eb3
00000020: 262c 4632 5fb6 0f34 3433 38b2 34b5 2138
00000030: 462f c931 2fb4 bd35 dba2 5bb6 08b4 f6b7
00000040: 4231 702b 4db5 f6b6 5535 d3b8 1433 fcb3
00000050: 3235 9630 8ab8 bfb4 6e36 56b4 a2b7 44b4
00000060: c62f c731 05b8 8436 3736 8cb6 9b35 532e
00000070: 6d30 11b2 27b4 d534 13b5 f1b7 39b1 1730
00000080: 0734 31b7 9cb5 da36 a5b4 791c 1438 2d36
00000090: a1b1 3f38 10a4 21a0 4399 e834 81b9 09b1
000000a0: 83b4 1a35 6936 aab4 d2b4 9533 46b2 ed36
000000b0: 1aaf dbb1 ddb5 abb4 1930 6f28 6337 2aac

sequential/dense_2/MatMul f2 [2, 6]
0.09503 -0.5938 0.5186 -0.01212 0.4558 0.2935 -0.005222 0.2333
0.4534 0.1381 0.557 0.1293
00000000: 152e c0b8 2638 35a2 4b37 b234 599d 7733
00000010: 4137 6b30 7538 2330
