Training/train_ckpt/best_model2/131/INT8.tflite (tflite, 4800 bytes, 3 tensors)

sequential_8/quant_dense_25/MatMul;sequential_8/quant_dense_25/LastValueQuant/FakeQuantWithMinMaxVars i1 [6, 16] scale=0.005628473 zero_point=0
0	0x0b	0.061913203
1	0xf9	-0.03939931
2	0xd8	-0.22513893
3	0xe5	-0.15196878
4	0x29	0.2307674
5	0x14	0.112569466
6	0x1f	0.17448267
7	0xfd	-0.016885418
8	0xe3	-0.16322573
9	0x16	0.12382641
10	0x2e	0.25890976
11	0x25	0.2082535
12	0x09	0.05065626
13	0x02	0.011256946
14	0x81	-0.7148161
15	0xa4	-0.5178195
16	0x09	0.05065626
17	0x3b	0.33207992
18	0xfe	-0.011256946
19	0x35	0.2983091
20	0xca	-0.30393755
21	0x2d	0.2532813
22	0x9f	-0.5459619
23	0x19	0.14071183
24	0xc3	-0.34333685
25	0x32	0.28142366
26	0x15	0.11819793
27	0xe3	-0.16322573
28	0x3b	0.33207992
29	0xfe	-0.011256946
30	0xf3	-0.07317015
31	0x25	0.2082535
32	0xf6	-0.056284733
33	0x0c	0.067541674
34	0x08	0.045027785
35	0xcd	-0.28705212
36	0xa2	-0.52907646
37	0xca	-0.30393755
38	0xf5	-0.061913203
39	0xf6	-0.056284733
40	0x49	0.41087854
41	0x4b	0.42213547
42	0xdf	-0.1857396
43	0xd6	-0.23639587
44	0x0e	0.07879862
45	0x35	0.2983091
46	0xb6	-0.416507
47	0x0a	0.056284733
48	0x39	0.32082295
49	0xc6	-0.32645145
50	0x0e	0.07879862
51	0x40	0.36022228
52	0xe4	-0.15759724
53	0xd1	-0.26453823
54	0xe4	-0.15759724
55	0x16	0.12382641
56	0x05	0.028142367
57	0x35	0.2983091
58	0xe7	-0.14071183
59	0xa4	-0.5178195
60	0xf6	-0.056284733
61	0x0a	0.056284733
62	0x03	0.016885418
63	0xe2	-0.16885419
64	0xe1	-0.17448267
65	0x51	0.45590633
66	0x18	0.13508335
67	0x2b	0.24202435
68	0xc1	-0.3545938
69	0x10	0.09005557
70	0xc9	-0.30956602
71	0xf6	-0.056284733
72	0xfa	-0.033770837
73	0x4c	0.42776397
74	0x27	0.21951045
75	0x1f	0.17448267
76	0x2a	0.23639587
77	0x1e	0.16885419
78	0xe8	-0.13508335
79	0xca	-0.30393755
80	0x4e	0.4390209
81	0x4a	0.416507
82	0xfe	-0.011256946
83	0x2b	0.24202435
84	0xc4	-0.33770838
85	0x41	0.36585075
86	0xee	-0.10131252
87	0xd4	-0.24765281
88	0x3b	0.33207992
89	0x4f	0.44464937
90	0x59	0.5009341
91	0xeb	-0.11819793
92	0xfe	-0.011256946
93	0x1d	0.16322573
94	0xd8	-0.22513893
95	0x22	0.19136809

sequential_8/quant_dense_24/MatMul;sequential_8/quant_dense_24/LastValueQuant/FakeQuantWithMinMaxVars i1 [16, 62] scale=0.030781098 zero_point=0
0	0xfb	-0.15390548
1	0xfd	-0.09234329
2	0xfc	-0.12312439
3	0xfe	-0.061562195
4	0x05	0.15390548
5	0xf5	-0.33859208
6	0xf8	-0.24624878
7	0xf7	-0.27702987
8	0x08	0.24624878
9	0x02	0.061562195
10	0xfe	-0.061562195
11	0xfd	-0.09234329
12	0xf7	-0.27702987
13	0xf7	-0.27702987
14	0xf8	-0.24624878
15	0x00	0.0
16	0x05	0.15390548
17	0xfd	-0.09234329
18	0x01	0.030781098
19	0xf6	-0.30781096
20	0xfc	-0.12312439
21	0xfb	-0.15390548
22	0x02	0.061562195
23	0x05	0.15390548
24	0xf7	-0.27702987
25	0xfe	-0.061562195
26	0xfb	-0.15390548
27	0xf8	-0.24624878
28	0x00	0.0
29	0x04	0.12312439
30	0xfb	-0.15390548
31	0x03	0.09234329
32	0xfc	-0.12312439
33	0x00	0.0
34	0x01	0.030781098
35	0xf9	-0.21546769
36	0xf4	-0.36937317
37	0xf8	-0.24624878
38	0xf6	-0.30781096
39	0x03	0.09234329
40	0xf5	-0.33859208
41	0xf5	-0.33859208
42	0xfb	-0.15390548
43	0xfe	-0.061562195
44	0xff	-0.030781098
45	0x01	0.030781098
46	0xfb	-0.15390548
47	0xfc	-0.12312439
48	0xff	-0.030781098
49	0xf8	-0.24624878
50	0x04	0.12312439
51	0xf5	-0.33859208
52	0x03	0.09234329
53	0x03	0.09234329
54	0xfd	-0.09234329
55	0x01	0.030781098
56	0x00	0.0
57	0xfd	-0.09234329
58	0xfb	-0.15390548
59	0xff	-0.030781098
60	0xf7	-0.27702987
61	0xf8	-0.24624878
62	0x01	0.030781098
63	0x02	0.061562195
64	0x00	0.0
65	0xfb	-0.15390548
66	0xf3	-0.40015426
67	0xfa	-0.18468659
68	0xf6	-0.30781096
69	0xf6	-0.30781096
70	0x02	0.061562195
71	0xff	-0.030781098
72	0xf9	-0.21546769
73	0xfc	-0.12312439
74	0xf6	-0.30781096
75	0xf9	-0.21546769
76	0x00	0.0
77	0xf7	-0.27702987
78	0xf6	-0.30781096
79	0xf3	-0.40015426
80	0xf6	-0.30781096
81	0xfd	-0.09234329
82	0x0b	0.33859208
83	0xf6	-0.30781096
84	0x00	0.0
85	0xf6	-0.30781096
86	0x01	0.030781098
87	0xfb	-0.15390548
88	0x03	0.09234329
89	0xf6	-0.30781096
90	0xfa	-0.18468659
91	0xfb	-0.15390548
92	0x02	0.061562195
93	0xf9	-0.21546769
94	0x01	0.030781098
95	0x05	0.15390548
96	0x00	0.0
97	0xf9	-0.21546769
98	0x03	0.09234329
99	0x04	0.12312439
100	0x00	0.0
101	0x05	0.15390548
102	0xf4	-0.36937317
103	0xf9	-0.21546769
104	0x00	0.0
105	0xfe	-0.061562195
106	0x00	0.0
107	0xf8	-0.24624878
108	0xfc	-0.12312439
109	0x01	0.030781098
110	0x04	0.12312439
111	0xfc	-0.12312439
112	0x03	0.09234329
113	0xfd	-0.09234329
114	0xf6	-0.30781096
115	0x03	0.09234329
116	0xf6	-0.30781096
117	0xf6	-0.30781096
118	0x09	0.27702987
119	0x03	0.09234329
120	0xf3	-0.40015426
121	0x01	0.030781098
122	0xfa	-0.18468659
123	0xff	-0.030781098
124	0x05	0.15390548
125	0x07	0.21546769
126	0xff	-0.030781098
127	0x0b	0.33859208
128	0x0a	0.30781096
129	0xfc	-0.12312439
130	0xfe	-0.061562195
131	0x01	0.030781098
132	0xe3	-0.89265186
133	0x1a	0.8003085
134	0xfe	-0.061562195
135	0x00	0.0
136	0x17	0.70796525
137	0x1f	0.95421404
138	0x0d	0.40015426
139	0x15	0.6464031
140	0x10	0.49249756
141	0x03	0.09234329
142	0xfe	-0.061562195
143	0x09	0.27702987
144	0xf0	-0.49249756
145	0x20	0.9849951
146	0xfe	-0.061562195
147	0x02	0.061562195
148	0xf9	-0.21546769
149	0xee	-0.55405974
150	0x08	0.24624878
151	0x13	0.58484083
152	0xfd	-0.09234329
153	0xf1	-0.46171647
154	0xfc	-0.12312439
155	0xf9	-0.21546769
156	0xdc	-1.1081195
157	0x07	0.21546769
158	0xfe	-0.061562195
159	0xff	-0.030781098
160	0x02	0.061562195
161	0xf2	-0.43093538
162	0x0e	0.43093538
163	0x0a	0.30781096
164	0x03	0.09234329
165	0x00	0.0
166	0xfd	-0.09234329
167	0x04	0.12312439
168	0xd1	-1.4467115
169	0x02	0.061562195
170	0xff	-0.030781098
171	0xff	-0.030781098
172	0x17	0.70796525
173	0x19	0.76952744
174	0x13	0.58484083
175	0x1a	0.8003085
176	0x11	0.52327865
177	0x0a	0.30781096
178	0xfe	-0.061562195
179	0x03	0.09234329
180	0xf2	-0.43093538
181	0x2a	1.2928061
182	0xff	-0.030781098
183	0x05	0.15390548
184	0x18	0.73874635
185	0xf1	-0.46171647
186	0xff	-0.030781098
187	0x01	0.030781098
188	0xf4	-0.36937317
189	0x05	0.15390548
190	0xff	-0.030781098
191	0xf5	-0.33859208
192	0x02	0.061562195
193	0xf8	-0.24624878
194	0x02	0.061562195
195	0xf3	-0.40015426
196	0xfe	-0.061562195
197	0xf5	-0.33859208
198	0xf5	-0.33859208
199	0x01	0.030781098
200	0xfd	-0.09234329
201	0x05	0.15390548
202	0x06	0.18468659
203	0xff	-0.030781098
204	0xfd	-0.09234329
205	0x02	0.061562195
206	0x05	0.15390548
207	0xf7	-0.27702987
208	0x00	0.0
209	0x05	0.15390548
210	0x04	0.12312439
211	0x04	0.12312439
212	0xf3	-0.40015426
213	0xf4	-0.36937317
214	0xfd	-0.09234329
215	0xf7	-0.27702987
216	0xff	-0.030781098
217	0x06	0.18468659
218	0x00	0.0
219	0xf3	-0.40015426
220	0xfb	-0.15390548
221	0xf6	-0.30781096
222	0x06	0.18468659
223	0xff	-0.030781098
224	0xfe	-0.061562195
225	0xf6	-0.30781096
226	0xfa	-0.18468659
227	0x05	0.15390548
228	0xfe	-0.061562195
229	0x01	0.030781098
230	0xfd	-0.09234329
231	0xfc	-0.12312439
232	0xfe	-0.061562195
233	0x03	0.09234329
234	0xfa	-0.18468659
235	0x06	0.18468659
236	0xfc	-0.12312439
237	0x06	0.18468659
238	0xff	-0.030781098
239	0xff	-0.030781098
240	0xfd	-0.09234329
241	0xfa	-0.18468659
242	0xfa	-0.18468659
243	0xf9	-0.21546769
244	0x01	0.030781098
245	0xfd	-0.09234329
246	0xf8	-0.24624878
247	0xff	-0.030781098
248	0x07	0.21546769
249	0xe0	-0.9849951
250	0x0a	0.30781096
251	0xe4	-0.86187077
252	0xda	-1.1696817
253	0xe6	-0.8003085
254	0x01	0.030781098
255	0x04	0.12312439

sequential_8/quant_dense_26/MatMul;sequential_8/quant_dense_26/LastValueQuant/FakeQuantWithMinMaxVars i1 [2, 6] scale=0.0056549404 zero_point=0
0	0x18	0.13571857
1	0x54	0.47501498
2	0x3b	0.33364147
3	0x81	-0.71817744
4	0xa4	-0.5202545
5	0x97	-0.5937687
6	0xec	-0.11309881
7	0x92	-0.62204343
8	0xf7	-0.05089446
9	0x3e	0.3506063
10	0xfc	-0.022619762
11	0xf0	-0.090479046
