Training/train_ckpt/model_best/752/FLOAT16.tflite (tflite, 5636 bytes, 5 tensors)

sequential_50/re_lu_100/Relu;sequential_50/batch_normalization_50/batchnorm/add_1 f2 [16]
00000000: 40b5 e0bb 91be 433e 1ebf f5ba 20bb 863e
00000010: c53b dc3c 5c35 a4bc 17c0 fb38 763c 6124
-0.3281 -0.9844 -1.642 1.565 -1.779 -0.8696 -0.8906 1.631
0.971 1.215 0.335 -1.16 -2.045 0.6226 1.115 0.0171

sequential_50/batch_normalization_50/batchnorm/mul_1 f2 [16, 62]
00000000: fe1d db1a c41e 379a f49d e516 eb14 5518
00000010: 0d12 b89f 6318 3988 f593 3996 a00e 3810
00000020: 061b 319e b81f 381a 1694 aa9d 03a0 ab1c
00000030: 849d c711 3e9a d29d 0b9a c01b 8803 121c
00000040: 331c 2113 fd94 1115 6b99 df97 d815 4199
00000050: e19d 569c 4016 8c9b e998 ba9b 5c15 311c
00000060: b09f 7b9e 0e19 249f 2413 9a10 719c 5a96
00000070: 011a 940f 4297 d29c 5d9c 2f06 ac20 43a1
00000080: 291f 4498 bd9d a31c 6b19 1116 dc1f 04a1
00000090: 3218 3919 dba2 16a4 51a0 1ca2 148e d994
000000a0: 1894 f61a be20 d99c 269e ec1c 6ea1 1da0
000000b0: 1799 899d 449f 459b 860e 6e15 8888 3715
000000c0: 4411 0c9a eaa0 ba98 549f 2e94 61a1 d198
000000d0: 7294 5c8c b01d 3b1e d58c db8d 5c9f 7ea5
000000e0: fa8e 91a0 fea0 6418 c121 569e 9f1e fe90
000000f0: e918 2598 51a0 c21e c21c e89a 7817 3291
00000100: 2e83 fe15 278a cd18 4319 0a97 289c 201b
00000110: 379a 799e 7c9d 2aa2 e99a c498 3e1c 8218
00000120: 9d1a 909b 251a 2f1c 9c9d 2aa0 7390 7d99
00000130: 8598 fb99 8105 4c14 5f92 c217 9114 1516
00000140: 1788 e585 3616 468a d49a 0016 e412 7c8c
00000150: 9481 e919 6b0e c296 ac9d f1a0 aa9e 37a0
00000160: 8c99 5e8c cb16 0297 7d0e 6a18 181b 878c
00000170: 6f9c 2418 d315 1918 c199 3385 8e1c c81d
00000180: 179a f499 789e 6f10 a28e dd99 c81b e220
00000190: 1d19 6d1e 4d1d 261d 319c 0498 6997 4d1e
000001a0: 3315 029c f519 1e15 501b 0d17 ef8c 0489
000001b0: 210b 5218 6b0c 4415 3a11 be01 701a c195
000001c0: d11b 6d18 b50e 3d11 2b0c b810 d594 6d99
000001d0: 2615 4698 991c 4d22 3a20 4022 c387 a71b
000001e0: 279c 0b9b 3c12 611d fb9b b89b 7a12 3190
000001f0: 2a14 a79b ec16 7c9a d59d bb9d 041a 2f1f
0.00585 0.003347 0.006607 -0.003035 -0.005814 0.001683 0.001201 0.002115
0.0007386 -0.007538 0.002142 -0.0001289 -0.0009713 -0.001519 0.0004044 0.000515
0.00343 -0.006046 0.007538 0.003036 -0.000998 -0.00553 -0.007835 0.00456
-0.005386 0.0007052 -0.003048 -0.005684 -0.00295 0.003784 5.39e-05 0.003975
0.0041 0.00087 -0.001218 0.001237 -0.002645 -0.001922 0.001427 -0.002565
-0.00574 -0.004234 0.001526 -0.003685 -0.002398 -0.003773 0.001308 0.004093
-0.007507 -0.00633 0.002468 -0.006973 0.0008717 0.0005617 -0.004337 -0.001551
0.002932 0.0004625 -0.001772 -0.004707 -0.00426 9.435e-05 0.009125 -0.01028
0.006992 -0.002083 -0.005604 0.004528 0.002645 0.001481 0.007675 -0.009796
0.002048 0.00255 -0.01339 -0.01596 -0.00843 -0.01193 -0.000371 -0.0011835
-0.000999 0.003399 0.00926 -0.004734 -0.006004 0.004807 -0.010605 -0.00803
-0.002485 -0.005405 -0.007095 -0.00355 0.0003982 0.001326 -0.0001383 0.001273
0.000643 -0.002953 -0.0096 -0.002308 -0.007156 -0.00102 -0.010506 -0.002352
-0.001085 -0.000266 0.005554 0.006084 -0.000295 -0.0003574 -0.007187 -0.02145
-0.0004258 -0.00892 -0.00975 0.002144 0.01124 -0.006187 0.006466 -0.0006094
0.002398 -0.002024 -0.00843 0.0066 0.004646 -0.003372 0.001823 -0.000634
-4.85e-05 0.001463 -0.0001878 0.002344 0.00257 -0.0017185 -0.00406 0.003479
-0.003035 -0.00632 -0.005356 -0.01204 -0.003374 -0.002327 0.004143 0.002201
0.00323 -0.003693 0.003 0.004086 -0.005478 -0.00813 -0.000543 -0.00268
-0.002207 -0.00292 8.4e-05 0.001049 -0.0007777 0.001894 0.001115 0.001485
-0.0001248 -8.994e-05 0.001516 -0.0001915 -0.003334 0.001465 0.000841 -0.0002737
-2.41e-05 0.002886 0.0003917 -0.00165 -0.00554 -0.00965 -0.006508 -0.00823
-0.002708 -0.0002666 0.001658 -0.001711 0.000396 0.002155 0.003464 -0.0002763
-0.00433 0.002022 0.001422 0.002 -0.00281 -7.933e-05 0.004448 0.005646
-0.002974 -0.002907 -0.006317 0.000541 -0.0004048 -0.002863 0.0038 0.00954
0.002497 0.006275 0.005177 0.005028 -0.004093 -0.00196 -0.001809 0.006153
0.001269 -0.003914 0.002909 0.001249 0.00357 0.001721 -0.0003011 -0.0001531
0.0002176 0.00211 0.0002697 0.001286 0.000638 2.66e-05 0.003143 -0.001405
0.003817 0.002161 0.0004094 0.0006394 0.0002544 0.000576 -0.00118 -0.00265
0.001257 -0.002087 0.00449 0.01231 0.008255 0.01221 -0.00011843 0.003736
-0.004055 -0.003439 0.000761 0.005253 -0.003897 -0.003769 0.0007906 -0.0005116
0.001017 -0.003736 0.00169 -0.003166 -0.005695 -0.005596 0.002937 0.007015

sequential_50/dense_151/BiasAdd/ReadVariableOp f2 [6]
00000000: 7ea9 4232 0a1e a92a c128 372d
-0.0429 0.1956 0.005898 0.05203 0.03714 0.0815

sequential_50/dense_151/MatMul f2 [6, 16]
00000000: b225 1938 7f34 eeb2 b1ad f336 54b7 16aa
00000010: 4bab 00b3 de2d a5ab 9a36 58b5 e236 c2b0
00000020: 72b3 cb35 23b2 8934 c0b6 4bb2 032d c736
00000030: 2537 a938 6936 6cb5 24b6 3ab1 3838 c0b5
00000040: 1ab4 da38 7d34 7536 1932 0433 95a9 902b
00000050: c3b5 bd30 ac1d 0233 ae38 11b1 96b3 703a
00000060: a334 94b8 9c26 17b3 58a8 1eb5 05a7 d72f
00000070: ea35 25b5 b338 7eac 81a8 ce32 38b4 0bb4
00000080: b2af 4a39 4eac a7b6 aa34 362e 3a36 f224
00000090: 3530 a7ac a232 2a25 8833 a1b5 91ab 0cb1
000000a0: bf34 2ba4 0b38 27b8 c035 8437 9eac cc29
000000b0: 0ab0 d325 06b2 d632 7397 0518 b5b0 7f32
0.02225 0.512 0.281 -0.2166 -0.0889 0.4343 -0.458 -0.04755
-0.05698 -0.2188 0.0917 -0.05972 0.4126 -0.334 0.4302 -0.1487
-0.2327 0.362 -0.1918 0.2834 -0.4219 -0.1967 0.0783 0.4236
0.4465 0.5825 0.4006 -0.3389 -0.3838 -0.1633 0.5273 -0.3594
-0.2563 0.6064 0.2805 0.4036 0.1906 0.2192 -0.0436 0.05908
-0.36 0.1481 0.00554 0.219 0.585 -0.1583 -0.237 0.8047
0.2898 -0.5723 0.02582 -0.2216 -0.03394 -0.3198 -0.02742 0.1225
0.3696 -0.3215 0.5874 -0.0702 -0.0352 0.2126 -0.2637 -0.2527
-0.12024 0.661 -0.06726 -0.4158 0.2915 0.09705 0.3892 0.01932
0.1315 -0.0727 0.2073 0.02017 0.2354 -0.3518 -0.0591 -0.1577
0.2966 -0.01628 0.5054 -0.519 0.3594 0.4697 -0.07214 0.0453
-0.1262 0.02275 -0.1882 0.2136 -0.001819 0.001963 -0.1471 0.203

sequential_50/dense_152/MatMul f2 [2, 6]
00000000: d32f 90b8 de31 43af 7739 8a3b 09b8 b237
00000010: 6eb8 9433 95b6 77b1
0.12225 -0.5703 0.1833 -0.11346 0.683 0.9424 -0.5044 0.481
-0.5537 0.2368 -0.4114 -0.1708
