Training/train_ckpt/no_reject/322/INT8.tflite (tflite, 4816 bytes, 3 tensors)

sequential_21/quant_dense_64/MatMul;sequential_21/quant_dense_64/LastValueQuant/FakeQuantWithMinMaxVars i1 [6, 16] scale=0.0046270667 zero_point=0
000000 49 ca 38 29 17 b7 26 fc 27 36 d6 22 c5 30 17 55
       0.33777586 -0.2498616 0.25911573 0.18970974 0.106422536 -0.33777586 0.17582853 -0.018508267 0.1804556 0.2498616 -0.1943368 0.15732026 -0.27299693 0.2220992 0.106422536 0.39330065
000010 b2 95 05 b6 26 d4 97 81 fa 32 cd c4 1b 35 2c 24
       -0.3609112 -0.49509615 0.023135334 -0.34240294 0.17582853 -0.20359093 -0.485842 -0.5876375 -0.0277624 0.23135333 -0.2359804 -0.277624 0.1249308 0.24523453 0.20359093 0.1665744
000020 64 3c d7 1f 82 4b f5 a4 b1 c0 63 bf c3 e1 e4 a9
       0.46270666 0.277624 -0.18970974 0.14343907 -0.5830104 0.34703 -0.050897732 -0.42569014 -0.36553827 -0.29613227 0.4580796 -0.30075935 -0.28225106 -0.14343907 -0.12955786 -0.4025548
000030 c5 c1 03 38 46 d3 d4 3e c8 fb 1b 28 a7 c8 5e 3c
       -0.27299693 -0.2915052 0.0138812 0.25911573 0.32389468 -0.208218 -0.20359093 0.28687814 -0.25911573 -0.023135334 0.1249308 0.18508267 -0.41180894 -0.25911573 0.43494427 0.277624
000040 4c d9 ba 25 11 48 30 67 05 c7 c5 13 0a 44 38 f6
       0.35165706 -0.1804556 -0.32389468 0.17120147 0.07866013 0.3331488 0.2220992 0.47658786 0.023135334 -0.2637428 -0.27299693 0.087914266 0.04627067 0.31464052 0.25911573 -0.04627067
000050 a4 d9 aa 0a f6 61 75 04 02 cc 5a b5 ee de 9f 58
       -0.42569014 -0.1804556 -0.39792773 0.04627067 -0.04627067 0.44882548 0.5413668 0.018508267 0.009254133 -0.24060747 0.416436 -0.34703 -0.0832872 -0.15732026 -0.44882548 0.40718186

sequential_21/quant_dense_63/MatMul;sequential_21/quant_dense_63/LastValueQuant/FakeQuantWithMinMaxVars i1 [16, 62] scale=0.020604178 zero_point=0
000000 ff fd f7 fc fd f2 fe f7 fe 09 f2 f5 13 23 0f 23
       -0.020604178 -0.061812535 -0.1854376 -0.08241671 -0.061812535 -0.2884585 -0.041208357 -0.1854376 -0.041208357 0.1854376 -0.2884585 -0.22664596 0.39147937 0.7211462 0.30906266 0.7211462
000010 0d f0 f0 fc 00 f7 fb fa 00 01 e9 06 f8 00 00 00
       0.26785433 -0.32966685 -0.32966685 -0.08241671 0.0 -0.1854376 -0.10302089 -0.12362507 0.0 0.020604178 -0.4738961 0.12362507 -0.16483343 0.0 0.0 0.0
000020 f9 e4 f8 00 08 f5 f7 05 02 f4 05 02 fd f7 02 f0
       -0.14422925 -0.576917 -0.16483343 0.0 0.16483343 -0.22664596 -0.1854376 0.10302089 0.041208357 -0.24725014 0.10302089 0.041208357 -0.061812535 -0.1854376 0.041208357 -0.32966685
000030 05 1c 13 24 00 08 fc 01 f8 02 f0 f7 f8 14 f7 f5
       0.10302089 0.576917 0.39147937 0.7417504 0.0 0.16483343 -0.08241671 0.020604178 -0.16483343 0.041208357 -0.32966685 -0.1854376 -0.16483343 0.41208357 -0.1854376 -0.22664596
000040 fe 0f fe fa 00 fd 00 0b 01 fc 0c 21 08 0a fd 09
       -0.041208357 0.30906266 -0.041208357 -0.12362507 0.0 -0.061812535 0.0 0.22664596 0.020604178 -0.08241671 0.24725014 0.6799379 0.16483343 0.20604178 -0.061812535 0.1854376
000050 fb 07 fa 04 ff f9 ef f5 02 04 fa 03 06 f6 06 f7
       -0.10302089 0.14422925 -0.12362507 0.08241671 -0.020604178 -0.14422925 -0.35027105 -0.22664596 0.041208357 0.08241671 -0.12362507 0.061812535 0.12362507 -0.20604178 0.12362507 -0.1854376
000060 f1 fc ff 06 08 05 0d 05 f9 0b 02 f0 02 fb f6 0f
       -0.30906266 -0.08241671 -0.020604178 0.12362507 0.16483343 0.10302089 0.26785433 0.10302089 -0.14422925 0.22664596 0.041208357 -0.32966685 0.041208357 -0.10302089 -0.20604178 0.30906266
000070 09 06 10 00 fc 05 f8 fb fa ff 05 fb 07 0d ff 0c
       0.1854376 0.12362507 0.32966685 0.0 -0.08241671 0.10302089 -0.16483343 -0.10302089 -0.12362507 -0.020604178 0.10302089 -0.10302089 0.14422925 0.26785433 -0.020604178 0.24725014
000080 18 09 ff f6 00 00 f9 f7 0a 17 0a 08 0e f8 f8 ff
       0.49450028 0.1854376 -0.020604178 -0.20604178 0.0 0.0 -0.14422925 -0.1854376 0.20604178 0.4738961 0.20604178 0.16483343 0.2884585 -0.16483343 -0.16483343 -0.020604178
000090 e8 03 f8 fb 02 09 fe fb 00 f5 ff f8 f1 f0 00 02
       -0.49450028 0.061812535 -0.16483343 -0.10302089 0.041208357 0.1854376 -0.041208357 -0.10302089 0.0 -0.22664596 -0.020604178 -0.16483343 -0.30906266 -0.32966685 0.0 0.041208357
0000a0 0a f2 0a 0c fb 02 f7 06 fb fe 03 07 14 1b 0b 1c
       0.20604178 -0.2884585 0.20604178 0.24725014 -0.10302089 0.041208357 -0.1854376 0.12362507 -0.10302089 -0.041208357 0.061812535 0.14422925 0.41208357 0.5563128 0.22664596 0.576917
0000b0 16 00 fa 0a f1 17 fd fc fd f7 f9 ee 02 06 ef f7
       0.45329192 0.0 -0.12362507 0.20604178 -0.30906266 0.4738961 -0.061812535 -0.08241671 -0.061812535 -0.1854376 -0.14422925 -0.3708752 0.041208357 0.12362507 -0.35027105 -0.1854376
0000c0 fe fe 07 04 03 f7 f6 00 02 e7 07 0a f8 f1 0d f9
       -0.041208357 -0.041208357 0.14422925 0.08241671 0.061812535 -0.1854376 -0.20604178 0.0 0.041208357 -0.5151045 0.14422925 0.20604178 -0.16483343 -0.30906266 0.26785433 -0.14422925
0000d0 0a f2 f2 08 f4 f9 fd f1 06 fa fd 07 fc f8 f2 00
       0.20604178 -0.2884585 -0.2884585 0.16483343 -0.24725014 -0.14422925 -0.061812535 -0.30906266 0.12362507 -0.12362507 -0.061812535 0.14422925 -0.08241671 -0.16483343 -0.2884585 0.0
0000e0 fb 03 fb 08 f5 01 08 fb f8 ff f7 ea ef e8 07 f8
       -0.10302089 0.061812535 -0.10302089 0.16483343 -0.22664596 0.020604178 0.16483343 -0.10302089 -0.16483343 -0.020604178 -0.1854376 -0.45329192 -0.35027105 -0.49450028 0.14422925 -0.16483343
0000f0 ff fd 11 08 f3 f2 ff 08 ff d6 ff d1 d8 ee 01 03
       -0.020604178 -0.061812535 0.35027105 0.16483343 -0.26785433 -0.2884585 -0.020604178 0.16483343 -0.020604178 -0.8653755 -0.020604178 -0.96839637 -0.82416713 -0.3708752 0.020604178 0.061812535

sequential_21/quant_dense_65/MatMul;sequential_21/quant_dense_65/LastValueQuant/FakeQuantWithMinMaxVars i1 [2, 6] scale=0.004204454 zero_point=0
000000 8a 55 83 7f 2c e0 b3 2d bc 3a c4 f9
       -0.49612555 0.35737857 -0.52555674 0.53396565 0.18499598 -0.13454252 -0.32374296 0.18920043 -0.28590286 0.24385832 -0.25226724 -0.029431177
