Training/train_ckpt/4features/48/7_6_model_features_2023-09-18-10:08:43.822949.tflite (tflite, 4120 bytes, 6 tensors)

sequential/re_lu/Relu;sequential/batch_normalization/batchnorm/add_1 f4 [7]
-1.0211213 0.863431 -1.7848252 1.3549497 -2.5272932 0.8740772 -1.882653
00000000: 1ab4 82bf d009 5d3f 2775 e4bf fe6e ad3f
00000010: 2cbf 21c0 86c3 5f3f c6fa f0bf

sequential/batch_normalization/batchnorm/mul_1 f4 [7, 54]
-0.0062079737 0.033420186 0.07035228 0.009643538 0.08088945 0.054035544 0.035360046 0.0005302242
-0.005517182 -0.089206114 0.03301012 0.0006133288 -0.0037629297 0.003649208 0.026547814 0.22948688
0.026139397 0.24450073 0.065646686 0.027626274 -0.0010283323 -0.0011056273 -0.02852834 0.03288029
2.5182859e-05 -0.003695879 0.001192671 0.023089245 0.1844552 0.016437383 0.15894446 0.06961588
0.013385361 -0.00013052307 0.0014170446 -0.0691189 0.024497017 -3.3659104e-05 -0.00012475377 -0.00851301
0.0016037344 0.08999411 0.0019412386 0.09350257 0.03699516 0.015505072 -0.0009643852 0.00036990247
-0.042907503 0.036767174 -0.001818323 -4.493395e-05 0.06721925 0.0015461054 0.001079023 0.0055888756
0.025112908 0.0149574615 0.026214631 0.019175524 -0.0016546033 -0.0010137885 0.00059648306 -0.015459064
0.007850342 -0.0024989587 -1.297404e-05 0.0028582993 0.011805458 0.050291773 0.012101425 0.05500508
0.01544289 0.0014640618 -0.00094396726 0.00025743988 -0.0070954636 0.0058512907 -0.0010442276 -0.0022612282
-0.0013180685 0.010036045 0.036877535 0.007391419 0.036887124 0.014573786 -0.005970933 -0.0013172487
-0.0014914728 -0.013185779 -0.0031812808 -0.0014263254 0.0011543961 -0.0017198393 0.006550051 0.02479836
0.0037333637 0.025613803 0.012580799 0.00894258 -0.00078630133 -0.00081294606 -0.012539256 0.006453125
-0.0010817643 -0.00090848363 0.016090866 -0.0024280485 0.0012138493 -0.0007132893 0.0019139458 0.002476349
-0.0020293263 -0.002818618 -0.0034142092 0.00016684967 -0.00048170792 0.009592319 -0.006467663 -0.00036080135
-0.00039844273 0.007234684 -0.0036886714 -0.07888505 0.0013108305 -0.08819857 0.0015612325 -0.006459575
-0.0016808449 0.0003185478 0.00067581714 -0.008455522 0.017607698 -0.001791392 -0.006015967 -0.005225902
-0.052303486 -0.0041429773 -0.061662465 0.00032060736 -0.0041499278 -0.00014927822 -4.225591e-05 0.00037691463
0.0011806049 -0.00025775496 0.00027820497 -0.008767003 0.00759527 -0.049375206 0.0053317472 -0.033239365
-0.0033987209 0.010710242 -0.0021300553 0.001830977 -0.0050545293 0.0033069446 -0.0017854264 0.0013123556
0.004283038 -0.010449596 -0.0006428115 0.0009573682 0.026231162 0.0058402335 0.02936093 0.016097186
-0.0019871516 0.00017422684 0.00058080663 -0.02140107 -0.00095049315 -0.00036607494 0.002838876 -0.00588048
0.01931828 0.10976041 0.021731462 0.096690096 0.0046677715 0.0039232234 -0.0031685885 -0.007542133
-0.008913444 0.01014471 -0.0020907966 -0.0068609254 -0.0009973878 0.0011294266 0.054300196 0.0019989554
0.053835142 0.018506084 0.0026595395 -0.00024234974 0.00021776545 -0.023545617 0.006641175 -0.0006271707
-0.00087689125 -0.0055324673 0.001332372 0.041529313 -0.003463144 0.043237757 0.008926404 0.020994024
-0.0037474562 -0.0011707904 -0.008567529 0.012515237 -0.004170611 -0.0022227054 0.017226323 0.002254537
0.0014514008 0.012011886 0.06158343 0.029529208 0.04969834 0.026827695 0.0011808277 0.00021386101
-0.0008145814 -0.04084081 -0.0048250766 0.0010550653 -0.00075974077 0.019274846 0.056075484 0.15800737
0.07460118 0.15323514 0.0012475165 0.017135454 -0.00038417167 -0.00263483 -0.008378812 -0.019883586
-0.00013630645 -0.00055183924 0.000100249075 0.019314282 0.10071548 0.028713537 0.079544395 0.04127794
-0.033136576 0.00051819155 2.575282e-05 -0.034555443 -0.025640167 -6.275509e-05 0.00039960525 -0.010440922
00000000: 426c cbbb 9be3 083d db14 903d eeff 1d3c
00000010: 5ea9 a53d 6054 5d3d b2d5 103d befe 0a3a
00000020: 7ac9 b4bb b2b1 b6bd 9f35 073d cdc7 203a
00000030: 7c9b 76bb 8d27 6f3b cd7a d93c 9cfe 6a3e
00000040: 4a22 d63c 665e 7a3e c571 863d 7f50 e23c
00000050: 1bc9 86ba b2ea 90ba 44b4 e9bc 7cad 063d
00000060: c73f d337 8f36 72bb 6653 9c3a a825 bd3c
00000070: d3e1 3c3e b1a7 863c 56c2 223e c592 8e3d
00000080: 464e 5b3c 05dd 08b9 20bc b93a 368e 8dbd
00000090: f8ad c83c 302d 0db8 56d0 02b9 277a 0bbc
000000a0: 6634 d23a d54e b83d 2971 fe3a 477e bf3d
000000b0: 3d88 173d fc08 7e3c ccce 7cba 78ef c139
000000c0: c7bf 2fbd 2d99 163d cc54 eeba 7677 3cb8
000000d0: 3faa 893d b0a6 ca3a 016e 8d3a e322 b73b
000000e0: 96b9 cd3c 2410 753c 11c0 d63c fd15 9d3c
000000f0: 46df d8ba 19e1 84ba 4d5d 1c3a 0448 7dbc
00000100: b99e 003c 92c5 23bb 14ab 59b7 4e52 3b3b
00000110: ae6b 413c bffe 4d3d 0e45 463c 024d 613d
00000120: 2d04 7d3c c3e5 bf3a 9274 77ba fff8 8639
00000130: 1081 e8bb 2fbc bf3b 77de 88ba 1d31 14bb
00000140: 0ac3 acba 396e 243c e60c 173d b733 f23b
00000150: f416 173d e4c6 6e3c d1a7 c3bb 88a7 acba
00000160: 867d c3ba 2a09 58bc 097d 50bb 8af3 baba
00000170: 1b4f 973a 3b6c e1ba cfa1 d63b ee25 cb3c
00000180: 73ab 743b 0ad4 d13c b21f 4e3c e683 123c
00000190: ca1f 4eba e31b 55ba 7471 4dbc bc74 d33b
000001a0: fdc9 8dba 4e27 6eba fed0 833c e51f 1fbb
000001b0: 061a 9f3a 09fc 3aba 5ddd fa3a 3e4a 223b
000001c0: 72fe 04bb 90b8 38bb edc0 5fbb 5ef4 2e39
000001d0: be8d fcb9 1a29 1d3c b1ee d3bb f029 bdb9
000001e0: 14e6 d0b9 ee10 ed3b a3bd 71bb 7c8e a1bd
000001f0: 2cd0 ab3a 74a1 b4bd 45a2 cc3a d8aa d3bb
00000200: cc4f dcba c302 a739 5229 313a 0889 0abc
00000210: 053e 903c 24cd eaba 9721 c5bb 0b3e abbb
00000220: 2e3c 56bd d0c1 87bb c891 7cbd 3117 a839
00000230: 1efc 87bb 9187 1cb9 f03b 31b8 a09c c539
00000240: 87be 9a3a 4923 87b9 0adc 9139 7aa3 0fbc
00000250: bee1 f83b a83d 4abd f0b5 ae3b 0026 08bd
00000260: 13bd 5ebb 037a 2f3c 6698 0bbb 65fd ef3a
00000270: 77a0 a5bb 53b9 583b f804 eaba 5903 ac3a
00000280: ba58 8c3b c834 2bbc 5982 28ba e4f7 7a3a
00000290: bce2 d63c 6e5f bf3b 5586 f03c 3fde 833c
000002a0: df3a 02bb a9b0 3639 4641 183a 4c51 afbc
000002b0: 842a 79ba bfed bfb9 700c 3a3b 0bb1 c0bb
000002c0: 5f41 9e3c 11ca e03d 2e06 b23c 7505 c63d
000002d0: 1bf4 983b 628e 803b 18a8 4fbb ff23 f7bb
000002e0: b209 12bc ff35 263c bf05 09bb 9dd1 e0bb
000002f0: c8ba 82ba 4509 943a e269 5e3d e800 033b
00000300: 3d82 5c3d 129a 973c ab4b 2e3b 431f 7eb9
00000310: f857 6439 bde2 c0bc 379e d93b b768 24ba
00000320: 2ddf 65ba b349 b5bb fca2 ae3a a41a 2a3d
00000330: eaf5 62bb 131a 313d 0d40 123c a9fb ab3c
00000340: e297 75bb 3575 99ba d25e 0cbc b50c 4d3c
00000350: 9fa9 88bb cfaa 11bb 381e 8d3c dbc0 133b
00000360: ee3c be3a 80cd 443c e83e 7c3d 3de7 f13c
00000370: 7d90 4b3d c1c5 db3c 01c6 9a3a e13f 6039
00000380: a289 55ba b148 27bd ad1b 9ebb 1e4a 8a3a
00000390: 5729 47ba 48e6 9d3c 68af 653d afcc 213e
000003a0: 81c8 983d ace9 1c3e b583 a33a a75f 8c3c
000003b0: a66a c9b9 1dad 2cbb 4947 09bc e7e2 a2bc
000003c0: 7ced 0eb9 4ea9 10ba d03c d238 fc38 9e3c
000003d0: eb43 ce3d a738 eb3c 2ce8 a23d 0f13 293d
000003e0: 38ba 07bd 3fd7 073a c307 d837 028a 0dbd
000003f0: 540b d2bc 629b 83b8 1c82 d139 6710 2bbc

sequential/dense_2/BiasAdd/ReadVariableOp f4 [2]
0.09394516 -0.093945146
00000000: 5266 c03d 5066 c0bd

sequential/dense_1/BiasAdd/ReadVariableOp f4 [6]
-0.39103538 0.12236598 0.0 0.26681292 0.1789133 0.58793277
00000000: ca35 c8be 049b fa3d 0000 0000 b49b 883e
00000010: 0c35 373e c382 163f

sequential/dense_1/MatMul f4 [6, 7]
0.18690717 0.34303582 0.78103304 0.084851354 0.1608577 0.61039376 -0.44703776 -0.018496342
0.3123556 -0.4730236 -0.3465698 0.092649065 0.5365129 -0.3167303 -0.5764358 -0.50321674
-0.4317978 -0.08065438 -0.6314172 -0.067412436 -0.29005152 -0.122498125 0.30549404 0.43607742
-0.14727744 0.09772236 0.29172885 1.1380881 0.35923126 0.47218212 -0.024339713 0.6557297
0.44916508 0.49104717 -0.1269263 -0.66030097 -0.25440654 0.9291804 -0.3957093 -0.5571395
-0.027547536 0.4537581
00000000: 9864 3f3e 64a2 af3e c8f1 473f 8cc6 ad3d
00000010: e2b7 243e c442 1c3f 22e2 e4be a485 97bc
00000020: 13ed 9f3e 2630 f2be 9971 b1be cbbe bd3d
00000030: e958 093f 792a a2be 4c91 13bf d0d2 00bf
00000040: 9a14 ddbe 202e a5bd 8fa4 21bf 880f 8abd
00000050: a281 94be 4ce0 fabd b769 9c3e 8a45 df3e
00000060: e6cf 16be a922 c83d 7c5d 953e dfac 913f
00000070: 29ed b73e dbc1 f13e 1464 c7bc e7dd 273f
00000080: f7f8 e53e 896a fb3e f8f8 01be 7c09 29bf
00000090: 9341 82be c4de 6d3f 699a cabe b2a0 0ebf
000000a0: 5fab e1bc fb52 e83e

sequential/dense_2/MatMul f4 [2, 6]
-0.27879408 -0.81294113 -0.16598916 -0.0725521 -0.48751613 1.2586846 -0.7721307 0.591576
-0.61258143 -0.7467262 0.486617 -1.0554004
00000000: 19be 8ebe e91c 50bf 10f9 29be 3296 94bd
00000010: b79b f9be 941c a13f 5caa 45bf 8671 173f
00000020: 23d2 1cbf 7329 3fbf dd25 f93e 5c17 87bf
