Training/train_ckpt/pca/92/INT8.tflite (tflite, 4120 bytes, 3 tensors)

sequential_6/quant_dense_19/MatMul;sequential_6/quant_dense_19/LastValueQuant/FakeQuantWithMinMaxVars i1 [5, 25] scale=0.0059482907 zero_point=0
0.53534615 -0.0654312 0.15465556 0.017844873 0.035689745 -0.35689744 -0.053534616 0.07137949
0.16655214 0.13681069 0.2498282 0.017844873 0.023793163 0.35689744 0.035689745 -0.4580184
-0.053534616 -0.2498282 -0.08327607 -0.22603504 0.13681069 0.017844873 0.16655214 0.41043207
-0.4996564 0.36284572 -0.3747423 0.017844873 -0.14275898 -0.3747423 -0.14870727 -0.29741454
0.35689744 0.11896581 0.19629359 -0.07732778 -0.1249141 0.07137949 0.29146624 -0.20819017
-0.23198333 -0.053534616 -0.023793163 -0.21413846 0.053534616 -0.22603504 -0.14275898 -0.30931112
-0.041638035 0.0059482907 -0.14870727 0.08922436 0.017844873 -0.24387991 0.047586326 -0.34500086
-0.48181155 -0.40448377 -0.3866389 -0.32715598 -0.011896581 -0.20224188 -0.10706923 0.16060385
-0.3152594 -0.041638035 -0.35094914 -0.11896581 -0.3985355 0.023793163 0.023793163 -0.30336282
-0.35689744 -0.2617248 -0.18439701 -0.19629359 0.029741453 -0.5175013 -0.18439701 -0.47586325
0.0654312 -0.09517265 -0.36879402 -0.14870727 0.053534616 -0.27362138 -0.36284572 -0.27956966
0.07732778 -0.29741454 0.017844873 -0.46991497 -0.1308624 -0.48775983 0.21413846 -0.11301752
-0.3212077 0.029741453 0.09517265 0.035689745 0.09517265 -0.2498282 -0.41043207 0.0
-0.36284572 0.20224188 -0.35689744 -0.11896581 -0.047586326 -0.7554329 -0.35689744 0.10112094
-0.28551796 -0.18439701 -0.16060385 0.029741453 -0.18439701 0.0654312 0.023793163 0.22603504
0.11896581 0.059482906 -0.23793162 -0.39258718 0.10706923
00000000: 5af5 1a03 06c4 f70c 1c17 2a03 043c 06b3
00000010: f7d6 f2da 1703 1c45 ac3d c103 e8c1 e7ce
00000020: 3c14 21f3 eb0c 31dd d9f7 fcdc 09da e8cc
00000030: f901 e70f 03d7 08c6 afbc bfc9 fede ee1b
00000040: cbf9 c5ec bd04 04cd c4d4 e1df 05a9 e1b0
00000050: 0bf0 c2e7 09d2 c3d1 0dce 03b1 eaae 24ed
00000060: ca05 1006 10d6 bb00 c322 c4ec f881 c411
00000070: d0e1 e505 e10b 0426 140a d8be 12

sequential_6/quant_dense_18/MatMul;sequential_6/quant_dense_18/LastValueQuant/FakeQuantWithMinMaxVars i1 [25, 10] scale=0.004739858 zero_point=0
0.023699291 -0.014219575 0.33652994 -0.24173278 -0.08057759 -0.10427688 -0.31283063 -0.10427688
0.07583773 0.15641531 0.1137566 -0.19433418 0.16589504 0.22277334 -0.061618157 0.15167546
-0.16589504 -0.21803348 -0.29387122 0.24173278 0.08531745 -0.094797164 0.3412698 -0.22277334
-0.47398582 -0.19907404 -0.18959433 -0.033179007 0.25595236 0.13745588 -0.26543206 0.25121248
0.34600964 -0.3412698 -0.4313271 0.16589504 -0.27491176 -0.3981481 -0.018959433 -0.17537475
0.07583773 -0.12797618 -0.25595236 -0.1706349 0.018959433 -0.30335093 -0.042658724 0.4455467
0.090057306 0.0 -0.066358015 -0.018959433 -0.27491176 0.36970896 0.023699291 0.042658724
0.21803348 0.08057759 -0.25595236 0.29861107 -0.13271603 0.12323631 0.2701719 -0.16589504
-0.1137566 -0.45028654 0.33652994 -0.3981481 0.009479716 -0.18959433 0.21329361 0.018959433
0.3175705 -0.36022922 -0.29861107 0.16589504 -0.20381391 0.40762782 -0.07109787 -0.15167546
0.0568783 -0.061618157 0.090057306 -0.5450837 0.004739858 -0.35548937 -0.3981481 -0.1706349
-0.10427688 -0.094797164 -0.047398582 0.023699291 0.19907404 -0.3981481 -0.12323631 -0.042658724
0.018959433 -0.25595236 0.601962 0.018959433 0.16589504 0.090057306 0.21329361 -0.3507495
-0.061618157 -0.43606696 -0.037918866 0.004739858 0.18959433 0.3270502 -0.12797618 -0.17537475
0.49294525 -0.10427688 -0.023699291 -0.36022922 -0.30335093 0.19433418 0.15167546 0.05213844
0.28913134 -0.033179007 0.12323631 0.29861107 0.15167546 -0.3744488 -0.25121248 0.4455467
-0.41710752 0.018959433 0.047398582 -0.014219575 0.28913134 -0.2606922 -0.047398582 0.037918866
-0.25121248 0.014219575 -0.15641531 0.004739858 0.48346555 0.08057759 0.31283063 0.16115518
0.1706349 -0.29387122 -0.1706349 0.18485448 -0.30335093 0.15641531 -0.09953702 -0.042658724
-0.33652994 0.37918866 0.13271603 0.17537475 0.43606696 -0.29861107 -0.09953702 -0.061618157
0.27965164 -0.14219575 0.37918866 0.27965164 0.2275132 0.52612424 -0.018959433 -0.17537475
-0.3744488 -0.07583773 -0.118496455 -0.25121248 -0.22277334 0.14693561 0.24647263 -0.047398582
0.27965164 0.29861107 -0.09953702 -0.05213844 0.037918866 -0.18959433 -0.41236767 0.45976624
-0.14693561 -0.21329361 -0.3839285 -0.24173278 0.24173278 -0.39340824 -0.02843915 -0.066358015
-0.25595236 0.08531745 0.20381391 -0.094797164 -0.13271603 0.18485448 -0.10427688 0.25121248
0.21329361 0.018959433 0.042658724 -0.2275132 0.19433418 -0.28913134 0.24173278 0.16115518
-0.014219575 -0.047398582 -0.009479716 0.31283063 0.31283063 0.15641531 -0.24173278 -0.25595236
0.047398582 0.26543206 0.27965164 -0.07109787 0.24647263 -0.066358015 0.009479716 -0.41710752
-0.014219575 -0.18011461 -0.19433418 0.21329361 -0.23225304 -0.0568783 0.18011461 0.066358015
0.25595236 -0.25595236 -0.19907404 -0.24173278 -0.13745588 0.10901674 -0.15167546 0.018959433
-0.061618157 0.061618157 -0.20855376 0.18959433 0.047398582 0.15167546 0.1706349 -0.36970896
0.018959433 -0.08057759
00000000: 05fd 47cd efea beea 1021 18d7 232f f320
00000010: ddd2 c233 12ec 48d1 9cd6 d8f9 361d c835
00000020: 49b8 a523 c6ac fcdb 10e5 cadc 04c0 f75e
00000030: 1300 f2fc c64e 0509 2e11 ca3f e41a 39dd
00000040: e8a1 47ac 02d8 2d04 43b4 c123 d556 f1e0
00000050: 0cf3 138d 01b5 acdc eaec f605 2aac e6f7
00000060: 04ca 7f04 2313 2db6 f3a4 f801 2845 e5db
00000070: 68ea fbb4 c029 200b 3df9 1a3f 20b1 cb5e
00000080: a804 0afd 3dc9 f608 cb03 df01 6611 4222
00000090: 24c2 dc27 c021 ebf7 b950 1c25 5cc1 ebf3
000000a0: 3be2 503b 306f fcdb b1f0 e7cb d11f 34f6
000000b0: 3b3f ebf5 08d8 a961 e1d3 afcd 33ad faf2
000000c0: ca12 2bec e427 ea35 2d04 09d0 29c3 3322
000000d0: fdf6 fe42 4221 cdca 0a38 3bf1 34f2 02a8
000000e0: fdda d72d cff4 260e 36ca d6cd e317 e004
000000f0: f30d d428 0a20 24b2 04ef

sequential_6/quant_dense_20/MatMul;sequential_6/quant_dense_20/LastValueQuant/FakeQuantWithMinMaxVars i1 [2, 5] scale=0.003396493 zero_point=0
0.19699658 -0.36682123 -0.30228788 -0.21058255 -0.4313546 0.08830882 -0.39399317 -0.21397905
0.40418264 -0.23096152
00000000: 3a94 a7c2 811a 8cc1 77bc
