Training/train_ckpt/model_best/268/FLOAT16.tflite (tflite, 5632 bytes, 5 tensors)

sequential_17/re_lu_34/Relu;sequential_17/batch_normalization_17/batchnorm/add_1 f2 [16]
000000 d4 bf d3 bd f2 34 b6 38 a6 3c d4 bb f9 bb 3d ba
       -1.957 -1.456 0.309 0.589 1.162 -0.9785 -0.9966 -0.78
000010 da b9 0d c0 0a bc 41 38 b3 bc ec bd 00 a9 a0 36
       -0.7314 -2.025 -1.01 0.5317 -1.175 -1.48 -0.03906 0.414

sequential_17/batch_normalization_17/batchnorm/mul_1 f2 [16, 62]
000000 23 21 c5 a5 fe 1b 0d a8 9f a7 08 ac 86 12 cd 24
       0.01003 -0.02254 0.003902 -0.03165 -0.02977 -0.063 0.0007963 0.01875
000010 48 a9 00 2c 47 83 93 18 68 27 53 2e bf 29 ad 2e
       -0.04126 0.0625 -5e-05 0.002234 0.02893 0.0988 0.0449 0.1043
000020 cd a7 09 a9 a5 8c 5e 1d 9e a5 d4 2b 3c 0d a6 1d
       -0.03047 -0.03934 -0.0002835 0.00524 -0.02194 0.06116 0.0003195 0.005516
000030 56 a5 8c ac 89 22 51 a5 6a ab 4a aa 05 94 20 a0
       -0.02084 -0.07104 0.012764 -0.02077 -0.05792 -0.04913 -0.000981 -0.00806
000040 a8 a7 78 a3 5f 83 f6 96 85 9e 78 ab 6c a4 e1 a4
       -0.0299 -0.01459 -5.144e-05 -0.001699 -0.006367 -0.05835 -0.01727 -0.01906
000050 c9 ab 7f ab e2 82 58 1a e4 ab a8 a1 d0 84 0b 9a
       -0.06082 -0.05856 -4.4e-05 0.003098 -0.06165 -0.01105 -7.343e-05 -0.00295
000060 d1 25 16 2a 17 26 1c 29 6b a5 04 aa cf 0b 9d 9d
       0.02272 0.04755 0.02379 0.03992 -0.02116 -0.047 0.0002383 -0.00548
000070 5f a2 33 2b 53 0e 8f 1d f1 25 a7 ab a1 1c 54 a3
       -0.01244 0.05624 0.000386 0.00543 0.02321 -0.05978 0.00452 -0.01431
000080 b0 20 8a a4 15 24 81 25 6c 98 a4 1f 8d 9e 06 25
       0.009155 -0.01773 0.01595 0.0215 -0.00216 0.00746 -0.006397 0.01962
000090 51 19 69 0c 25 9e 62 ad 52 9c 61 ad e5 22 ca 23
       0.002596 0.0002692 -0.006 -0.0841 -0.00422 -0.08405 0.013466 0.01521
0000a0 f7 96 84 17 3a 9e 7b a2 bc 22 0b 0f 52 9f 6a a9
       -0.0017 0.001835 -0.00608 -0.01266 0.01315 0.0004299 -0.00715 -0.0423
0000b0 04 97 5a a2 97 20 d1 1e 3f 09 22 92 e9 9d 5c 26
       -0.001713 -0.012405 0.008965 0.006657 0.0001601 -0.0007486 -0.00577 0.02484
0000c0 c3 8b 8f 0c e6 9f 0c 24 93 9b 3c 96 7c 22 76 21
       -0.0002369 0.0002782 -0.007713 0.01581 -0.003698 -0.001522 0.012665 0.010666
0000d0 b3 0c 87 09 7b a1 2a 22 5f 80 60 11 ea 9f 8d ac
       0.0002868 0.0001687 -0.010704 0.01204 -5.66e-06 0.000656 -0.00773 -0.0711
0000e0 c6 94 35 ad 16 21 2b 25 47 91 b9 10 45 9e c9 95
       -0.001165 -0.08136 0.00993 0.02019 -0.000644 0.0005765 -0.006123 -0.001412
0000f0 4a 96 79 96 67 20 8b 20 64 0c 21 17 47 18 8e 11
       -0.001535 -0.00158 0.0086 0.00887 0.000268 0.00174 0.002089 0.000678
000100 7b a1 72 a4 0e 9b cb 1c 62 9f e9 22 6e 99 b0 14
       -0.010704 -0.01736 -0.003445 0.00468 -0.00721 0.0135 -0.002651 0.001144
000110 78 21 6c 2c 45 20 25 2c 83 a3 16 a4 14 97 4b 19
       0.01068 0.0691 0.00834 0.06476 -0.01467 -0.01596 -0.001728 0.002584
000120 5a 1b 36 21 c9 97 92 a0 8b 8b 9b 93 d5 97 80 9f
       0.00359 0.01018 -0.001901 -0.00893 -0.0002302 -0.0009284 -0.001912 -0.007324
000130 7f 9f 01 a5 4b 0a 62 19 32 a2 da a0 09 0c 23 8a
       -0.00732 -0.01955 0.000192 0.002628 -0.0121 -0.009476 0.0002463 -0.0001873
000140 a5 93 71 a4 3a 21 8e 9f 5c a2 70 a4 ae 82 ee 19
       -0.000933 -0.01735 0.01021 -0.007378 -0.01242 -0.01733 -4.09e-05 0.002895
000150 e2 a0 ea 9d 5a 10 2d 17 20 21 52 2c 0d 21 07 2c
       -0.00954 -0.005775 0.000531 0.001752 0.01001 0.0675 0.009865 0.0629
000160 59 a0 1a a5 98 95 b0 9d e6 9c c9 22 39 95 a9 9d
       -0.00849 -0.01993 -0.001366 -0.005554 -0.004784 0.01325 -0.001275 -0.005527
000170 3e 9c 87 16 c1 1d 6f 1f 96 1c c8 21 c7 24 1c 24
       -0.004143 0.001594 0.00562 0.00726 0.00448 0.01129 0.01866 0.01605
000180 2b 96 b6 98 ee 9e 96 96 58 94 f4 1b 42 9d 0d 29
       -0.001506 -0.0023 -0.006767 -0.001608 -0.0010605 0.003883 -0.005135 0.03946
000190 37 19 8e 28 30 24 8d 23 cd 03 b7 9e 65 9e 06 25
       0.002546 0.03558 0.01636 0.01475 5.8e-05 -0.006557 -0.006245 0.01962
0001a0 de 93 32 9b 09 22 b7 28 e0 1d 68 1e 02 27 bc 04
       -0.0009604 -0.003513 0.01179 0.03683 0.005737 0.006256 0.02737 7.224e-05
0001b0 57 90 c9 84 b9 a0 ab 98 8e 0b 6e 0d fe 22 68 21
       -0.00053 -7.3e-05 -0.009224 -0.00228 0.0002306 0.0003314 0.01366 0.01056
0001c0 e9 1b 2d 20 97 23 c2 99 b7 8d 26 0a b0 9e ad 87
       0.003862 0.008156 0.014824 -0.002811 -0.0003488 0.0001876 -0.00653 -0.0001171
0001d0 c2 88 88 81 43 8e 66 29 29 9b 2b 29 ab 20 cc 1e
       -0.0001452 -2.337e-05 -0.0003822 0.04218 -0.003496 0.04037 0.00912 0.006638
0001e0 be 8d 26 a4 64 a4 91 20 0f 90 87 9d 40 22 a3 96
       -0.0003505 -0.0162 -0.01715 0.00892 -0.0004954 -0.005398 0.01221 -0.00162
0001f0 97 94 42 1a ef 19 b8 1f 34 23 6e 21 3f 98 53 9c
       -0.001121 0.003056 0.002897 0.007538 0.01407 0.010605 -0.002073 -0.004223

sequential_17/dense_52/BiasAdd/ReadVariableOp f2 [6]
000000 dc 33 7a 2c 42 31 68 b1 d8 a9 80 33
       0.2456 0.06995 0.1643 -0.169 -0.04565 0.2344

sequential_17/dense_52/MatMul f2 [6, 16]
000000 3b 30 4c 39 cb b1 24 b5 53 b4 ee b2 2f 39 c1 34
       0.1322 0.662 -0.181 -0.3213 -0.2703 -0.2166 0.648 0.297
000010 54 38 f5 2e bb 39 16 30 99 38 9e 39 40 2d ca b1
       0.541 0.1087 0.7163 0.1277 0.5747 0.702 0.08203 -0.1809
000020 e8 37 af aa cf 32 0c 36 5b 32 ef b2 65 b6 84 b4
       0.4941 -0.05222 0.2128 0.378 0.1986 -0.2167 -0.3997 -0.2822
000030 9b 28 f1 33 a4 ad 6b b8 e4 28 2f b4 ae 38 bc bb
       0.03598 0.2482 -0.08813 -0.5522 0.0382 -0.2615 0.585 -0.967
000040 42 a9 26 27 ed 2f 48 2b 8a 2e 20 38 69 b7 d9 b3
       -0.04108 0.02792 0.12384 0.0569 0.1022 0.5156 -0.4631 -0.2452
000050 40 2f d5 32 b9 b2 88 b4 7e b1 64 1c 74 36 c6 34
       0.1133 0.2135 -0.2101 -0.2832 -0.1716 0.004288 0.4033 0.2983
000060 87 34 37 36 dc ac c9 b8 e9 b4 20 2f 56 30 96 2c
       0.283 0.3884 -0.0759 -0.598 -0.307 0.1113 0.1355 0.07166
000070 0e a8 35 38 8b a9 7f 2e ec b7 fa 3a 9b 31 5e ad
       -0.03168 0.526 -0.0433 0.1015 -0.495 0.872 0.1752 -0.08386
000080 a0 ad db ab bf 35 68 2d fb 9a d4 2a 05 aa a5 b5
       -0.0879 -0.06137 0.3591 0.0845 -0.003408 0.05334 -0.04703 -0.3528
000090 d8 28 ce 38 10 2e d7 39 b7 b0 a8 2e c5 b9 50 b6
       0.03784 0.6006 0.0947 0.73 -0.1473 0.104 -0.721 -0.3945
0000a0 b1 38 cf b5 3c ac 0e b4 f2 af 09 35 7e b5 37 b7
       0.5864 -0.363 -0.06616 -0.2534 -0.12415 0.3147 -0.3433 -0.451
0000b0 fc b5 7d 35 cc ae c9 35 7a b0 91 ae dd 31 f2 34
       -0.374 0.343 -0.1062 0.3616 -0.1399 -0.1026 0.1832 0.309

sequential_17/dense_53/MatMul f2 [2, 6]
000000 1a 3c 95 b7 b1 ba 34 30 b9 a7 5c bb 35 bb 18 31
       1.025 -0.4739 -0.8364 0.1313 -0.03017 -0.92 -0.901 0.1592
000010 f6 b0 70 b9 96 3c 1c 3b
       -0.155 -0.6797 1.146 0.8887
