Training/train_ckpt/best_model2/220/FLOAT16.tflite (tflite, 5776 bytes, 5 tensors)

sequential_14/dense_42/BiasAdd/ReadVariableOp f2 [16]
00000000: 60b8 f7b4 9d30 a138 3f32 31b7 1d38 0bb1
00000010: a7b8 472b 0332 a4b1 a130 6eb9 49b6 bdac
-0.547 -0.3103 0.1442 0.5786 0.1952 -0.4495 0.514 -0.1576
-0.5815 0.05685 0.1879 -0.1763 0.1447 -0.6787 -0.3928 -0.07404

sequential_14/dense_43/BiasAdd/ReadVariableOp f2 [6]
00000000: cf38 943b 9cb7 223e 1137 b1b8
0.601 0.9473 -0.4756 1.533 0.4417 -0.5864

sequential_14/dense_42/MatMul f2 [16, 62]
00000000: ca23 61b9 ad2e d2b7 5fba 66ba e8a7 b31b
00000010: dd39 00b9 99a8 512d a2b8 b0c2 a3b8 06c3
00000020: a9b9 0ab5 5434 afaa a839 8fba 7aa0 2b2d
00000030: d2b5 afbc 812f 7bb8 18b6 8228 471e 750a
00000040: 6238 7236 3ba0 4014 f6b5 c9b7 e0a5 29b0
00000050: a8b9 c2b4 dc08 7a23 cc3a 7432 9a0e 621c
00000060: 27b9 9ec2 c2b8 b3c2 2fb9 0eb8 2e9e 5724
00000070: c53a 38ba 26a1 a2a0 0dbc 0c32 e234 73b6
00000080: f92e efb4 94b8 7ea5 93b2 ef35 b638 60b6
00000090: 82b0 0934 2db9 39be b6b8 9abd 6ab8 96b4
000000a0: 48b0 b723 2032 3bb4 81a8 5932 79b8 b8b8
000000b0: 6f32 2231 cd20 6933 5322 92ac 6934 9e31
000000c0: 9725 6430 87b4 88b4 11b4 1db0 36b1 7b21
000000d0: 7e23 4c2f c435 9b33 9998 3d22 b9b8 bebc
000000e0: 81b5 9ebd 77b1 0c30 4633 ec2d 0938 d5b8
000000f0: 5bac 912f a9b9 792f e835 1a2d 8b2e 5e35
00000100: ae33 5c2e 4922 1631 64bb ca3b f2a5 c6af
00000110: 0b37 d139 a82a 8837 1737 8831 8f2c a7b0
00000120: ddb8 5639 63ac ebb1 1dba 20b9 2b8e 28b2
00000130: b0b3 d7b4 b8b2 deb5 4fb4 1d37 f9ab 5f26
00000140: 17b6 44b7 b9b4 88b5 c1ae 49ad 8cb4 ae2b
00000150: 13b1 0a31 aeac 95b2 a531 bc38 f437 6f38
00000160: 4e38 bf23 6629 3b26 94b7 653a d029 752c
00000170: 9f34 6bb2 ca34 d73a e9ac f13a 0d3e e43b
00000180: 05ad 4a2c 21c0 d840 9dae 2a9b 0138 f241
00000190: 3a3a ce41 7f3c 7139 14a8 1aa4 adbe 0741
000001a0: f1ad 1fb5 eeb1 a138 373b f23b a43a ba2a
000001b0: e499 8eaf 08bd 6a36 3f27 3d2e 112f 8930
000001c0: d73c b23c 9c39 e1a6 7a20 ce2d 03c0 5939
000001d0: 3920 dd23 f938 4641 033b 5241 fe3d 023a
000001e0: fba6 0d2d f9bf 6740 16a7 78b1 643f f8b8
000001f0: fd2d b230 8d2f fe30 6723 6fb2 a6ae 9b32
0.01521 -0.6724 0.1043 -0.4888 -0.7964 -0.8 -0.03088 0.00376
0.733 -0.625 -0.03592 0.08307 -0.579 -3.344 -0.5796 -3.512
-0.7075 -0.315 0.2705 -0.05222 0.707 -0.82 -0.00874 0.08075
-0.3638 -1.171 0.11725 -0.56 -0.3809 0.03522 0.00613 0.000197
0.548 0.4028 -0.00826 0.001038 -0.3726 -0.4866 -0.02295 -0.13
-0.707 -0.2974 0.0001483 0.0146 0.8496 0.2017 0.000403 0.00428
-0.644 -3.309 -0.5947 -3.35 -0.648 -0.507 -0.006035 0.01695
0.846 -0.7773 -0.010056 -0.00905 -1.013 0.189 0.3052 -0.403
0.10895 -0.3083 -0.5723 -0.02145 -0.2054 0.3708 0.589 -0.3984
-0.1409 0.2522 -0.647 -1.556 -0.589 -1.4 -0.552 -0.2866
-0.1338 0.01507 0.1914 -0.2644 -0.0352 0.1984 -0.559 -0.59
0.201 0.1604 0.00938 0.2316 0.01235 -0.0714 0.2756 0.1755
0.02184 0.1372 -0.283 -0.2832 -0.2542 -0.1285 -0.1628 0.010704
0.01463 0.114 0.3604 0.2377 -0.002245 0.012184 -0.5903 -1.186
-0.344 -1.404 -0.1708 0.1265 0.2273 0.0925 0.5044 -0.604
-0.06805 0.1182 -0.7075 0.11676 0.3691 0.0797 0.10223 0.3354
0.24 0.09937 0.012276 0.1589 -0.924 0.9736 -0.02322 -0.12146
0.4402 0.727 0.052 0.4707 0.443 0.1729 0.0712 -0.1454
-0.608 0.667 -0.06854 -0.1849 -0.764 -0.6406 -0.0003765 -0.1924
-0.2402 -0.3025 -0.21 -0.3667 -0.2693 0.4446 -0.0623 0.02489
-0.3806 -0.454 -0.2952 -0.3457 -0.1055 -0.0826 -0.2842 0.06
-0.1586 0.1575 -0.0731 -0.2057 0.1764 0.592 0.497 0.554
0.538 0.01513 0.04218 0.02434 -0.4736 0.7993 0.0454 0.06964
0.2888 -0.2006 0.2993 0.855 -0.0767 0.8677 1.513 0.9863
-0.0784 0.067 -2.064 2.422 -0.10333 -0.003498 0.5005 2.973
0.7783 2.902 1.124 0.68 -0.03186 -0.01602 -1.669 2.514
-0.09283 -0.32 -0.1853 0.5786 0.902 0.993 0.83 0.05255
-0.002876 -0.11804 -1.258 0.401 0.0283 0.0975 0.1104 0.1417
1.21 1.174 0.701 -0.02687 0.00874 0.0907 -2.006 0.6685
0.00825 0.01536 0.6216 2.637 0.8765 2.66 1.498 0.751
-0.02727 0.0789 -1.993 2.201 -0.02768 -0.1709 1.848 -0.621
0.09357 0.1467 0.118 0.156 0.01446 -0.201 -0.1039 0.2064

sequential_14/dense_43/MatMul f2 [6, 16]
00000000: bfb7 5cae e037 2daf 9834 53b3 4eb5 d636
00000010: 66b0 f0b4 4332 9bb5 e8ab 7ab3 70b3 1e34
00000020: a3b5 f4b1 6338 01b8 0c2d c82b 8c39 ed31
00000030: 6cad 6229 1032 87af 1732 75b5 94a5 2ab4
00000040: e6b2 ad30 3335 c2b5 e3aa cbab 16b1 e333
00000050: 5eb3 3a2f e028 48ad 86b7 24b1 9bb5 c224
00000060: c4bb 21b4 bc35 8f35 a62e bbb4 959c dab0
00000070: 62b5 a830 5236 aaac d32c 77b9 bba5 01b8
00000080: 46b1 8320 702e 06b0 dd29 2ab7 c7b4 4a25
00000090: 52b6 7b2e 66ab 4caa 86b6 94b4 8eb8 a6b5
000000a0: d338 adab fc35 5522 7424 9336 ef9e 06af
000000b0: 1335 49b1 ad22 c2aa 9d1f 9538 2935 26a8
-0.4841 -0.09937 0.4922 -0.1121 0.287 -0.2289 -0.3315 0.4272
-0.1375 -0.3086 0.1957 -0.3503 -0.06177 -0.2336 -0.2324 0.2573
-0.3523 -0.186 0.5483 -0.5005 0.07886 0.0608 0.6934 0.1852
-0.0847 0.04205 0.1895 -0.1176 0.1903 -0.341 -0.02179 -0.2603
-0.2156 0.1461 0.325 -0.3599 -0.0538 -0.06088 -0.1589 0.2465
-0.2302 0.1129 0.0381 -0.0825 -0.4702 -0.1606 -0.3503 0.01859
-0.9707 -0.258 0.3584 0.3474 0.1039 -0.2957 -0.004475 -0.1516
-0.3364 0.1455 0.395 -0.0729 0.0754 -0.683 -0.02238 -0.5005
-0.1648 0.00881 0.1006 -0.1257 0.0458 -0.4478 -0.2986 0.02066
-0.395 0.10126 -0.0578 -0.0492 -0.4077 -0.2861 -0.5693 -0.353
0.603 -0.05997 0.374 0.01237 0.0174 0.411 -0.00677 -0.10974
0.3171 -0.1652 0.01304 -0.0528 0.007435 0.5728 0.3225 -0.0324

sequential_14/dense_44/MatMul f2 [2, 6]
00000000: c4ae d9b8 aa38 4039 c531 52af 6a2d 45b8
00000010: f237 183a fc38 07b4
-0.1057 -0.606 0.583 0.6562 0.1803 -0.1144 0.0846 -0.5337
0.4966 0.7617 0.623 -0.2517
