Training/train_ckpt/pca/89/FLOAT16.tflite (tflite, 4352 bytes, 5 tensors)

sequential_5/dense_15/BiasAdd/ReadVariableOp f2 [25]
000000 77 34 1b 2d 57 33 e9 a9 ff a9 10 35 68 35 a3 34
       0.279 0.0798 0.2294 -0.04617 -0.04684 0.3164 0.338 0.2898
000010 6d 36 5e ad b5 2e 37 30 88 b5 87 b6 94 2a 77 1c
       0.4016 -0.08386 0.1048 0.1317 -0.3457 -0.408 0.0514 0.00436
000020 09 b4 a3 28 7b b1 08 32 2c b6 54 28 da 33 3d b1
       -0.2522 0.03622 -0.1713 0.1885 -0.3857 0.0338 0.2454 -0.1637
000030 20 b2
       -0.1914

sequential_5/dense_16/BiasAdd/ReadVariableOp f2 [5]
000000 3a b4 23 2d 4d 37 4b b6 49 b6
       -0.2642 0.08026 0.4563 -0.3933 -0.3928

sequential_5/dense_15/MatMul f2 [25, 10]
000000 b2 b6 8a 34 1a b1 56 36 ff 30 d6 ad f2 2f 68 b1
       -0.4185 0.2837 -0.1594 0.396 0.1561 -0.0912 0.12415 -0.169
000010 0a b4 86 a6 ac af 0f 29 92 32 cb aa 89 b5 58 37
       -0.2524 -0.02548 -0.1199 0.03952 0.2053 -0.05307 -0.346 0.459
000020 2b b4 f7 b5 c3 32 1a af 69 37 66 31 08 b5 b2 b2
       -0.2605 -0.3728 0.2113 -0.11096 0.4631 0.1687 -0.3145 -0.2092
000030 68 35 5c ac 0c 35 dd 37 eb 31 1f 34 33 28 3a 2a
       0.338 -0.0681 0.3154 0.4915 0.1849 0.2576 0.0328 0.04865
000040 b9 b4 a4 b3 90 b2 72 b5 3e b1 e7 ad e2 af 6e 31
       -0.2952 -0.2388 -0.2051 -0.3403 -0.1638 -0.0922 -0.12317 0.1697
000050 fd a0 00 31 bf 20 ed ae 47 30 ea 29 d5 ae 1d 32
       -0.00974 0.1562 0.00927 -0.1082 0.1337 0.0462 -0.10675 0.191
000060 d3 34 72 2d 8e b6 3e b0 3e ae 4b 2c 83 32 05 b7
       0.3015 0.0851 -0.4097 -0.1326 -0.09753 0.0671 0.2035 -0.4387
000070 b5 b5 c0 b1 a2 b5 24 aa cf 36 6c 2d 4e b6 78 ad
       -0.3567 -0.1797 -0.352 -0.04797 0.4255 0.0847 -0.394 -0.08545
000080 fe 30 dd b7 f8 b1 4b b3 5c 29 18 b0 f3 ab 23 1c
       0.156 -0.4915 -0.1865 -0.2279 0.04187 -0.1279 -0.0621 0.00404
000090 04 36 82 34 62 ac a5 2d 36 31 55 b7 13 b1 d1 2e
       0.376 0.2817 -0.0685 0.0882 0.1628 -0.4583 -0.1586 0.1065
0000a0 d9 36 60 b6 d3 24 1f b8 87 30 af b4 45 b1 a2 36
       0.428 -0.3984 0.01884 -0.515 0.1415 -0.2927 -0.1647 0.4146
0000b0 da 2c bf 21 93 b0 ae 20 8e 2d 49 a8 79 b0 cd ad
       0.0758 0.01122 -0.143 0.00914 0.0868 -0.03348 -0.1398 -0.09064
0000c0 3b a9 f4 25 0a b0 ff b2 1c ae 79 34 1b b5 cc 25
       -0.04086 0.02325 -0.1262 -0.2186 -0.09546 0.2795 -0.319 0.02264
0000d0 94 ae b7 b6 35 36 21 b3 3c b5 21 2d 58 b1 09 2f
       -0.1028 -0.4197 0.388 -0.2228 -0.3271 0.08014 -0.167 0.1099
0000e0 11 38 1d b2 43 2c 7c 31 2c 25 21 35 cf 34 f4 b1
       0.5083 -0.191 0.0666 0.1714 0.0202 0.3206 0.3005 -0.186
0000f0 d6 ab 70 aa 81 30 f2 2d 81 30 fe 2a e2 2c f9 31
       -0.06122 -0.0503 0.1407 0.0929 0.1407 0.05463 0.0763 0.1866
000100 a3 2f 34 34 9c 31 15 b0 6a 2b 37 33 8c 34 0f ae
       0.1193 0.2627 0.1753 -0.1276 0.05792 0.2255 0.2842 -0.09467
000110 50 a8 ce 34 70 b4 e0 30 39 b1 19 34 2b a9 3d b0
       -0.0337 0.3003 -0.2773 0.1523 -0.1632 0.256 -0.04037 -0.1324
000120 69 b0 58 2d d8 33 ee b0 51 b2 9b af d0 b5 02 34
       -0.1378 0.0835 0.2451 -0.154 -0.1974 -0.11884 -0.3633 0.2505
000130 aa a8 e1 2b ec 18 4e 30 77 35 17 b0 04 30 2e 30
       -0.03644 0.06155 0.002403 0.1345 0.3416 -0.1278 0.1255 0.1306
000140 09 a8 75 1c b4 ab f7 b6 7f ad f0 2e 3e b5 2a a9
       -0.03152 0.004353 -0.06018 -0.4353 -0.0859 0.1084 -0.3276 -0.04034
000150 29 32 df 2d 92 b3 d2 30 85 b8 29 2b d0 ad 55 b6
       0.1925 0.09174 -0.2366 0.1506 -0.565 0.05594 -0.0908 -0.3958
000160 a4 30 c6 24 30 35 72 33 cf a8 8e 2f 56 b0 bb 34
       0.145 0.01865 0.3242 0.2327 -0.03757 0.11804 -0.1355 0.2957
000170 ab b3 3d 34 c0 b4 c4 af 77 28 35 31 1b 33 71 ad
       -0.2396 0.265 -0.2969 -0.12134 0.03488 0.1627 0.222 -0.085
000180 d1 a3 ae b7 dc 24 70 b3 c1 b6 3f 35 02 32 bb 30
       -0.01527 -0.48 0.01898 -0.2324 -0.422 0.328 0.1877 0.1478
000190 23 28 7e 29 cb 2c 5c 31 0a 2c 2a ab 32 32 85 b4
       0.03232 0.0429 0.0749 0.1675 0.0631 -0.05597 0.1936 -0.2825
0001a0 36 2e 1e b2 7e a8 dc ac 45 35 b7 35 22 33 e6 34
       0.09705 -0.1912 -0.0351 -0.0759 0.3293 0.3572 0.2229 0.3062
0001b0 90 b1 e7 2e 1d 34 34 a2 4f a8 9c b3 5d 35 e4 33
       -0.1738 0.10785 0.257 -0.012115 -0.03366 -0.2378 0.3352 0.2466
0001c0 44 31 00 2d 3d a7 00 32 9e b3 3b b3 55 ac 3a 2c
       0.1646 0.0781 -0.02827 0.1875 -0.238 -0.226 -0.0677 0.06604
0001d0 36 b6 f1 b3 8d 26 92 ac 16 ae e3 2c ae 30 ba 22
       -0.3882 -0.2482 0.02559 -0.0714 -0.0951 0.07635 0.1462 0.01314
0001e0 2c af 15 a5 98 2f 29 34 f3 31 24 30 ca 35 8a 29
       -0.11206 -0.01985 0.11865 0.26 0.1859 0.1294 0.3618 0.04327
0001f0 dc b4 e7 34
       -0.3037 0.3064

sequential_5/dense_16/MatMul f2 [5, 25]
000000 61 28 c0 b5 3e b7 43 30 18 b7 2e b0 ec b2 a4 b2
       0.0342 -0.3594 -0.4526 0.1332 -0.4434 -0.1306 -0.2163 -0.2075
000010 a8 b0 28 b1 05 a3 64 2f d6 b6 bd ae 23 b0 97 b4
       -0.1455 -0.1611 -0.01371 0.1155 -0.4272 -0.1053 -0.1293 -0.2869
000020 df b7 fb b7 a5 2e 59 35 c0 b0 f8 b2 ec af 38 31
       -0.492 -0.4988 0.1038 0.3342 -0.1484 -0.2178 -0.1238 0.1631
000030 77 b4 5d 30 40 b0 db 2c a1 36 76 2e ed 28 ec 30
       -0.279 0.1364 -0.1328 0.07587 0.4143 0.10095 0.03848 0.1538
000040 59 31 39 31 5f 31 78 ac 63 2a c1 b5 e3 b3 bb 34
       0.1671 0.1632 0.1678 -0.0698 0.0499 -0.3596 -0.2465 0.2957
000050 bf 98 d1 30 1a 34 2b a8 fd 35 17 b3 51 b3 15 30
       -0.002317 0.1505 0.2563 -0.03256 0.3743 -0.2216 -0.2286 0.1276
000060 3d 27 5a b0 26 34 c2 b1 7e a4 c6 b4 1f 34 cd 2c
       0.02827 -0.136 0.2593 -0.1799 -0.01755 -0.2983 0.2576 0.075
000070 8a 28 bc 37 b9 2d 60 34 23 b1 df 32 76 34 e3 b5
       0.03546 0.4834 0.0894 0.2734 -0.1605 0.2147 0.2788 -0.368
000080 70 36 5e 2b e3 b4 35 33 21 99 e8 31 1d a2 b7 a2
       0.4023 0.05756 -0.3054 0.2252 -0.002504 0.1846 -0.01194 -0.013115
000090 34 36 13 b5 8c 34 c1 b6 72 b0 d1 b1 62 2f 55 30
       0.3877 -0.3171 0.2842 -0.422 -0.1389 -0.1818 0.11536 0.1354
0000a0 3c b5 bf 22 bd b1 bd aa d2 2d 37 ad 0f b7 9f 2a
       -0.3271 0.013176 -0.1793 -0.05264 0.09094 -0.0815 -0.4412 0.05173
0000b0 04 b6 8c 2b 12 b5 22 34 b8 ad d4 b2 83 b2 ca ab
       -0.376 0.05896 -0.317 0.2583 -0.08936 -0.2134 -0.2035 -0.06085
0000c0 b0 a8 6b ac 79 32 59 1b 8f b1 6f b7 38 b5 62 a1
       -0.03662 -0.06903 0.2023 0.003588 -0.1737 -0.4646 -0.3262 -0.01051
0000d0 56 b3 a8 b2 b3 b5 9c b7 e6 b2 43 b1 55 b6 aa 25
       -0.2292 -0.208 -0.3562 -0.4756 -0.2156 -0.1644 -0.3958 0.02213
0000e0 c0 23 fc 30 ab b4 9e 33 12 b3 c3 ac 10 24 78 a0
       0.01514 0.1558 -0.2917 0.238 -0.221 -0.0744 0.01587 -0.00873
0000f0 0f 2d 07 b8 93 b4 db b5 38 af
       0.07904 -0.5034 -0.286 -0.366 -0.1128

sequential_5/dense_17/MatMul f2 [2, 5]
000000 ca 34 82 33 e2 3a 20 36 ff b8 71 b2 4a 32 1f 3b
       0.2993 0.2346 0.8604 0.3828 -0.6245 -0.2013 0.1965 0.89
000010 ff ab bc 36
       -0.06247 0.421
