Training/train_ckpt/5featuresV3adjust_simple/19/16_10_model_features_2023-09-25-22:19:46.948937.tflite (tflite, 7132 bytes, 6 tensors)

sequential/re_lu/Relu;sequential/batch_normalization/batchnorm/add_1 f4 [16]
-1.1414447 1.3159443 0.19548813 -0.11236081 -1.3513871 0.05871634 -1.8899348 -0.55170745
-1.8745272 -1.6220858 -1.5212721 -0.43603975 1.6064069 1.5310016 -1.5213195 -1.331535
00000000: dc1a 92bf dd70 a83f 0a2e 483e 6d1d e6bd
00000010: 41fa acbf 8c80 703d 62e9 f1bf b33c 0dbf
00000020: 82f0 efbf 82a0 cfbf 0bb9 c2bf 9a40 dfbe
00000030: be9e cd3f dcf7 c33f 99ba c2bf bd6f aabf

sequential/batch_normalization/batchnorm/mul_1 f4 [16, 62]
0.012381832 0.051348615 0.05803298 0.1084682 -0.0052106986 -0.027597208 -0.0010166797 0.0022298403
-0.04813729 0.036904417 0.00025857927 0.0009208697 0.020355245 0.0942859 0.017813418 0.11022753
-0.0046049515 -0.030565735 -0.000277409 0.005769029 -0.028662901 0.061444532 -0.0017559853 -0.004104502
0.026214622 0.006481857 0.020718345 -0.0012828887 0.0023528156 -0.032708276 0.00040398963 -0.0021225046
-0.03728173 0.040841643 -0.00011673751 -0.0064284354 -0.000117780386 0.05983195 -0.0008159178 0.07055639
0.0055613797 -0.003530241 -0.0010006485 0.0067277914 -0.05507484 0.0548887 -0.00045420465 -0.004346611
0.0031179425 0.005941104 -0.0005824145 0.0010714771 0.0011352246 -0.011124131 -0.0010030818 0.008287441
-0.032444462 0.052825417 -0.00029719152 0.0012320161 0.027730105 -0.00022784124 0.0032645287 0.00551171
0.004249061 0.011543782 0.00048453326 -0.0064628404 -1.9482025e-06 0.0011762471 -0.010152772 0.004409276
-0.0017629223 -0.0013178509 0.007097414 0.014040267 0.0048057563 0.01233482 0.0038459173 -0.0033186367
-1.3591249e-05 0.00033497505 -0.006944698 0.007826451 -0.0014214405 0.002272793 0.0019144018 -0.0005787637
0.008030586 -0.0024534324 0.0013195705 -0.0041185343 -0.0013302048 0.0015090902 -0.0039057168 0.008439573
-0.0013099054 -0.00059521315 0.0008556927 0.004757328 0.0026214083 0.008906302 -0.0015845643 -0.004413936
-0.0011995493 -0.00032369088 -0.0070501734 0.0068018376 -0.0021760222 -0.0044697667 0.000835133 0.0010149474
0.0003494338 -0.00062450755 -0.0009818224 0.00028833884 -0.0019624918 -0.00044572243 -0.0061338986 0.008485166
-0.0010816539 -0.00048882357 0.0052369596 -0.0019264258 0.001666292 0.004569462 0.016185764 0.027849916
-0.010910582 -0.020271106 0.00035558073 0.0036820672 -0.014349849 0.018454583 -0.0002419332 0.00021831361
0.011100493 0.01880186 0.0105637675 0.021676185 -0.005511153 -0.017757416 0.00040087392 -0.00075183203
-0.00357979 0.022469573 -0.00049693114 0.00067162805 0.009663443 -0.0025375965 0.0069226287 -0.0025695646
-0.001111117 -0.013256244 -0.00057431654 0.0023399536 -0.004766467 0.021476692 -0.00015449172 0.0006736021
0.0027965712 0.012138317 0.006470027 0.009416224 -0.011040244 -0.013217314 -0.002568715 -0.00024411149
-0.0050522718 0.017371604 -0.0027870298 0.0030976257 0.0016716868 0.002165564 0.0056029074 -0.0045492104
-0.0095098745 -0.007844459 -0.0033977435 0.0038869001 -0.009955241 0.02335426 -0.0038066432 0.0022256242
0.0046103043 -0.007159678 -0.0075879428 0.0053278534 0.011242012 0.02206811 -0.010606123 -0.01803418
5.403887e-06 0.0029623841 -0.018350448 0.012047241 0.0003090598 0.00045441155 0.012822377 0.0330338
0.010208393 0.031944036 -0.0055758124 -0.019099914 -0.0012063078 0.0067070886 -0.0046983273 0.013815896
-0.0017030826 0.0010523535 0.011449791 -0.0021554104 0.011908472 0.0015076798 -0.004918294 -0.016702376
-0.00025702704 0.005701496 -0.0020513725 0.014139999 -3.2157809e-07 0.0022353402 0.0021730645 0.014930202
-0.002015444 0.019095514 -0.015903544 -0.01296291 -0.00076498155 0.0021441726 -0.008714481 0.019707931
-0.0011985762 -0.0057487623 0.0005753668 -0.00073043123 0.0054609743 0.0018993992 -0.011436198 -0.020807395
-0.002028146 0.0055284 -0.008404773 0.018882804 -0.0015444405 -0.0019514713 0.004043483 -0.0063065616
-0.0060458905 -0.027176086 -0.010661496 -0.032440912 -0.0069848355 0.009646458 -0.00020610495 0.00039049544
00000000: 2bdd 4a3c ed52 523d fdb3 6d3d 9324 de3d
00000010: 82be aabb 8a13 e2bc 1c42 85ba 8322 123b
00000020: 9b2b 45bd 1629 173d ec91 8739 8566 713a
00000030: 0bc0 a63c f718 c13d 72ed 913c f9be e13d
00000040: 22e5 96bb fe64 fabc 3571 91b9 1f0a bd3b
00000050: 76ce eabc 43ad 7b3d 1729 e6ba 0f7f 86bb
00000060: 0cc0 d63c c265 d43b 85b9 a93c 9a26 a8ba
00000070: b231 1a3b 1df9 05bd 92ce d339 b819 0bbb
00000080: bab4 18bd 9149 273d f9d0 f4b8 a0a5 d2bb
00000090: dd00 f7b8 5912 753d 51e3 55ba de7f 903d
000000a0: 3c3c b63b 9e5b 67bb 3128 83ba ce74 dc3b
000000b0: 2896 61bd f9d2 603d 5122 eeb9 046e 8ebb
000000c0: 6556 4c3b 98ad c23b 2dad 18ba ce70 8c3a
000000d0: d1cb 943a fd41 36bc d779 83ba 0cc8 073c
000000e0: 7ce4 04bd 775f 583d 5fd0 9bb9 9a7b a13a
000000f0: 3f2a e33c abe8 6eb9 b4f1 553b 939b b43b
00000100: b53b 8b3b 2222 3d3c f408 fe39 3cc6 d3bb
00000110: ddbd 02b6 4e2c 9a3a d057 26bc b07b 903b
00000120: db11 e7ba bdbb acba 6d91 e83b 2609 663c
00000130: 9b79 9d3b fc17 4a3c c90b 7c3b 7c7d 59bb
00000140: f805 64b7 979f af39 5990 e3bb 843a 003c
00000150: a14f baba 24f3 143b aaec fa3a 2db8 17ba
00000160: b892 033c c4c9 20bb 70f5 ac3a c5f4 86bb
00000170: 445a aeba aacc c53a 0ef7 7fbb 2346 0a3c
00000180: 22b1 abba 1408 1cba 9150 603a 5ce3 9b3b
00000190: efcb 2b3b bdeb 113c 28b1 cfba c7a2 90bb
000001a0: 323a 9dba 0eb5 a9b9 2405 e7bb f3e1 de3b
000001b0: 989b 0ebb 1f77 92bb d4ec 5a3a fc07 853a
000001c0: 3634 b739 feb5 23ba 7eb0 80ba 2f2c 9739
000001d0: 269d 00bb daaf e9b9 dffe c8bb 5e05 0b3c
000001e0: 48c6 8dba 6524 00ba cd9a ab3b 2080 fcba
000001f0: 7b67 da3a 6dbb 953b 0298 843c 8225 e43c
00000200: 4cc2 32bc 970f a6bc 3d6d ba39 d64e 713b
00000210: a11b 6bbc 112e 973c 73af 7db9 1deb 6439
00000220: d8de 353c 5c06 9a3c a713 2d3c 4192 b13c
00000230: e796 b4bb 0078 91bc 632c d239 9816 45ba
00000240: e99a 6abb 1c12 b83c 7c44 02ba 3210 303a
00000250: 6b53 1e3c ce4d 26bb 38d7 e23b 2466 28bb
00000260: e6a2 91ba b830 59bc bb8d 16ba e859 193b
00000270: 0630 9cbb e3ef af3c 0eff 21b9 ac94 303a
00000280: ae46 373b cbdf 463c 8502 d43b 8246 1a3c
00000290: 24e2 34bc 6f8d 58bc e357 28bb 2ef8 7fb9
000002a0: 878d a5bb e54e 8e3c 9aa6 36bb 8901 4b3b
000002b0: 801c db3a 23ec 0d3b 9898 b73b 8b11 95bb
000002c0: 4ecf 1bbc 0c86 00bc adac 5ebb 5dbb 7e3b
000002d0: 4f1b 23bc 6f51 bf3c e078 79bb c7db 113b
000002e0: 0912 973b bb9b eabb 47a4 f8bb 4695 ae3b
000002f0: 6a30 383c 2ec8 b43c 4ec5 2dbc 6bbc 93bc
00000300: 0953 b536 8f24 423b ae53 96bc cb61 453c
00000310: 4e09 a239 163e ee39 f214 523c 734e 073d
00000320: 1b41 273c c0d7 023d 4eb5 b6bb 6c77 9cbc
00000330: f91c 9eba 23c7 db3b 6df4 99bb 115c 623c
00000340: f839 dfba 20ef 893a e797 3b3c c941 0dbb
00000350: c01b 433c 579d c53a a429 a1bb 6cd3 88bc
00000360: 96c1 86b9 9dd3 ba3b 5270 06bb 74ab 673c
00000370: 5ba5 acb4 c97e 123b f969 0e3b ce9d 743c
00000380: 8a15 04bb 326e 9c3c 2648 82bc 6362 54bc
00000390: 0b89 48ba 3f85 0c3b 2fc7 0ebc 8772 a13c
000003a0: 8b19 9dba 1d60 bcbb 36d4 163a 697a 3fba
000003b0: f9f1 b23b 43f5 f83a e45e 3bbc 4574 aabc
000003c0: a5ea 04bb 9527 b53b 2cb4 09bc 1cb0 9a3c
000003d0: d36e caba 83c8 ffba 327f 843b 46a7 cebb
000003e0: 9b1c c6bb 62a0 debc 8ead 2ebc c3e0 04bd
000003f0: 0ce1 e4bb 2d0c 1e3c e01d 58b9 69bb cc39

sequential/dense_2/BiasAdd/ReadVariableOp f4 [2]
-0.08570392 0.08570396
00000000: 8985 afbd 8f85 af3d

sequential/dense_1/BiasAdd/ReadVariableOp f4 [10]
0.08569398 0.20119835 0.0530272 -0.03835602 -0.15210631 0.24036188 0.046425063 0.22709523
-0.17574245 0.02152186
00000000: 5380 af3d f106 4e3e 0d33 593d 341b 1dbd
00000010: c2c1 1bbe 6d21 763e 3528 3e3d a78b 683e
00000020: d4f5 33be 9d4e b03c

sequential/dense_1/MatMul f4 [10, 16]
-0.4842708 0.42229453 -0.058787894 0.46924964 0.029391242 -0.088543184 -0.46940425 -0.15914805
-0.21225591 -0.042969048 0.22058904 -0.3068698 -0.09420649 -0.28830495 -0.1490406 -0.14398912
0.25773475 -0.3080945 0.53750306 0.5306589 -0.51926124 -0.15019016 -0.14818099 0.10852898
-0.44398695 0.046670046 -0.08660456 -0.026096584 0.095401615 -0.06114545 -0.078314565 0.10583515
-0.40570027 -0.17497912 -0.20219384 -0.23969933 0.08677466 0.44023395 0.040528473 0.47348166
0.5663946 0.3889133 0.31502897 0.100527585 0.26075843 -0.34393921 0.22181675 0.26243466
-0.33464828 0.10351613 0.28799394 -0.38817707 0.26603714 0.42603737 0.28281978 0.3312655
0.62221575 0.58888984 0.15104155 0.23969422 0.25096262 0.35226673 0.49806976 0.43063647
0.051362272 0.5122993 0.08966358 -0.25611544 0.22724915 -0.30923963 0.34880653 0.3238445
-0.1792869 -0.018048206 0.48427668 -0.18210253 0.2974518 -0.041902035 -0.26368928 0.31781036
0.44062877 0.30621907 0.50908536 -0.06311194 -0.47391012 0.34074324 -0.26069134 -0.38746873
0.18511823 0.080230944 -0.23874828 -0.29647902 0.46959656 0.45699546 0.009509296 -0.3314089
-0.5479395 0.2402247 0.38461357 -0.15530162 -0.32379407 0.062491484 -0.5460713 -0.14471953
-0.5084454 -0.31693769 -0.16062024 -0.15987831 -0.19228248 0.072646506 -0.31857055 -0.11360501
0.19784935 0.2678968 0.0060943817 0.12273049 -0.4829176 -0.36459348 0.20104441 0.0560486
-0.18729228 -0.46790475 -0.53729445 -0.23285459 0.28585562 -0.45867842 -0.6020705 -0.4504736
0.019785516 0.029461317 0.078244574 -0.15069565 0.6033507 -0.03307846 0.17656198 -0.38361135
-0.04471266 -0.29939693 -0.05132844 0.2842097 0.40569952 0.02694402 0.7617086 -0.105361566
-0.09935186 -0.27912784 0.42635444 0.15971598 -0.11586465 -0.23038897 0.49359018 0.5390357
0.41676125 0.29572058 0.33775267 0.42284417 -0.38496956 -0.36756214 0.63745344 0.011576595
00000000: 58f2 f7be fd36 d83e 93cb 70bd 7d41 f03e
00000010: e7c5 f03c 2156 b5bd c155 f0be b5f7 22be
00000020: 9d59 59be 5000 30bd 18e2 613e 0a1e 9dbe
00000030: 55ef c0bd b59c 93be 199e 18be e271 13be
00000040: cff5 833e 90be 9dbe cd99 093f 43d9 073f
00000050: 4eee 04bf 73cb 19be c2bc 17be 7144 de3d
00000060: 4252 e3be 1729 3f3d bb5d b1bd 81c8 d5bc
00000070: ec61 c33d a773 7abd 6363 a0bd 19c0 d83d
00000080: f2b7 cfbe ba2d 33be e70b 4fbe be73 75be
00000090: eab6 b13d 5866 e13e 2f01 263d 306c f23e
000000a0: 3dff 103f a51f c73e 7a4b a13e 68e1 cd3d
000000b0: 2182 853e cd18 b0be ee23 633e d65d 863e
000000c0: 0557 abbe 4400 d43d f173 933e 25bf c6be
000000d0: 0536 883e 9221 da3e c1cd 903e a29b a93e
000000e0: 8849 1f3f 7cc1 163f a3aa 1a3e 6772 753e
000000f0: 2c7e 803e 4e5c b43e 0003 ff3e 627c dc3e
00000100: 3f61 523d 0c26 033f 8aa1 b73d 9021 83be
00000110: 00b4 683e a854 9ebe c596 b23e f2ce a53e
00000120: fc96 37be d5d9 93bc 1df3 f73e 1679 3abe
00000130: 9a4b 983e 78a1 2bbd 4802 87be 0ab8 a23e
00000140: 189a e13e bfc8 9c3e 6b53 023f d540 81bd
00000150: 59a4 f2be e675 ae3e 5679 85be 4d62 c6be
00000160: a28f 3d3e 1f50 a43d 6e7a 74be 19cc 97be
00000170: f66e f03e 4ffb e93e e1cc 1b3c 6dae a9be
00000180: c345 0cbf 77fd 753e 12ec c43e 6307 1fbe
00000190: 56c8 a5be 12f7 7f3d 54cb 0bbf 5b31 14be
000001a0: 7a29 02bf a845 a2be a279 24be 24b7 23be
000001b0: b3e5 44be b1c7 943d ae1b a3be bea9 e8bd
000001c0: 0599 4a3e c529 893e 61b3 c73b 205a fb3d
000001d0: fa40 f7be ffab babe 96de 4d3e 3793 653d
000001e0: 8cc9 3fbe 3691 efbe 218c 09bf 6f71 6ebe
000001f0: ab5b 923e e6d7 eabe 4b21 1abf 7aa4 e6be
00000200: 3c15 a23c dc58 f13c b13e a03d f64f 1abe
00000210: 3175 1a3f 477d 07bd aacc 343e b568 c4be
00000220: 9f24 37bd 8e4a 99be c53d 52bd ef83 913e
00000230: d9b7 cf3e b5b9 dc3c 56ff 423f cec7 d7bd
00000240: fd78 cbbd d8e9 8ebe 214b da3e 968c 233e
00000250: 724a edbd 16eb 6bbe dab7 fc3e 3efe 093f
00000260: bb61 d53e b068 973e ebed ac3e 087f d83e
00000270: bb1a c5be 1b31 bcbe 2630 233f c2ab 3d3c

sequential/dense_2/MatMul f4 [2, 10]
-0.33727795 0.023563446 -0.23710124 -0.096070975 0.0949558 -0.7213918 -0.6302267 -0.25037786
0.021157037 0.24496518 0.57996416 0.33178714 -0.86115575 -0.7519969 -0.5927925 0.49867654
0.5958808 0.53221697 -0.50582093 -0.7733581
00000000: b2af acbe 2108 c13c abca 72be dcc0 c4bd
00000010: 3078 c23d 22ad 38bf 8956 21bf 8731 80be
00000020: 8651 ad3c 27d8 7a3e 8878 143f 01e0 a93e
00000030: b474 5cbf de82 40bf 40c1 17bf 8852 ff3e
00000040: a58b 183f 5f3f 083f 7b7d 01bf ccfa 45bf
