Training/train_ckpt/model_best/711/NONE.tflite (tflite, 6928 bytes, 6 tensors)

sequential_47/re_lu_94/Relu;sequential_47/batch_normalization_47/batchnorm/add_1 f4 [16]
00000000: f745 853f 0561 c9bf 1c89 f0be 3fa3 893e
00000010: 0bf4 6abf 938d 8dbf 5ce3 1a3e 49b8 7abf
00000020: fbb0 03c0 f150 c1bf 1e2c 4fbf ae8c edbe
00000030: 7a52 b6bf 8aff 433f 7889 9cbe 10d4 fbbf
1.0411977 -1.5732733 -0.46979606 0.2688236 -0.9177863 -1.105883 0.15125793 -0.97937447
-2.057677 -1.5102826 -0.8092669 -0.46396393 -1.424392 0.76561797 -0.3057363 -1.9674091

sequential_47/batch_normalization_47/batchnorm/mul_1 f4 [16, 62]
00000000: d01b 37ba 8509 28bd f297 aa3b 9b92 4abd
00000010: a52a c7bd 6d27 0d3d cd3a 87ba 713c b839
00000020: 73bc 723d abe0 3dbc dc81 2bb7 d28b 783b
00000030: 0053 c5bb 19b3 bfbe 55e0 47bb d635 d3be
00000040: 0952 89bd bec9 b1bd 9df6 abba 8c88 3a3b
00000050: 2074 b13d 3772 05be e87c 6339 fc77 5f3a
00000060: a065 d3bc 52da a7be 9913 813c 7162 1dbd
00000070: 5bc1 95bd b74b 21bc 32d8 2f39 6b57 b8b8
00000080: 782d 083e e6ee ab3d 39df df39 9724 dc39
00000090: e087 83bc f0ae 663c c870 163c 0c23 ef3c
000000a0: a4f7 e5bd 6655 c2bc 9141 9db9 ab2f 643a
000000b0: 06f9 cb3d 95a2 933d 541b c6b8 4f79 9539
000000c0: 878d 0abc ffa6 ccbe 9b64 2ebb 3df8 b3be
000000d0: 23e6 bebd d01c 8ebd ee73 36b8 1192 af3a
000000e0: cec7 013e 0e0c 13be 26bc 523b 3b10 2ebb
000000f0: a28e abbd afb7 973d 99ea 4b3b c186 7c3b
00000100: 32fd 993b bdb1 3e3c 29b6 59bc 99df e2bb
00000110: f54d 68bb 0755 703b 7cf7 083d 482d c6bc
00000120: 7032 b03c 3b57 2f3b 9a80 6a3a 4e9a 46bd
00000130: e128 433a e4b6 46bd c941 bfbc 93da a0bb
00000140: fcd8 a7b9 8490 27ba 035e 193d 8c6d 8cbd
00000150: d254 b8b9 b150 333a 684f 8c38 ee50 1bbc
00000160: 4052 acbc 1bd9 10bd 4403 92bc cbbf df3c
00000170: 2032 4dba 6b30 f339 a85e c23b f189 d73b
00000180: 32a3 adb9 b49c 91ba 7d44 5dbb e1ab 4b3b
00000190: 9471 a2bc 5909 ffbc 4b3c 51bc 3325 473c
000001a0: ad0b 1eba 68d6 823a ffd1 38bc cb27 e73a
000001b0: 13eb 0ab7 d796 81b9 0634 353b 8060 acbc
000001c0: c329 253b 5376 83bc 3c10 e2bc b75a 883b
000001d0: c79f 38ba c78c e73a b0f7 1e3d 5c51 70bd
000001e0: 4ec0 4ab8 7400 6e3b 86b2 c6bc 7065 79bb
000001f0: 0e3c a9ba de69 573c 5255 7cbb ae49 3e3c
00000200: 9b76 51bc a9d5 89bc 65c2 333c e393 edba
00000210: 5c1e 2a3d e5d5 61bd b349 44ba 1bd5 ebba
00000220: adae 33b9 4b22 c1bc a70c b73a 1081 aabc
00000230: 2f12 acbc 0f1b 6ebb c947 0738 71e3 07b9
00000240: 9dce f53c 13dd 4fbd 4f7c 3837 737d e6b9
00000250: 1316 713b 1cd7 ca3c daa1 65bc 76b4 28bc
00000260: bb50 21bb e772 043c e84c 41ba f8c1 e9b8
00000270: e4fd 943c f03c a4bb 56a3 3eb9 6fcf 14bc
00000280: 8fbb 933a 68a3 153c 657e 2dbc faf0 a6bb
00000290: 5ae9 edbb 92bc b93b 5954 20ba 36c5 19ba
000002a0: 5bd7 ba3c 0447 12bc 6be0 6f38 1b05 50b9
000002b0: 878f 443a d392 f6bb 1046 d33a d077 3f39
000002c0: cb30 87bc 5132 2a38 3d1c 5a39 45ee 193a
000002d0: e854 e73c 42ee 2dbd 3954 2f38 f07c 5d3a
000002e0: 2738 d0bc ca64 50ba e58c 1f3b afe5 2dbd
000002f0: 1439 9f3b ac35 85bd 34d2 d0bc fde7 313d
00000300: d337 2eb9 38dc eb3b dd32 b5bc 17cc 8b3d
00000310: 4916 acb9 396e d1ba 87f0 45bc 5bbb b0be
00000320: 6ac8 25bc b0f2 a0be c18a 943c f948 ff3c
00000330: 187e f4ba 5086 a43b 4e8e 113d f973 b5bd
00000340: e4bd 96ba 0719 8a3b ddeb 63bb 2f09 2fbe
00000350: a71b 99bc c076 b5bd fd6d 02bb b74e 8b3d
00000360: 6737 af39 29fe 31ba b504 933c 84ff a13d
00000370: 0edb aeb9 2183 293a c698 e93a c5eb bc3c
00000380: 731f 1ebc 8f7a 9bbc ab62 063b 5e11 b93c
00000390: 6940 ee39 0232 903a c856 de3c 935b 103d
000003a0: 97be 34b9 427c a23a 27d9 3abc d1f7 a7be
000003b0: 1872 0bbc 65b4 a1be 9739 a9bb aace 323a
000003c0: 575a de3b 57ff 6abb b4ac ba3c 8f60 b9bd
000003d0: 0de1 a637 f41e adba 8f35 9dbc 2d8e 7d3d
000003e0: d29f 2f3c bcb0 e7bb d43e c3ba 3310 4bbb
000003f0: eb14 29bd e940 00bd f49e bcba d520 6a3c
-0.00069850404 -0.041024704 0.0052061016 -0.04945622 -0.09724931 0.034461427 -0.0010317207 0.00035140247
0.05926175 -0.01158921 -1.02226295e-05 0.0037925136 -0.0060218573 -0.37441328 -0.0030498703 -0.4125201
-0.067051 -0.086810574 -0.0013119761 0.0028462736 0.08664727 -0.13031851 0.00021694938 0.0008524654
-0.025805295 -0.32783753 0.015756415 -0.03842396 -0.0731227 -0.009844712 0.0001676984 -8.7900866e-05
0.13298595 0.08395176 0.00042700188 0.00041988931 -0.016056001 0.014079794 0.009182163 0.029191516
-0.11228874 -0.023722362 -0.00029994224 0.0008704613 0.09959607 0.072087444 -9.446466e-05 0.00028509877
-0.008456594 -0.39971158 -0.0026610259 -0.35150328 -0.09321239 -0.06939089 -4.350015e-05 0.0013394972
0.12673876 -0.14360067 0.0032155602 -0.0026559967 -0.083768144 0.07408082 0.0031115173 0.0038532468
0.0046993727 0.011639056 -0.013288059 -0.0069236276 -0.0035446857 0.0036671774 0.033439144 -0.024191514
0.021508425 0.0026754874 0.0008945555 -0.048487 0.0007444751 -0.04851426 -0.023346798 -0.0049088686
-0.00032014388 -0.0006392079 0.037443172 -0.06856832 -0.0003515841 0.0006840332 6.690511e-05 -0.009479744
-0.021035314 -0.035363298 -0.017823823 0.027313134 -0.00078275986 0.00046384646 0.005931694 0.006577723
-0.0003311872 -0.0011109323 -0.0033762746 0.003107779 -0.019829549 -0.031132387 -0.012770723 0.012154865
-0.00060289615 0.0009982111 -0.011280536 0.0017635761 -8.2801735e-06 -0.00024717182 0.0027649417 -0.021042109
0.0025201894 -0.016047632 -0.027595632 0.0041612047 -0.00070428516 0.0017665856 0.038810432 -0.05867134
-4.833965e-05 0.0036316188 -0.024255048 -0.0038054846 -0.0012911574 0.013147799 -0.0038503003 0.011614246
-0.012784625 -0.016825514 0.01097164 -0.0018125739 0.04153286 -0.055135626 -0.00074877887 -0.0017992588
-0.00017135842 -0.023575922 0.0013965563 -0.020813495 -0.021004764 -0.0036332046 3.2253363e-05 -0.00012959332
0.030005747 -0.050747942 1.09961975e-05 -0.00043962486 0.003678684 0.024760775 -0.014015639 -0.0102969315
-0.002461477 0.0080840355 -0.00073738256 -0.00011146435 0.01818747 -0.005012147 -0.0001818066 -0.009082659
0.0011271107 0.009133197 -0.010589217 -0.0050946446 -0.0072604837 0.0056682313 -0.00061160844 -0.00058658735
0.022807768 -0.008928064 5.7191046e-05 -0.00019838328 0.0007498194 -0.007524827 0.0016118903 0.00018259813
-0.016502758 4.057802e-05 0.0002080062 0.0005871992 0.028238729 -0.04246355 4.180169e-05 0.0008449098
-0.0254174 -0.0007949589 0.0024345454 -0.04245537 0.004859099 -0.06504378 -0.025490858 0.043434132
-0.00016614729 0.007197883 -0.02211898 0.068260364 -0.00032823 -0.0015978283 -0.012081272 -0.3451794
-0.010118583 -0.31435156 0.01813257 0.031162726 -0.0018653302 0.005020894 0.035536103 -0.08860011
-0.0011500684 0.0042144093 -0.0034778037 -0.17093347 -0.018689943 -0.088605404 -0.0019901984 0.06802123
0.0003341988 -0.0006789887 0.01794658 0.07910064 -0.00033351075 0.0006466378 0.0017822019 0.023061642
-0.009651053 -0.018979339 0.0020505588 0.02259129 0.00045442887 0.0011001232 0.02714099 0.035243582
-0.00017237138 0.0012396651 -0.011404312 -0.32806256 -0.008511089 -0.31582943 -0.005164336 0.00068209565
0.0067856717 -0.003585776 0.02278743 -0.0905162 1.989354e-05 -0.0013208077 -0.019190578 0.061903168
0.0107192565 -0.007070629 -0.0014896044 -0.0030984997 -0.041279715 -0.031311903 -0.0014390633 0.014290054

sequential_47/dense_143/BiasAdd/ReadVariableOp f4 [2]
00000000: 9580 36be 9780 363e
-0.17822488 0.1782249

sequential_47/dense_142/BiasAdd/ReadVariableOp f4 [6]
00000000: 30c7 ea3c 34a7 823e 06ba ec3e adeb 573e
00000010: 3b9b c03e c4b9 2d3d
0.028659433 0.2551819 0.46235675 0.21085997 0.3761843 0.042413488

sequential_47/dense_142/MatMul f4 [6, 16]
00000000: 94ad 393f 66c9 4f3f fae4 b63e 089e 423f
00000010: 91ed 683d 8d78 ce3d 004a fc3e 80a7 233f
00000020: 9a0d 2a3e 5040 ba3d b2f5 3e3f 8bb4 b5bd
00000030: 477a 173f 8c9a 24bf 2800 193f bf1c bdbe
00000040: eade ac3d 84d8 f3be ad15 63bf 8abe c4be
00000050: ecd0 7fbd afcd 80bf f702 e03c 2ad1 973d
00000060: 08b3 a53e 296c 6cbe 7287 cabe 14ed 1f3e
00000070: ea51 cebe bbb6 873e 1aa2 ac3e 0f92 11bf
00000080: 4f0e 1bbf 6afa 58be 7ddf cfbe de78 dfbe
00000090: f7db 223f 763b cbbe 157a 453e 20cc 14bf
000000a0: 0bde 013e 9395 21bf 9493 95be 345f 143e
000000b0: c730 e1be 562a b8be ea4e d63e 8421 38bf
000000c0: 4535 58be 1755 d6be 5b73 1a3e d875 afbe
000000d0: ee6c 4f3e 78b0 863e e8da b63e 5969 9f3e
000000e0: f38d 163b 022d bc3d 3c69 24bd 4a83 213f
000000f0: d392 a1bd fa6c 203e 2ac9 48bf 730c 3b3e
00000100: f0fd c1bd 3bb1 9bbe 164b d4be 3e39 51be
00000110: bfdf 0abe fa63 f1bd 102a 063f 508f 3fbe
00000120: 830d 253f 4862 22bd 621a 78be cee6 1f3f
00000130: 8d8c 10be 1210 cebd 3c6c fc3c 176d 11be
00000140: adf6 ca3e c742 1fbf a021 98be 869b 59bd
00000150: ed90 f53d 9204 52be a464 383e 42b3 193f
00000160: 4787 343e 89a6 273f e009 273e d974 0cbd
00000170: 3858 8e3e d5ec cabe 0cb4 77bd cdd1 23bd
0.72530484 0.81166685 0.3572157 0.76022387 0.056867186 0.10081587 0.49275208 0.6392746
0.16606751 0.09094298 0.7459365 -0.088723265 0.59170955 -0.6429832 0.59765863 -0.36935994
0.08440955 -0.47626126 -0.8870495 -0.3842662 -0.062455103 -1.006277 0.027345164 0.07412942
0.32363153 -0.23088135 -0.39556462 0.15617782 -0.4029687 0.265066 0.33717424 -0.5686349
-0.6056871 -0.21189275 -0.40600196 -0.43646902 0.6361689 -0.39693803 0.19284852 -0.5812397
0.12682359 -0.6311886 -0.29214156 0.14489442 -0.43982527 -0.359698 0.41857082 -0.7192614
-0.2111407 -0.41861793 0.15083067 -0.34269595 0.20256397 0.2630651 0.35713887 0.3113506
0.0022972792 0.09188272 -0.04013942 0.63090956 -0.078893326 0.15666571 -0.7843195 0.18266468
-0.09472263 -0.30408654 -0.41463536 -0.20431992 -0.13561915 -0.11786647 0.5240793 -0.18707013
0.6447374 -0.03964451 -0.24228814 0.62461555 -0.14116116 -0.10061659 0.030813329 -0.1420177
0.39641324 -0.6221127 -0.29713154 -0.053126834 0.11990533 -0.20509556 0.18007141 0.6003915
0.17629729 0.6548849 0.16312361 -0.034291122 0.2780168 -0.39633814 -0.06047444 -0.039995003

sequential_47/dense_143/MatMul f4 [2, 6]
00000000: 783f 183f 56f8 173f ecaa 16bf bbc2 6cbf
00000010: b1e8 2fbf 25b1 f03e 798a 73bf 2449 903f
00000020: 7c6d 903f bedd 21bf 9c4f 363f 19ff 35bf
0.59471846 0.59363306 -0.58854556 -0.92484635 -0.68714434 0.4701015 -0.9513317 1.1272321
1.1283412 -0.63228977 0.71215224 -0.71092373
