Training/train_ckpt/5featuresV3onlytrain/2/9_13_model_features_2023-09-24-15:58:06.394198.tflite (tflite, 5232 bytes, 6 tensors)

sequential/re_lu/Relu;sequential/batch_normalization/batchnorm/add_1 f4 [9]
0	0xbf8cfba0	-1.101429
1	0xc016aa79	-2.3541548
2	0xc02e4c7c	-2.7234182
3	0xbc9aefae	-0.018913116
4	0xbfa76ad6	-1.3079479
5	0xbf5a3ca1	-0.8524876
6	0xbf351a28	-0.70743036
7	0xbf3abd2d	-0.7294491
8	0xc012fecf	-2.2968023

sequential/batch_normalization/batchnorm/mul_1 f4 [9, 62]
0	0xbcebe7aa	-0.02879699
1	0xbd2a5ca7	-0.041592266
2	0x3ca9b261	0.02071494
3	0x3dae0665	0.084973134
4	0xbd65c24c	-0.0560935
5	0xbd3aee42	-0.045637377
6	0xbafbf192	-0.0019221774
7	0x39d7be25	0.00041149664
8	0xbd25f63c	-0.04051803
9	0x3bb3c0b9	0.005485621
10	0xbad5dda9	-0.001631667
11	0xbb558684	-0.0032581398
12	0x3c1fa087	0.009742863
13	0xbc8728e2	-0.016498987
14	0x3be322a6	0.0069316206
15	0xbcc3c230	-0.023896307
16	0xbd27959c	-0.040914163
17	0xbd60a5d4	-0.054845646
18	0xb7f521f8	-2.9222094e-05
19	0x3b25ca08	0.0025297422
20	0xbb8037be	-0.003912895
21	0x3d267da6	0.04064717
22	0xb98b0bd0	-0.00026520947
23	0xb9b212d6	-0.0003396484
24	0x3cd2827b	0.025696984
25	0x3d1eb0ed	0.03874295
26	0x3ce2e160	0.027695358
27	0x3d1e04d0	0.03857881
28	0xbcfb094f	-0.030644087
29	0xbd5443cd	-0.051822472
30	0xbac5f5c1	-0.0015103148
31	0xb7bc5b33	-2.2453814e-05
32	0xbbee5a00	-0.0072739124
33	0x3d11dce0	0.035611033
34	0xbade386d	-0.0016954072
35	0x3bf1b6c5	0.007376524
36	0x3ba41199	0.0050069806
37	0x3d0534b0	0.03252095
38	0x3c022536	0.007943442
39	0x3d3306e7	0.043707754
40	0xbd1dea05	-0.038553257
41	0xbd49d0e3	-0.049271476
42	0xbab9ebd0	-0.0014184657
43	0x3bd5ffe4	0.0065307487
44	0xbc1ab244	-0.009441916
45	0x3d31d2aa	0.043413796
46	0xbac60eb5	-0.0015110584
47	0xbab5cf56	-0.0013870995
48	0x3cc4441c	0.023958258
49	0x3d347797	0.044059362
50	0x3c72827c	0.014801618
51	0x3cd94026	0.026519846
52	0xbd0e6a8f	-0.03476959
53	0xbd5458d6	-0.051842533
54	0xba76928c	-0.00094059925
55	0x3b2e218c	0.0026570288
56	0xba578418	-0.00082212826
57	0x3d229ec8	0.039702207
58	0xb9ae2801	-0.0003321767
59	0x3b5e48c3	0.003391788
60	0xbc0af1dd	-0.008480516
61	0xbca876c6	-0.020564448
62	0xbbc73220	-0.0060789734
63	0xbbe165bd	-0.006878583
64	0xbc8f9e24	-0.017531462
65	0xbd20d8be	-0.0392692
66	0xbc47ca34	-0.012194205
67	0x3ccdab8e	0.025106218
68	0x398dc2fc	0.0002703889
69	0x3abbf01e	0.0014338528
70	0x3cb9ee7e	0.02269673
71	0xbc08d335	-0.008351137
72	0xb9ff701a	-0.00048720912
73	0xbb24cf0d	-0.0025147826
74	0xbaa274fb	-0.0012394482
75	0xbd55efe9	-0.05223075
76	0x3b06e885	0.002058537
77	0xbd5a4aa1	-0.053293828
78	0xbb3f88dc	-0.0029225862
79	0x3c25e581	0.010125519
80	0x3cc20607	0.023684515
81	0x3b9b4a85	0.004739108
82	0x3ca8919b	0.020577243
83	0xbba12976	-0.0049182726
84	0xbb0e8621	-0.0021747428
85	0x3b9641ed	0.0045854957
86	0xbbc0c080	-0.005882323
87	0xbd859eda	-0.06524439
88	0xbb596017	-0.0033168846
89	0xbd8f0658	-0.06983632
90	0xbc600e62	-0.013675304
91	0x3c06afdd	0.00822064
92	0xb9737239	-0.00023216837
93	0xba6d651e	-0.00090559
94	0x3cfe9ace	0.031079676
95	0xbd5ae9ba	-0.053445555
96	0xb9b37bb4	-0.00034233707
97	0x3a808364	0.0009804782
98	0x3bb3979d	0.00548072
99	0xbc1b3251	-0.009472446
100	0x3bb0b5df	0.0053927745
101	0xbc986276	-0.018601637
102	0xbc176c43	-0.00924212
103	0x3bb05fc6	0.005382511
104	0x3aa0a7a4	0.0012256992
105	0xba339951	-0.0006851154
106	0x3cadcce6	0.021215867
107	0xbb244740	-0.0025066882
108	0x3aa868d6	0.0012848626
109	0xba8bd85d	-0.001066934
110	0xbbb5951e	-0.005541458
111	0xbd85abee	-0.065269336
112	0xba99da59	-0.0011738046
113	0xbd687d2d	-0.056760002
114	0xbc83be8a	-0.016082067
115	0x3c49e48a	0.012322554
116	0x3a08c8a4	0.0005217886
117	0x3b2abfba	0.002605422
118	0x3d1f948d	0.03896003
119	0xbd00cec4	-0.031447187
120	0x3984a71f	0.00025301517
121	0x3b78025a	0.0037843199
122	0xbcd6cfcc	-0.026222132
123	0x3c58d6a1	0.013234765
124	0xbcce517e	-0.025185343
125	0x3b23d972	0.0025001434
126	0xbc0fb00a	-0.008769998
127	0x3c621612	0.013799207
128	0xbc972d24	-0.018454142
129	0xbace8986	-0.0015757538
130	0x3aae2f6d	0.001328928
131	0x3a7a4c1f	0.0009548086
132	0x3ceb914f	0.028755812
133	0x3be8cd7b	0.0071045733
134	0x3a488869	0.0007649721
135	0x3af10dee	0.0018390992
136	0x3b55da13	0.0032631203
137	0xbe013d56	-0.12621054
138	0x3c3b0193	0.01141395
139	0xbde40626	-0.11133985
140	0x3a3bcdee	0.000716417
141	0x3d009c93	0.03139932
142	0xb796105d	-1.7889013e-05
143	0x3b64fdfb	0.0034941423
144	0x3bc35758	0.00596134
145	0x3cc1e42f	0.023668377
146	0x3a1b653b	0.0005927865
147	0x3bb5953a	0.005541471
148	0xbc538da7	-0.0129121905
149	0xbe33ef82	-0.17571834
150	0xbbaeea12	-0.005337962
151	0xbe3ac0ed	-0.18237658
152	0xbc11c5ff	-0.008897304
153	0xbc32741a	-0.010891939
154	0x3c99bd9e	0.018767174
155	0xbbe1e464	-0.0068936814
156	0x3ccf9bfd	0.025342936
157	0xbd6ba94e	-0.05753451
158	0xb9491b6a	-0.00019179066
159	0x3b346944	0.0027528564
160	0x3bc593a7	0.0060295644
161	0x3d3df456	0.046375595
162	0x3c3893f1	0.011265741
163	0x3cff0eac	0.031134926
164	0xbbacebca	-0.0052771317
165	0x3d079f50	0.033110917
166	0x38964b4b	7.166582e-05
167	0x3b49e597	0.0030807012
168	0x3ba52843	0.0050402
169	0x3c8bf13e	0.017082807
170	0xba14ec2a	-0.0005680943
171	0xb829b04a	-4.0456922e-05
172	0xbc1eee27	-0.009700335
173	0xbe2943e3	-0.16529803
174	0xbb382cc8	-0.0028102864
175	0xbe33aeaf	-0.17547105
176	0xbcce5a15	-0.025189439
177	0xbc3bbc46	-0.011458462
178	0x3a157e67	0.00057027343
179	0xb95e36d9	-0.00021192002
180	0x3d09ff2b	0.033690613
181	0xbcdd1be0	-0.02699083
182	0x3a506631	0.0007949798
183	0xbadbd1e6	-0.0016770929
184	0xbc9cc811	-0.019138368
185	0x3cae0710	0.021243602
186	0xbd318e9c	-0.043348894
187	0xbd173da3	-0.036924016
188	0xbb075cc0	-0.0020654649
189	0xba848fc6	-0.0010113649
190	0xbd13ec99	-0.03611431
191	0xbc896a8e	-0.016774442
192	0x39c9b8a8	0.00038475287
193	0x39346284	0.00017202838
194	0x3d4f0a25	0.050546784
195	0x3cd8fa3d	0.02648651
196	0xb99e9cef	-0.00030253033
197	0xb9cdfdc1	-0.00039289708
198	0x3c2e0231	0.01062064
199	0xbe2b8a0e	-0.16751882
200	0xba7e8e37	-0.0009710523
201	0xbe3ee7a4	-0.18643051
202	0xbc7c8474	-0.015412439
203	0x3cc7e1b8	0.024399623
204	0xb9e7cb4b	-0.00044211218
205	0x3c2641fc	0.010147568
206	0x3d07a6b3	0.03311796
207	0x3d031bd1	0.03200895
208	0x3898f15d	7.292882e-05
209	0x3bf0e29b	0.007351232
210	0xbcc69851	-0.024242552
211	0xbea1efd7	-0.31628296
212	0xbcb9bd18	-0.022673175
213	0xbeab4245	-0.33448997
214	0xbc985888	-0.018596902
215	0xbc9d9730	-0.01923713
216	0xbaebd320	-0.0017991997
217	0x3b5deb31	0.0033862109
218	0x3d3bf7f1	0.045890752
219	0xbdbb0259	-0.09131307
220	0xb968287b	-0.00022140324
221	0xbb85c30f	-0.0040820907
222	0x3c344ad2	0.011004167
223	0x3d72b95e	0.05925881
224	0x3c18ef64	0.009334419
225	0x3cb1fbad	0.021726454
226	0xbb444e0b	-0.0029953744
227	0x3cb33c41	0.021879317
228	0x3c578756	0.013154825
229	0x3c074f86	0.008258706
230	0x3cb8fde4	0.022582002
231	0x3b225dd9	0.0024775176
232	0xbb1354a5	-0.0022480872
233	0x3b8dc3e1	0.004326329
234	0xbc99e199	-0.018784331
235	0xbea637f4	-0.32464564
236	0xbca2cbc9	-0.019872563
237	0xbea11bb5	-0.3146645
238	0xbd0538c1	-0.032524828
239	0x399c67cf	0.00029831982
240	0x3ab93dc0	0.0014132783
241	0xb9c23844	-0.00037044485
242	0x3d4550e2	0.04817284
243	0xbc9dc4a8	-0.019258812
244	0x3a175884	0.0005773383
245	0xbb3ea4a9	-0.0029089844
246	0xbd328e81	-0.043592934
247	0x3d0d11c9	0.03444079
248	0xbd0580c9	-0.032593522
249	0xbcc91ee4	-0.024550863
250	0x3c3d427b	0.011551495
251	0xbcacfb8d	-0.021116043
252	0xbc968935	-0.018375972
253	0xba5ab086	-0.0008342344
254	0x3a02362f	0.00049671804
255	0x3ad375d5	0.0016133139

sequential/dense_2/BiasAdd/ReadVariableOp f4 [2]
0	0xbe911926	-0.283395
1	0x3e911924	0.28339493

sequential/dense_1/BiasAdd/ReadVariableOp f4 [13]
0	0x3e490858	0.19632089
1	0xbd140ac8	-0.036143094
2	0xbe61971d	-0.22030301
3	0x3e8119bf	0.25214955
4	0xbf02734a	-0.5095717
5	0x3e706ebb	0.2347974
6	0xbef5d1df	-0.4801168
7	0xbe469fd7	-0.19396912
8	0xbda544c3	-0.08069756
9	0xbe70e885	-0.23526199
10	0x3c6e4074	0.014541734
11	0xbef17c6e	-0.47165245
12	0xbd3218b6	-0.043480597

sequential/dense_1/MatMul f4 [13, 9]
0	0x3eb99386	0.36245364
1	0xbf1bb417	-0.6082167
2	0xbfd95c1d	-1.6981236
3	0xc0009578	-2.0091228
4	0xbfe5b2ba	-1.7945168
5	0xbf46b375	-0.7761758
6	0x3f00dcf3	0.5033714
7	0x3e04f757	0.12984978
8	0xc00b4a5f	-2.1764143
9	0xbf6581ae	-0.89651
10	0xbee6a12a	-0.45044833
11	0xbf27d50b	-0.6555945
12	0xbf25647a	-0.6460644
13	0xbf08f8c1	-0.5350457
14	0xbed82986	-0.4221918
15	0x3f463981	0.77431494
16	0xbf051ece	-0.5200013
17	0xbfc4bfde	-1.5371053
18	0xbe758557	-0.23976646
19	0xbf8d8e8c	-1.1059127
20	0xbf8c84bd	-1.0978009
21	0x3f8a9f18	1.0829802
22	0xbcc7f7c2	-0.024410132
23	0xbe6ce51b	-0.23134272
24	0x3d0ad19e	0.033891313
25	0xbdf3d721	-0.11906267
26	0xbf05023c	-0.51956534
27	0x3e9eee48	0.3104117
28	0xbf87c349	-1.0606471
29	0xbf3c58ff	-0.735733
30	0xbfa19505	-1.2623602
31	0xbfaba3a1	-1.340931
32	0xbe8558ec	-0.26044405
33	0x3e58319f	0.21112679
34	0x3c879da6	0.016554665
35	0xbf29af74	-0.66283345
36	0xbf7b4f71	-0.9816809
37	0xbf2a3ef1	-0.6650229
38	0x3f9b4a7d	1.2132107
39	0xbc938de3	-0.018011993
40	0xbe90df67	-0.28295442
41	0x3f3eb81f	0.74499696
42	0xbf4f2a16	-0.80923593
43	0xbe806200	-0.25074768
44	0xbf0215f2	-0.50814736
45	0x3f0d05c8	0.55086946
46	0xbefdd6dc	-0.49577987
47	0xbef51de6	-0.47874373
48	0xbefe4a13	-0.4966589
49	0xbdb2d0b2	-0.08731212
50	0xbdba64a4	-0.09101227
51	0xbfae0b05	-1.3597113
52	0x3f973e90	1.1815968
53	0xbf2b5d31	-0.66939074
54	0xbf828307	-1.0196236
55	0x3f31d7f8	0.6947017
56	0x3e5a293c	0.21304792
57	0xbfb8edd8	-1.4447584
58	0xbe3aaa95	-0.18229134
59	0xbea36214	-0.31910765
60	0xbfe1847b	-1.7618555
61	0xbf219c48	-0.6312909
62	0x3f26baf6	0.6512903
63	0xbf39d75a	-0.72594225
64	0xbf107278	-0.56424665
65	0xbf3264be	-0.6968497
66	0xbf908b8a	-1.1292584
67	0x3f93eee6	1.1557281
68	0xbe8e7d4a	-0.27829963
69	0xbf3765f5	-0.7163995
70	0xbe2fe737	-0.17178045
71	0x3ec6315c	0.38709533
72	0xbf3bcd78	-0.73360395
73	0x3ef05a9f	0.46944138
74	0x3f0e24d8	0.5552497
75	0x3f4c599a	0.7982422
76	0x3f0679e3	0.52529734
77	0x3f9b1071	1.2114393
78	0xbefd23ed	-0.49441472
79	0xbf0a5c98	-0.54047537
80	0x3f313fcd	0.6923798
81	0xbfa91b83	-1.3211521
82	0x3ed624ec	0.41825044
83	0xbfc68d73	-1.5511917
84	0x3f34e756	0.7066549
85	0xbe85346a	-0.2601655
86	0xbf559b27	-0.8343987
87	0xbf374411	-0.71588236
88	0xbe6b765c	-0.2299437
89	0x3f1ce99b	0.61293954
90	0x3f380b65	0.71892387
91	0xbf31f097	-0.69507736
92	0xbfff4240	-1.9942093
93	0xbf47ceb5	-0.78049785
94	0xbfdb1623	-1.711613
95	0x3e89bfed	0.2690424
96	0xbe8c457d	-0.27396765
97	0xbf1aed7a	-0.6051861
98	0xbf6c3e60	-0.92282677
99	0x3e8a3127	0.26990625
100	0x3cb68a75	0.022282818
101	0xbea9bcf6	-0.33151978
102	0xbec2e431	-0.3806472
103	0xbe8596df	-0.26091668
104	0xbd7a9699	-0.061178777
105	0xbd9e799b	-0.07738038
106	0xbe897f73	-0.2685505
107	0xbed7b9c2	-0.4213391
108	0xbc727c5b	-0.0148001565
109	0xbf691f04	-0.9106295
110	0xbf146242	-0.5796243
111	0xbfd9b416	-1.7008083
112	0xbf8a7aaf	-1.081869
113	0xbe490b2c	-0.19633168
114	0x3d8fcd33	0.070215605
115	0x3d075013	0.03303535
116	0xbf4341fd	-0.76272565

sequential/dense_2/MatMul f4 [2, 13]
0	0xbf367a13	-0.7128002
1	0xbefd4cbd	-0.4947261
2	0x3e4cb749	0.19991793
3	0xbf0c820d	-0.5488594
4	0x3f3ad0d7	0.72974914
5	0xbf10b20a	-0.56521666
6	0x3f022605	0.50839263
7	0x3f196d8f	0.599328
8	0x3ed79dd8	0.42112613
9	0x3e9ccf81	0.30627063
10	0xbf4ed7d5	-0.80798084
11	0xbdc2b338	-0.095068395
12	0xbf05b72d	-0.5223263
13	0x3f4697e8	0.7757554
14	0x3f26290d	0.6490639
15	0xbeb402fc	-0.35158527
16	0x3df0023c	0.11719176
17	0xbe1b94df	-0.15193509
18	0x3ec677e1	0.38763335
19	0xbf01fd51	-0.50777155
20	0xbeb64269	-0.35597542
21	0xbf314ac4	-0.6925471
22	0xbf12da55	-0.573644
23	0x3f0b27e0	0.5435772
24	0xbcc67b87	-0.024228824
25	0xbef01e2f	-0.46898028
