Training/train_ckpt/no_reject/382/INT8.tflite (tflite, 4816 bytes, 3 tensors)

sequential_25/quant_dense_76/MatMul;sequential_25/quant_dense_76/LastValueQuant/FakeQuantWithMinMaxVars i1 [6, 16] scale=0.005841864 zero_point=0
00000000: 1ee7 45fb f823 39f4 15ea 20df d42c c9d7
00000010: b3c9 c2d7 174e 03b4 4c27 fc31 411a d6fb
00000020: d6e2 fc17 3221 dd17 326a 37f2 d5f5 4a42
00000030: 4c3b ba07 15b7 f2c1 cb1f b608 2301 81c4
00000040: db83 f2f1 e44e 4872 2201 e8ca becb ef09
00000050: 6e32 2ae0 fd3a 2e13 c9f9 6ece d66b 1bfd
0.17525591 -0.1460466 0.4030886 -0.02920932 -0.04673491 0.20446524 0.33298624 -0.070102364
0.12267914 -0.12852101 0.18693964 -0.19278151 -0.25704202 0.25704202 -0.3213025 -0.23951642
-0.4498235 -0.3213025 -0.36219555 -0.23951642 0.13436286 0.45566538 0.017525591 -0.44398165
0.44398165 0.22783269 -0.023367455 0.28625134 0.37972113 0.15188846 -0.24535827 -0.02920932
-0.24535827 -0.17525591 -0.023367455 0.13436286 0.2920932 0.19278151 -0.20446524 0.13436286
0.2920932 0.61923754 0.3213025 -0.081786096 -0.25120014 -0.064260505 0.43229792 0.38556302
0.44398165 0.34466997 -0.40893048 0.040893048 0.12267914 -0.42645606 -0.081786096 -0.36803743
-0.30961877 0.18109778 -0.43229792 0.04673491 0.20446524 0.005841864 -0.7419167 -0.35051182
-0.21614896 -0.73023295 -0.081786096 -0.087627955 -0.16357219 0.45566538 0.42061418 0.6659725
0.19862337 0.005841864 -0.14020473 -0.31546065 -0.38556302 -0.30961877 -0.09931169 0.052576773
0.642605 0.2920932 0.24535827 -0.18693964 -0.017525591 0.3388281 0.26872572 0.11099541
-0.3213025 -0.040893048 0.642605 -0.2920932 -0.24535827 0.62507945 0.15773033 -0.017525591

sequential_25/quant_dense_75/MatMul;sequential_25/quant_dense_75/LastValueQuant/FakeQuantWithMinMaxVars i1 [16, 62] scale=0.024569377 zero_point=0
00000000: 06df 07e8 e3ed 010a 21ea 0104 e781 ea92
00000010: e5ee 0403 21da 0300 f0ca 02ec edf8 0000
00000020: 150b 0001 ebf5 fdff f901 0000 11fd 0000
00000030: e595 ec91 f6f0 ff00 23ee ff02 ee10 fee9
00000040: 04dc ecf8 fe04 2dd5 05fd e2a2 df97 e400
00000050: f705 18e3 0104 fbe0 ebe2 f50b feff 1c08
00000060: fefe f0f7 eaf5 ee0d ff00 0f02 fe00 e1a2
00000070: e1b0 f1ff 06fc 1ae3 06fe e902 ff02 ff00
00000080: f9f8 fcf5 00f9 f7f7 0201 f4fb 0503 01fd
00000090: 04ff f602 fdf5 0203 fa05 0204 fc00 fffe
000000a0: fbfe 02ff f1f0 f4f9 0bf4 fa06 fbfa 0200
000000b0: faf6 f503 07f9 f6f5 fa07 050a f513 04fc
000000c0: fa08 070d fd01 1047 1451 01f2 feee faf2
000000d0: fee5 080d fcfa fdf4 ff04 ffd8 00ff 0600
000000e0: fef1 f700 0200 fdf3 0102 0b4d 164e f600
000000f0: fef1 0afb fefb 0604 0302 0403 03ff fa09
0.14741626 -0.81078947 0.17198564 -0.58966506 -0.71251196 -0.46681815 0.024569377 0.24569377
0.81078947 -0.5405263 0.024569377 0.09827751 -0.61423445 -3.120311 -0.5405263 -2.7026315
-0.6633732 -0.4422488 0.09827751 0.07370813 0.81078947 -0.9336363 0.07370813 0.0
-0.39311004 -1.3267463 0.049138755 -0.49138755 -0.46681815 -0.19655502 0.0 0.0
0.51595694 0.27026314 0.0 0.024569377 -0.51595694 -0.27026314 -0.07370813 -0.024569377
-0.17198564 0.024569377 0.0 0.0 0.41767943 -0.07370813 0.0 0.0
-0.6633732 -2.6289234 -0.49138755 -2.727201 -0.24569377 -0.39311004 -0.024569377 0.0
0.8599282 -0.4422488 -0.024569377 0.049138755 -0.4422488 0.39311004 -0.049138755 -0.56509566
0.09827751 -0.8844976 -0.49138755 -0.19655502 -0.049138755 0.09827751 1.1056219 -1.0564833
0.12284689 -0.07370813 -0.7370813 -2.3095214 -0.81078947 -2.5797846 -0.68794256 0.0
-0.2211244 0.12284689 0.58966506 -0.71251196 0.024569377 0.09827751 -0.12284689 -0.7862201
-0.51595694 -0.7370813 -0.27026314 0.27026314 -0.049138755 -0.024569377 0.68794256 0.19655502
-0.049138755 -0.049138755 -0.39311004 -0.2211244 -0.5405263 -0.27026314 -0.4422488 0.31940192
-0.024569377 0.0 0.36854064 0.049138755 -0.049138755 0.0 -0.7616507 -2.3095214
-0.7616507 -1.9655502 -0.36854064 -0.024569377 0.14741626 -0.09827751 0.63880384 -0.71251196
0.14741626 -0.049138755 -0.56509566 0.049138755 -0.024569377 0.049138755 -0.024569377 0.0
-0.17198564 -0.19655502 -0.09827751 -0.27026314 0.0 -0.17198564 -0.2211244 -0.2211244
0.049138755 0.024569377 -0.29483253 -0.12284689 0.12284689 0.07370813 0.024569377 -0.07370813
0.09827751 -0.024569377 -0.24569377 0.049138755 -0.07370813 -0.27026314 0.049138755 0.07370813
-0.14741626 0.12284689 0.049138755 0.09827751 -0.09827751 0.0 -0.024569377 -0.049138755
-0.12284689 -0.049138755 0.049138755 -0.024569377 -0.36854064 -0.39311004 -0.29483253 -0.17198564
0.27026314 -0.29483253 -0.14741626 0.14741626 -0.12284689 -0.14741626 0.049138755 0.0
-0.14741626 -0.24569377 -0.27026314 0.07370813 0.17198564 -0.17198564 -0.24569377 -0.27026314
-0.14741626 0.17198564 0.12284689 0.24569377 -0.27026314 0.46681815 0.09827751 -0.09827751
-0.14741626 0.19655502 0.17198564 0.31940192 -0.07370813 0.024569377 0.39311004 1.7444258
0.49138755 1.9901196 0.024569377 -0.34397128 -0.049138755 -0.4422488 -0.14741626 -0.34397128
-0.049138755 -0.6633732 0.19655502 0.31940192 -0.09827751 -0.14741626 -0.07370813 -0.29483253
-0.024569377 0.09827751 -0.024569377 -0.9827751 0.0 -0.024569377 0.14741626 0.0
-0.049138755 -0.36854064 -0.2211244 0.0 0.049138755 0.0 -0.07370813 -0.31940192
0.024569377 0.049138755 0.27026314 1.891842 0.5405263 1.9164114 -0.24569377 0.0
-0.049138755 -0.36854064 0.24569377 -0.12284689 -0.049138755 -0.12284689 0.14741626 0.09827751
0.07370813 0.049138755 0.09827751 0.07370813 0.07370813 -0.024569377 -0.14741626 0.2211244

sequential_25/quant_dense_77/MatMul;sequential_25/quant_dense_77/LastValueQuant/FakeQuantWithMinMaxVars i1 [2, 6] scale=0.0044681258 zero_point=0
00000000: 60bc 17be 53b3 dcfa 25ab 3a81
0.42894006 -0.30383256 0.102766894 -0.2948963 0.37085444 -0.34404567 -0.16085252 -0.026808754
0.16532065 -0.3797907 0.25915128 -0.56745195
