Training/train_ckpt/5features/11/13_15_model_features_2023-09-17-01:24:53.782239.tflite (tflite, 6836 bytes, 6 tensors)

sequential/re_lu/Relu;sequential/batch_normalization/batchnorm/add_1 f4 [13]
-2.8497362 -1.4025283 -0.39121404 -3.3271956 0.8433475 0.9745185 0.9954708 -2.1095254
0.92059696 -2.3928258 -2.5833976 -2.1159523 0.6968591
00000000: 1462 36c0 0c86 b3bf 354d c8be c6f0 54c0
00000010: 9fe5 573f 0b7a 793f 2dd7 7e3f 7702 07c0
00000020: 3eac 6b3f 0f24 19c0 6356 25c0 c36b 07c0
00000030: 5c65 323f

sequential/batch_normalization/batchnorm/mul_1 f4 [13, 67]
-0.0002548868 0.0019922068 -0.0014911154 0.0010606847 -0.0057930523 -0.0058873463 -0.0055163787 -6.17304e-05
0.0022726732 0.0036285035 -0.0001248059 -0.0003473493 -0.00067471585 -0.0031177248 0.0060562924 0.0063370694
0.0039218427 0.009106242 -0.0028816033 -8.064683e-05 0.00013188942 -0.0012812642 0.0051178453 -0.005099577
8.67066e-05 0.002142606 -0.0028438699 -0.003484038 -0.038507376 -0.0014051717 -0.035071265 -0.0032457956
-0.001260218 -0.0018497871 0.0004550736 0.0006338448 -0.0038553907 0.021763017 -0.0048403987 0.001582976
-0.0055452487 -0.032337733 -0.0040229093 -0.03331643 0.0029478297 -0.00073656393 -0.00011212733 0.00025889536
0.00411569 -0.0066265482 -0.00027899508 -0.0009197404 -0.0037444662 0.0042582853 -0.0045806793 -0.0061792554
-0.004976284 -0.008157441 0.00505703 -0.0011685403 0.0026569606 0.0003539737 -0.0014060622 -0.0009828069
-0.0026744104 -0.004145307 -0.00044557112 -0.009225555 0.004678419 -0.003187751 4.4679353e-05 0.002532575
0.0022982974 0.0075960928 -0.0028529202 0.0017752055 -0.003994412 0.014023711 -0.0028333212 0.002570414
0.0014149372 0.0042764274 0.023601627 9.2098526e-05 0.019053519 0.010319906 0.007915762 -0.0019331297
0.0022393875 -0.010258148 0.0064213597 -0.00030212814 -0.0012975733 -0.00084252027 0.016560035 0.026759647
0.019325884 0.024291499 0.015163521 0.007445081 0.00094771455 -0.0028430098 -0.011975173 0.01379164
-0.0019024679 0.0026433782 -0.001343136 0.020452263 0.035956543 0.020365354 0.030219162 0.0118143335
0.010525136 -0.00025331395 0.0070508476 -0.00438623 0.011329647 0.00010076172 0.0003190325 0.0028213956
0.0200217 0.03753024 0.022338916 0.046984043 0.010134211 0.0054156436 -0.0027328846 -3.8188686e-05
-0.007193768 0.00468988 -0.0020416393 0.0009695612 0.017862763 0.0005085242 -0.0006011582 0.0048421873
-0.004610058 -0.00027297088 -0.001287616 -0.011698297 -0.005779615 -0.0024663117 0.009673554 0.006166936
-0.00959952 0.005385492 9.371346e-05 -0.008774706 0.007074652 0.0015584495 0.0066777347 0.00017299979
-0.009754834 -0.0050667007 -0.002301362 0.0121158315 0.01371843 -0.010934391 -0.00010771012 0.0023919293
-0.0030201073 -0.011075901 -0.048694663 -0.0150581105 -0.049289633 -0.004583426 -0.0053927675 0.0003105621
0.00074725965 0.014939223 -0.016400205 0.0017342332 -0.001086734 -0.0037189962 -0.017209232 -0.05081278
-0.011549023 -0.055757463 -0.007036537 -0.00035335764 0.0014913771 -0.004353857 0.0041646305 -0.01366339
0.0002610858 -0.0026869695 -0.007952234 -0.011969089 -0.024942862 -0.015086372 -0.03256674 -0.0048479056
0.0020676318 -0.0029536658 0.0035308823 0.0075277546 -0.017846275 -0.0013275492 0.0073341704 -0.005441221
-0.0052979095 0.0011930857 0.0034870354 -0.01403335 0.005192217 -0.0020918476 -0.008186621 -0.0059218043
0.0022800863 0.001527293 0.0022496022 0.0004262086 0.0024806338 0.006332669 -0.0081073055 0.0028220569
0.0020221567 0.0016423676 0.00711416 -0.00457916 -0.0012647692 0.0041158595 0.003204293 -0.0004187432
-0.0017755996 -0.0012991214 0.0030328007 -0.002807016 -0.0072058076 -0.030275358 -0.0032085185 -0.028145444
-0.0009651923 -0.0019492883 0.014215525 0.0033698229 0.003722933 -0.0025946696 0.0010398738 0.00016134267
-0.004993729 -0.0027368444 -0.030363593 -0.0035135178 -0.028769627 -0.0014140323 0.00071897445 -0.0015504808
-0.0030980597 -0.0030432967 -0.0026638145 0.0017424473 -0.0014280165 -0.0049561993 -0.00675327 -0.014814166
00000000: 54a2 85b9 af8f 023b 8871 c3ba ac06 8b3a
00000010: a5d3 bdbb a4ea c0bb bdc2 b4bb 4275 81b8
00000020: 21f1 143b 30cc 6d3b 54de 02b9 6f1c b6b9
00000030: 6adf 30ba be52 4cbb dd73 c63b 31a7 cf3b
00000040: cd82 803b 5932 153c 48d9 3cbb f020 a9b8
00000050: cc4b 0a39 18f0 a7ba 99b3 a73b 5a1a a7bb
00000060: 40d6 b538 f76a 0c3b 3860 3abb 7554 64bb
00000070: e9b9 1dbd bd2d b8ba e3a6 0fbd 6ab7 54bb
00000080: e62d a5ba 8e74 f2ba f296 ee39 9b28 263a
00000090: b9aa 7cbb 5b48 b23c 359c 9ebb dc7b cf3a
000000a0: ebb4 b5bb 9274 04bd 9cd2 83bb cf76 08bd
000000b0: 6030 413b f815 41ba e725 ebb8 59bc 8739
000000c0: e9dc 863b 8423 d9bb 1646 92b9 bc1a 71ba
000000d0: b865 75bb 1689 8b3b 8619 96bb 5a7b cabb
000000e0: 1910 a3bb caa6 05bc 71b5 a53b b529 99ba
000000f0: 6720 2e3b 8c95 b939 9e4b b8ba 87d1 80ba
00000100: 2945 2fbb 5bd5 87bb 8b9b e9b9 c826 17bc
00000110: 6c4d 993b 96e9 50bb 1766 3b38 8ff9 253b
00000120: 089f 163b a5e8 f83b 0ff8 3abb 03ae e83a
00000130: 8ee3 82bb b5c3 653c 3eaf 39bb 6474 283b
00000140: 6a75 b93a 4621 8c3b 3358 c13c 0525 c138
00000150: 2016 9c3c d314 293c 1db1 013c 1261 fdba
00000160: b0c2 123b cb11 28bc 456a d23b f466 9eb9
00000170: 5613 aaba 94dc 5cba e9a8 873c 0c37 db3c
00000180: 5151 9e3c f7fe c63c 6b70 783c def5 f33b
00000190: 0c70 783a ca51 3abb 8433 44bc 55f6 613c
000001a0: 3b5c f9ba 873c 2d3b 2a0c b0ba 818b a73c
000001b0: 2b47 133d 3ed5 a63c 2d8e f73c e890 413c
000001c0: 9f71 2c3c 39cf 84b9 cc0a e73b 5dba 8fbb
000001d0: fc9f 393c 0950 d338 d143 a739 2ae7 383b
000001e0: 8c04 a43c 4fb9 193d 1a00 b73c 5772 403d
000001f0: f609 263c b675 b13b 321a 33bb ca2c 20b8
00000200: b3b9 ebbb 91ad 993b 06cd 05bb 272a 7e3a
00000210: ee54 923c 7b4e 053a 0b97 1dba 36ab 9e3b
00000220: f80f 97bb 881d 8fb9 39c5 a8ba 37aa 3fbc
00000230: ed62 bdbb d8a1 21bb d47d 1e3c 0214 ca3b
00000240: 4e47 1dbc c878 b03b 0888 c438 c9c3 0fbc
00000250: 7bd2 e73b e344 cc3a e6d0 da3b 4767 3539
00000260: bdd2 1fbc 9106 a6bb 73d2 16bb 7b81 463c
00000270: 44c3 603c 2926 33bc 6ee2 e1b8 eac1 1c3b
00000280: feec 45bb b277 35bc 0e74 47bd 4bb6 76bc
00000290: ede3 49bd 9030 96bb d0b5 b0bb f1d2 a239
000002a0: bfe3 433a a5c3 743c b959 86bc 364f e33a
000002b0: be70 8eba 67ba 73bb 60fa 8cbc 1021 50bd
000002c0: 1d38 3dbc f061 64bd c092 e6bb dc42 b9b9
000002d0: 507a c33a cdaa 8ebb 7477 883b 69dc 5fbc
000002e0: 58e2 8839 de17 30bb 164a 02bc ff19 44bc
000002f0: f954 ccbc d52c 77bc b464 05bd 2edb 9ebb
00000300: 1b81 073b 4a92 41bb 6066 673b 62ab f63b
00000310: 5a32 92bc 2901 aeba 7b53 f03b 454c b2bb
00000320: 169a adbb 5061 9c3a bf86 643b 23ec 65bc
00000330: 7923 aa3b 6117 09bb 2d21 06bc b20b c2bb
00000340: 806d 153b 732f c83a 106e 133b c074 df39
00000350: 2192 223b 4782 cf3b 81d4 04bc 42f2 383b
00000360: 2986 043b b644 d73a e61d e93b c70c 96bb
00000370: 9dc6 a5ba 55de 863b 1eff 513b c38a dbb9
00000380: 3cbb e8ba 4847 aaba f4c1 463b eaf5 37bb
00000390: b21e ecbb 0704 f8bc 0246 52bb 4691 e6bc
000003a0: f504 7dba 437f ffba 3ce8 683c 3fd8 5c3b
000003b0: 73fc 733b 550b 2abb 604c 883a 182e 2939
000003c0: 6fa2 a3bb a15c 33bb 12bd f8bc 0c43 66bb
000003d0: 48ae ebbc 0d57 b9ba 8f79 3c3a 8139 cbba
000003e0: d108 4bbb 0c72 47bb 6493 2ebb d462 e43a
000003f0: 482c bbba 9d67 a2bb 894a ddbb 1eb7 72bc

sequential/dense_2/BiasAdd/ReadVariableOp f4 [2]
-0.2184507 0.21845062
00000000: 8ab1 5fbe 85b1 5f3e

sequential/dense_1/BiasAdd/ReadVariableOp f4 [15]
-0.3342473 -1.1565313 -0.52628875 -0.2570055 0.31896055 -1.5635352 -0.77713066 -0.16939756
-0.8102812 0.6895715 -0.9903095 -0.6108701 0.11285096 -0.914548 -2.1583219
00000000: 7622 abbe 3809 94bf dcba 06bf 3a96 83be
00000010: cc4e a33e ec21 c8bf 09f2 46bf 8e76 2dbe
00000020: 976e 4fbf c287 303f ec84 7dbf fc61 1cbf
00000030: 671e e73d d11f 6abf f221 0ac0

sequential/dense_1/MatMul f4 [15, 13]
-0.28546137 0.24125727 -0.8362771 -0.5911318 -0.46871716 -0.17322159 0.10686076 -0.47350538
-0.15445058 -0.100137405 -0.7152866 0.09709911 -0.120103955 -0.5626128 0.091781154 -0.54663545
0.065902255 -0.21120599 -0.25911352 -0.29131898 -0.6069383 -0.65268576 0.2532348 0.27701637
0.031432245 -0.8123646 -0.6662901 -0.68372124 -0.3970434 -0.393097 -0.3703966 -0.035928015
-0.4299002 -0.08956013 -0.57239336 -0.07680827 -0.13595901 -0.3130289 -0.72961533 0.24470623
-0.029919397 -0.032916676 -0.26734462 -1.2349138 -0.5594082 -0.74963844 -0.18714252 -1.1264647
0.19990198 -0.4319289 -0.27930817 -1.514855 -1.5529257 0.4857187 -1.7169825 -1.3288504
0.16966996 0.4394837 0.64670986 -2.8994987 0.33911055 -2.004342 -2.5304022 0.37228465
0.71722054 1.5261706 -0.15218921 -0.037565384 -0.026108582 -1.1054753 -1.5505838 -0.992722
-1.553566 -1.7707423 0.32885712 -0.5718744 -0.8071921 -0.7162445 0.9298171 -0.5475464
0.14619951 -1.0187546 -0.0046952576 -0.5681549 0.043474503 -0.15069656 -0.47570547 0.22639301
-0.540214 -0.058982518 -0.5237073 -0.8518687 -0.37177795 0.032366 -0.6415643 -0.38462
-0.17925261 -0.7488076 -0.62365514 -0.20576319 -0.27687642 -0.018267743 0.098569244 0.052432917
0.06530325 -0.27867082 -0.041454878 -0.17911573 0.035021983 -0.5566008 0.07921673 -0.15780643
0.03872157 -0.3181142 0.0004950111 -0.53320926 -0.7185343 1.5210176 -0.7105429 0.7557105
1.0309323 -0.8828497 -0.8758905 -1.0755861 0.6361937 -0.5374006 0.86585355 1.5790291
-0.047471162 -0.2895023 -0.034718495 -0.45912158 -0.10183697 -0.035081558 -1.2455183 -0.28407332
0.39168528 -0.23415957 -0.6926006 -0.54223466 -0.056410443 -0.51506245 -1.4162519 -0.08064047
-0.89466685 -0.0051140343 -0.1409541 -0.29442412 -0.053304885 -0.50223327 -0.34453133 -0.8315254
-0.53196037 -0.26093864 -0.15285087 -0.0022255036 -0.13921572 -1.5063554 0.15499572 0.066840336
-0.3999316 -1.1209865 -0.9103345 0.8690572 -1.2404922 0.46207008 -0.21864466 -1.2755913
-1.7482462 0.009566748 -0.9164163 -0.05438311 -0.33972812 -1.4534204 -0.48301542 -0.92094284
-0.43154874 -2.2700555 -0.08641858 -0.32962093 -0.40421304 -2.4698684 2.2538357 -2.2742727
-0.8807191 1.6844649 -0.8497504 -1.0387087 -0.7351328 -1.3930608 -2.7040498 -0.84461534
0.98288417 0.31859362 -2.1006906
00000000: fe27 92be 250c 773e 4216 56bf 6a54 17bf
00000010: b2fb efbe 0061 31be d0d9 da3d 4c6f f2be
00000020: 4b28 1ebe d714 cdbd 061d 37bf e6db c63d
00000030: 10f9 f5bd 6407 10bf c2f7 bb3d 4df0 0bbf
00000040: c3f7 863d 6246 58be 87aa 84be c327 95be
00000050: 4f60 1bbf 6a16 27bf fea7 813e 17d5 8d3e
00000060: 19bf 003d 20f7 4fbf fd91 2abf 5b08 2fbf
00000070: 4649 cbbe 0344 c9be a0a4 bdbe 4129 13bd
00000080: e11b dcbe 4d6b b7bd 5f88 12bf a74d 9dbd
00000090: d738 0bbe 5345 a0be 12c8 3abf 4594 7a3e
000000a0: 8619 f5bc a3d3 06bd 65e1 88be a811 9ebf
000000b0: 6035 0fbf 4ee8 3fbf 4aa2 3fbe ff2f 90bf
000000c0: 1bb3 4c3e c925 ddbe 7b01 8fbe c5e6 c1bf
000000d0: 45c6 c6bf 1fb0 f83e 15c6 dbbf c517 aabf
000000e0: f6bd 2d3e 0204 e13e c78e 253f 6391 39c0
000000f0: e69f ad3e 2447 00c0 1cf2 21c0 189c be3e
00000100: c49b 373f 8f59 c33f 7dd7 1bbe 29de 19bd
00000110: aae1 d5bc 3780 8dbf 8879 c6bf 0723 7ebf
00000120: 40db c6bf afa7 e2bf f65f a83e 5c66 12bf
00000130: 24a4 4ebf cd5b 37bf 7e08 6e3f 002c 0cbf
00000140: 53b5 153e 8d66 82bf adda 99bb 9972 11bf
00000150: 5212 323d 3350 1abe ab8f f3be 92d3 673e
00000160: 774b 0abf a797 71bd ae11 06bf 1114 5abf
00000170: ae59 bebe 3692 043d 8f3d 24bf eaec c4be
00000180: ff8d 37be dbb1 3fbf dda7 1fbf 96b3 52be
00000190: bfc2 8dbe 3ca6 95bc acde c93d e6c3 563d
000001a0: b6bd 853d f1ad 8ebe 97cc 29bd 1d6a 37be
000001b0: 3673 0f3d 647d 0ebf 623c a23d 0298 21be
000001c0: 829a 1e3d dddf a2be a2c3 013a 6780 08bf
000001d0: ddf1 37bf b4b0 c23f 24e6 35bf 3e76 413f
000001e0: 97f5 833f 7002 62bf 5c3a 60bf ceac 89bf
000001f0: 97dd 223f 1693 09bf 94a8 5d3f a01d ca3f
00000200: 1f71 42bd a539 94be fb34 0ebd fc11 ebbe
00000210: e78f d0bd aeb1 0fbd 256d 9fbf 0f72 91be
00000220: f98a c83e 87c7 6fbe 464e 31bf e4cf 0abf
00000230: a30e 67bd 22db 03bf be47 b5bf d526 a5bd
00000240: e308 65bf a193 a7bb 4656 10be c2be 96be
00000250: 3956 5abd 5c92 00bf 6966 b0be d9de 54bf
00000260: 8e2e 08bf c099 85be f084 1cbe c1d9 11bb
00000270: 918e 0ebe 41d0 c0bf 33b7 1e3e 96e3 883d
00000280: d6c3 ccbe 7c7c 8fbf af0b 69bf 887a 5e3f
00000290: 73c8 9ebf 7394 ec3e 63e4 5fbe 9346 a3bf
000002a0: 88c6 dfbf d9bd 1c3c 429a 6abf d3c0 5ebd
000002b0: d8f0 adbe ae09 babf cc4d f7be e9c2 6bbf
000002c0: f5f3 dcbe 9748 11c0 39fc b0bd 13c4 a8be
000002d0: 03f5 cebe 5312 1ec0 d83e 1040 af8d 11c0
000002e0: cf76 61bf 8c9c d73f 3e89 59bf 68f4 84bf
000002f0: aa31 3cbf d14f b2bf 270f 2dc0 b638 58bf
00000300: 4c9e 7b3f b41e a33e b771 06c0

sequential/dense_2/MatMul f4 [2, 15]
-0.04510232 0.5972271 0.024240026 -0.41602355 -0.7610867 -0.20948005 -0.08042596 -0.39018
0.16679955 0.633866 0.6233921 0.61698747 0.7442315 0.41479206 0.7162012 -0.21422577
0.3973676 -0.25954708 -0.4566514 -0.060218908 -0.7540791 -0.23543496 -0.3990682 0.12267234
-0.04642091 0.33333284 0.47060114 -0.03647007 0.4810293 -0.36225933
00000000: 36bd 38bd e0e3 183f 0593 c63c 0a01 d5be
00000010: 94d6 42bf f081 56be 5eb6 a4bd acc5 c7be
00000020: 80cd 2a3e 0b45 223f a096 1f3f e4f2 1d3f
00000030: f585 3e3f a05f d43e f658 373f 005e 5bbe
00000040: c473 cb3e 5be3 84be 36ce e9be 1aa8 76bd
00000050: 540b 41bf dd15 71be ab52 ccbe a33b fb3d
00000060: da23 3ebd 9aaa aa3e a2f2 f03e a461 15bd
00000070: 7949 f63e 0e7a b9be
