Training/train_ckpt/model_best/785/FLOAT16.tflite (tflite, 5636 bytes, 5 tensors)

sequential_52/re_lu_104/Relu;sequential_52/batch_normalization_52/batchnorm/add_1 f2 [16]
000000 47 bc 3b be 2d bd 08 bf 69 33 ba bc 0b bf 7d b9
       -1.069 -1.558 -1.294 -1.758 0.2316 -1.182 -1.761 -0.686
000010 74 b9 c8 34 36 bd 63 b7 e6 bf c2 be 07 30 0e b5
       -0.6816 0.2988 -1.303 -0.4617 -1.975 -1.689 0.1259 -0.316

sequential_52/batch_normalization_52/batchnorm/mul_1 f2 [16, 62]
000000 3d 23 6b a2 98 21 f5 9f e9 a8 d2 a9 ad 96 f2 23
       0.01414 -0.012535 0.010925 -0.00777 -0.03836 -0.04547 -0.00163 0.01552
000010 52 aa 45 2e f6 98 7d 1a 58 1d 09 30 0c 23 08 30
       -0.04938 0.09796 -0.002422 0.003168 0.00522 0.1261 0.01376 0.126
000020 5d a6 2f ac 50 97 05 8b cf a8 97 2c 08 90 09 a3
       -0.02486 -0.06537 -0.001785 -0.0002142 -0.03757 0.0717 -0.000492 -0.01374
000030 7b a0 10 a9 de 23 19 9d ed a8 dc ab 77 84 24 18
       -0.00875 -0.03955 0.015366 -0.00498 -0.03848 -0.0614 -6.81e-05 0.002022
000040 78 ac ec a7 89 06 6d 8c dd 17 b3 a7 a3 27 b1 a1
       -0.0698 -0.03094 9.97e-05 -0.0002701 0.00192 -0.03008 0.02983 -0.011116
000050 58 a8 17 ac 9d 11 a5 1c c5 ab 8b a3 10 0d a7 11
       -0.03394 -0.0639 0.000685 0.004536 -0.0607 -0.01473 0.000309 0.00069
000060 a4 25 4b 30 db 24 e3 2f ad a5 29 ac 7c 98 97 8c
       0.02203 0.1342 0.01897 0.1232 -0.02217 -0.065 -0.00219 -0.0002801
000070 67 a3 a2 2b 4c 94 f9 9a 2e 1c 82 a4 7e 1d 17 a2
       -0.01446 0.05963 -0.001049 -0.003405 0.00408 -0.01761 0.005363 -0.011894
000080 20 94 31 98 a2 ae 9c b0 83 90 fe 22 07 29 db 26
       -0.001007 -0.002047 -0.10364 -0.144 -0.0005507 0.01366 0.03928 0.02678
000090 78 95 ed 16 77 29 86 31 68 28 c8 31 7c af 65 b0
       -0.001335 0.001691 0.0427 0.1726 0.03442 0.1807 -0.11694 -0.1373
0000a0 d7 94 05 83 ec 2b ed 9f 5f 90 42 8b b3 a8 b4 af
       -0.001182 -4.61e-05 0.0619 -0.00774 -0.0005336 -0.0002215 -0.0367 -0.12036
0000b0 78 16 dc a4 25 af dd ae 66 0e 04 13 22 27 a3 ac
       0.001579 -0.01898 -0.11163 -0.10724 0.0003905 0.0008564 0.02786 -0.07245
0000c0 c8 8c fb 8f 25 a3 0a af 8d 99 54 a6 0f af 06 af
       -0.0002918 -0.000487 -0.013954 -0.11 -0.00271 -0.02472 -0.1103 -0.10974
0000d0 eb 13 6f 19 e0 20 6c ab c5 0b 81 91 70 28 73 31
       0.0009665 0.002653 0.00952 -0.05798 0.0002371 -0.000672 0.03467 0.1703
0000e0 f0 24 21 30 9a ad 0d b1 9e 91 d8 1d 86 2a 4d a1
       0.01929 0.129 -0.0875 -0.1578 -0.0006857 0.005707 0.05096 -0.01035
0000f0 fa 8b 98 1b be aa 93 87 23 1b 3a a3 04 99 5d a6
       -0.0002434 0.003708 -0.05267 -0.0001156 0.003485 -0.014114 -0.002449 -0.02486
000100 91 9d 15 2c e6 96 26 20 79 15 2e 2c e4 88 4b 9d
       -0.005436 0.0638 -0.001684 0.0081 0.001336 0.0653 -0.0001493 -0.00517
000110 2a 18 8b b2 d6 1d ee b2 4f 16 b4 2b ac 96 26 1c
       0.002033 -0.2045 0.0057 -0.2166 0.00154 0.06018 -0.001629 0.00405
000120 53 1d b9 ac c0 22 3c 98 1d 98 64 af 76 a5 20 aa
       0.0052 -0.0738 0.01318 -0.002068 -0.002008 -0.1155 -0.02133 -0.04785
000130 24 a5 fc 26 2d 0d 6e 95 79 25 d8 26 12 06 8e 15
       -0.02008 0.02728 0.000316 -0.001326 0.02138 0.02673 9.26e-05 0.001356
000140 0e 9c cc 1d 11 a1 4a a8 7b 1f 13 27 41 0e 1a 13
       -0.00396 0.00566 -0.009895 -0.0335 0.007305 0.02763 0.0003817 0.000867
000150 ea 27 a0 24 7a 01 d9 0f 58 16 78 b2 4a 15 fa b1
       0.03091 0.01807 2.253e-05 0.000479 0.001549 -0.2021 0.001291 -0.1868
000160 e6 9d 59 1d d9 91 80 11 6d 25 ed ab fd 08 0a 0a
       -0.00576 0.005222 -0.000714 0.0006714 0.0212 -0.06192 0.0001522 0.0001843
000170 2c 20 4b 21 14 1b 47 a2 1e 1b 86 a6 42 a5 47 29
       0.00815 0.01034 0.003456 -0.01226 0.003475 -0.02548 -0.02054 0.04123
000180 a2 98 19 18 e6 1a e3 26 0f 95 02 98 92 20 ac b3
       -0.002262 0.002 0.003368 0.0269 -0.001235 -0.001957 0.00893 -0.2397
000190 72 20 3f b3 0f a1 dc 27 02 25 c8 9c 6c 9e 24 ae
       0.00868 -0.2264 -0.00988 0.0307 0.01956 -0.00467 -0.00627 -0.09595
0001a0 40 98 02 16 da a5 22 b1 13 95 fc a9 f1 a8 d1 28
       -0.002075 0.001467 -0.02286 -0.1604 -0.001239 -0.04675 -0.0386 0.03763
0001b0 52 10 ae 8a b2 2c 5b 2a c6 06 7c 10 4a a2 f8 22
       0.0005274 -0.0002038 0.07336 0.04965 0.00010335 0.0005474 -0.01228 0.01361
0001c0 25 9d d6 95 a4 a5 82 25 6e 80 00 14 29 29 78 26
       -0.005024 -0.001425 -0.02203 0.02151 -6.56e-06 0.000977 0.0403 0.02527
0001d0 e3 05 d9 0e 71 20 ad b3 bb 20 57 b2 7a a6 05 9b
       8.98e-05 0.000418 0.008675 -0.2399 0.00924 -0.1981 -0.0253 -0.003428
0001e0 50 94 6b 0c e6 28 1c ac f7 93 ab 15 ce 9e 32 24
       -0.001053 0.0002697 0.03827 -0.0642 -0.0009723 0.001384 -0.006645 0.01639
0001f0 93 1c c1 99 e1 1a 49 a4 ad a8 af ac 2e 9c 37 1e
       0.004467 -0.00281 0.003359 -0.01674 -0.03653 -0.0732 -0.00408 0.00607

sequential_52/dense_157/BiasAdd/ReadVariableOp f2 [6]
000000 a7 35 b1 34 c1 32 5c 33 8e 2e 8b ae
       0.3533 0.2932 0.211 0.23 0.1024 -0.10223

sequential_52/dense_157/MatMul f2 [6, 16]
000000 69 b4 c6 b7 98 38 b7 38 e9 35 24 a3 96 34 74 30
       -0.2756 -0.4858 0.574 0.5894 0.3694 -0.01395 0.2866 0.1392
000010 a5 b5 5e b2 41 39 ef b8 7c b7 40 ac 64 38 e6 b4
       -0.3528 -0.199 0.6567 -0.6167 -0.4678 -0.0664 0.549 -0.3062
000020 76 36 9d 38 02 ac 4d b4 9f 38 4b b6 e3 30 16 b9
       0.4038 0.5767 -0.0626 -0.2688 0.5776 -0.3933 0.1527 -0.6357
000030 8b 36 f7 31 5b b5 58 39 99 37 a1 31 35 34 20 38
       0.409 0.1864 -0.3347 0.668 0.4749 0.1759 0.263 0.5156
000040 4d ae dd 35 36 b6 ef b6 a4 35 a4 b5 b4 b6 41 b9
       -0.09845 0.3665 -0.3882 -0.4333 0.3525 -0.3525 -0.419 -0.6567
000050 9e 35 aa b7 37 b2 b8 32 9d 24 c6 b6 7d 2e 2b ab
       0.351 -0.479 -0.1942 0.21 0.01802 -0.4233 0.1014 -0.056
000060 25 38 85 b8 df b7 47 b6 cd b4 c8 b7 d8 b9 0f b5
       0.518 -0.565 -0.492 -0.3923 -0.3 -0.4863 -0.7305 -0.3162
000070 78 a5 d2 30 cd b8 d6 af ab 37 22 b5 cf 2e df 38
       -0.02136 0.1506 -0.6 -0.12244 0.4792 -0.3208 0.1064 0.609
000080 03 29 32 a8 f9 35 46 38 86 b6 5b 35 00 36 f9 34
       0.03915 -0.03278 0.3733 0.534 -0.4077 0.3347 0.375 0.3108
000090 08 37 32 b2 14 38 f7 35 2e 28 cc 3a 6f b6 a8 2c
       0.4395 -0.1936 0.51 0.3728 0.03265 0.8496 -0.402 0.07275
0000a0 16 30 58 34 14 39 c4 2f 94 b5 5a 39 f3 37 7d 28
       0.1277 0.2715 0.635 0.12134 -0.3486 0.669 0.4968 0.03506
0000b0 1c 2f e7 b5 a3 ba 82 34 66 b2 fd 2a 91 b8 67 b1
       0.1111 -0.369 -0.8296 0.2817 -0.2 0.0546 -0.571 -0.1688

sequential_52/dense_158/MatMul f2 [2, 6]
000000 5c 36 7a b8 68 b3 b6 b9 85 3c b8 2e 24 bc 0b 35
       0.3975 -0.5596 -0.2314 -0.714 1.13 0.105 -1.035 0.3152
000010 ab 39 8a 3a fe b5 8e b9
       0.7085 0.8174 -0.3745 -0.6943
