Training/train_ckpt/model_best/473/FLOAT16.tflite (tflite, 5632 bytes, 5 tensors)

sequential_31/re_lu_62/Relu;sequential_31/batch_normalization_31/batchnorm/add_1 f2 [16]
-1.162 0.114 -0.6177 0.6436 1.41 -0.1906 -0.8594 -1.621
-1.148 -0.7627 0.4226 -1.365 -1.215 -2.621 -0.01587 -1.817
00000000: a6bc 4c2f f1b8 2639 a43d 19b2 e0ba 7cbe
00000010: 98bc 1aba c336 76bd dcbc 3ec1 10a4 45bf

sequential_31/batch_normalization_31/batchnorm/mul_1 f2 [16, 62]
0.00279 -0.004803 0.001044 -0.01602 -0.005463 0.01671 -0.0043 0.00401
0.003025 0.01036 0.003778 -0.002377 -0.00273 -0.07404 -0.001275 -0.0711
-0.0001501 0.01353 -0.001448 -0.00152 0.00586 -0.0208 -0.000855 0.004387
-0.0003302 -0.03955 -0.012215 -0.01776 -0.00279 0.006504 -0.0001626 -0.0006275
0.006306 0.002748 0.0001516 -0.0002663 -0.002508 0.00526 -0.010475 -0.0002456
0.005928 0.00149 4.64e-05 -0.000501 0.01051 0.00941 6.25e-05 6.485e-05
-0.00266 -0.06506 -0.003906 -0.0626 -0.004173 0.014824 0.012405 -0.005104
0.006344 -0.0188 -0.000506 -0.000514 -0.011116 -0.005558 -0.00776 0.001391
-0.006348 0.0003366 0.0005665 0.003506 0.003534 -0.002527 0.01249 -0.01738
-0.0005903 -0.00211 0.0004106 -0.015335 -0.001047 -0.01146 -0.004982 0.00809
0.0003893 -0.001264 0.009834 -0.02272 0.001522 -0.00393 0.010994 0.01417
-0.006386 -0.003496 0.003471 0.011925 -0.0004113 -0.0006185 0.01266 -0.004314
-0.001176 -0.00771 0.002413 0.01131 -0.006466 -0.005615 0.006744 0.006084
-2.83e-05 -0.0010605 0.01898 -0.0004709 -0.0001389 -0.0006285 7.7e-05 -0.00968
1.1e-05 -0.01015 -0.005028 0.0103 0.000773 -5.13e-05 0.00949 -0.01715
0.001045 -0.001526 -0.010216 -0.0004501 0.01 -0.00694 0.01173 -0.0148
-0.004704 -0.00969 -0.000782 0.01707 -0.0577 0.0654 -0.0005364 0.0008726
0.013504 0.04773 0.01724 0.05383 0.0004408 -0.01358 -0.001113 0.002214
-0.03418 0.0532 -0.0005436 0.005497 -0.01959 -0.0606 0.011284 0.004852
-0.0269 -0.0295 -0.000378 -0.00806 -0.04004 -0.00682 -0.001391 -0.000291
-0.012375 -0.02695 0.00866 -0.013954 -0.01727 -0.01994 0.0001064 0.003603
-0.05988 -0.006966 0.000307 -0.005486 0.01263 0.01788 0.0157 0.014175
0.004684 -0.01481 -0.0009007 -0.002047 -0.03763 0.05627 -0.0005007 0.00588
0.02107 -0.02237 0.00505 -0.0019045 0.003357 0.00971 0.04385 0.01988
-0.004128 0.003374 -0.08417 0.0832 -0.002346 -0.0002384 0.004623 0.1458
0.00198 0.1333 0.05508 0.00983 -0.0006433 -0.001845 -0.06085 0.07837
-0.0007796 -0.01535 -0.01721 -0.02882 -0.005222 -0.001073 0.0236 -0.02419
0.0002086 0.0002241 -0.04947 -0.02771 0.000286 0.0001291 -0.006615 -0.03644
-0.00396 -0.00914 0.0273 -0.002945 -0.0004458 9.58e-05 -0.0443 -0.00681
-0.0001599 0.001851 0.009514 0.1129 0.01426 0.137 0.04193 0.02519
-0.0003264 0.001193 -0.0686 0.0632 -0.001378 -0.010185 0.07214 -0.001825
0.0005283 0.0036 -0.001264 0.01772 0.018 0.007935 -0.003464 -0.00386
00000000: b719 eb9c 4714 1aa4 989d 4724 679c 1b1c
00000010: 321a 4e21 bd1b de98 9799 bdac 3995 8dac
00000020: eb88 ed22 ee95 3a96 001e 53a5 0193 7e1c
00000030: 698d 10a9 41a2 8ca4 b799 a91e 5489 2491
00000040: 751e a119 f808 5d8c 2399 631d 5da1 068c
00000050: 121e 1a16 0a03 1b90 6221 d120 1904 4004
00000060: 7399 2aac 009c 02ac 469c 9723 5a22 3a9d
00000070: 7f1e d0a4 2590 3690 b1a1 b19d f29f b315
00000080: 809e 840d a410 2e1b 3d1b 2d99 6522 73a4
00000090: d690 5298 ba0e daa3 4a94 dea1 1a9d 2420
000000a0: 610e 2d95 0921 d1a5 3c16 069c a121 4123
000000b0: 8a9e 299b 1c1b 1b22 bd8e 1191 7b22 6b9c
000000c0: d194 e59f f118 ca21 9f9e c09d e81e 3b1e
000000d0: db81 5894 dc24 b78f 8d88 2691 0c05 f5a0
000000e0: b900 32a1 269d 4621 5512 5d83 dc20 64a4
000000f0: 4814 4096 3ba1 608f 1f21 1b9f 0122 94a3
00000100: d19c f6a0 6892 5f24 63ab 302c 6590 2613
00000110: ea22 1c2a 6a24 e42a 390f f4a2 8f94 8918
00000120: 60a8 cf2a 7490 a11d 04a5 c2ab c721 f81c
00000130: e3a6 8da7 318e 20a0 20a9 fc9e b395 c58c
00000140: 56a2 e6a6 6f20 25a3 6ca4 1ba5 f906 611b
00000150: aaab 229f 080d 9e9d 7722 9424 0524 4223
00000160: cc1c 95a3 6193 3198 d1a8 342b 1a90 051e
00000170: 6525 baa5 2c1d cd97 e01a f920 9d29 1725
00000180: 3a9c e91a 63ad 532d ce98 d08b bc1c aa30
00000190: 0e18 4430 0d2b 0821 4591 8f97 caab 042d
000001a0: 6392 dca3 68a4 61a7 599d 6594 0b26 31a6
000001b0: d60a 580b 55aa 18a7 b00c 3b08 c69e aaa8
000001c0: 0e9c aea0 fd26 089a 4e8f 4706 aca9 f99e
000001d0: 3d89 9517 df20 3a2f 4d23 6230 5e29 7326
000001e0: 598d e314 64ac 0b2c a595 37a1 9e2c 7a97
000001f0: 5410 5f1b 2d95 8924 9c24 1020 189b e89b

sequential_31/dense_94/BiasAdd/ReadVariableOp f2 [6]
0.1494 0.11633 0.1426 0.2313 0.2764 0.323
00000000: c830 722f 9030 6733 6c34 2b35

sequential_31/dense_94/MatMul f2 [6, 16]
0.4678 0.47 0.434 -0.3696 -0.2323 0.1259 -0.2411 0.536
0.155 -0.4067 -0.2338 -0.3477 0.5938 0.0771 -0.191 0.1416
0.6147 0.0757 0.1174 -0.03915 -0.4941 0.3535 0.1702 0.6514
-0.02658 -0.3784 -0.2607 -0.0497 0.555 -0.1598 -0.1356 0.6113
0.272 0.1477 0.1792 -0.2292 -0.317 0.3376 0.2686 0.1605
0.5737 0.665 -0.2214 -0.2583 0.4788 0.2188 -0.2676 0.12335
-0.1261 -0.286 -0.3655 0.532 -0.3372 -0.269 0.3528 -0.134
-0.224 -0.1377 -0.1417 0.3093 -0.2113 -0.0508 -0.518 -0.02625
-0.2878 -0.7373 0.518 -0.2322 0.0983 -0.1548 0.0412 -0.0644
-0.1561 -0.4587 0.3677 0.4204 -0.3657 0.1519 0.1962 0.09827
-0.2695 -0.1827 0.3682 0.2072 -0.11816 -0.377 0.3284 -0.399
-0.6064 -0.08704 -0.10956 -0.03763 -0.3801 0.5107 0.1617 -0.2534
00000000: 7c37 8537 f236 eab5 6fb3 0730 b7b3 4a38
00000010: f630 82b6 7bb3 90b5 c038 ef2c 1db2 8830
00000020: eb38 d82c 832f 03a9 e8b7 a835 7231 3639
00000030: cea6 0eb6 2cb4 5daa 7138 1db1 57b0 e438
00000040: 5a34 ba30 bc31 56b3 12b5 6735 4c34 2331
00000050: 9738 5239 16b3 22b4 a937 0033 48b4 e52f
00000060: 09b0 93b4 d9b5 4238 65b5 4eb4 a535 4ab0
00000070: 2bb3 68b0 89b0 f334 c3b2 81aa 25b8 b8a6
00000080: 9bb4 e6b9 2538 6eb3 4b2e f4b0 4629 1fac
00000090: ffb0 57b7 e235 ba36 dab5 dc30 4732 4a2e
000000a0: 50b4 d9b1 e435 a132 90af 08b6 4135 62b6
000000b0: dab8 92ad 03af d1a8 15b6 1638 2d31 0eb4

sequential_31/dense_95/MatMul f2 [2, 6]
0.4546 0.524 1.145 -0.339 -0.882 -0.7446 -0.2007 -0.0928
-1.2705 0.672 0.748 0.57
00000000: 4637 3138 943c 6db5 0ebb f5b9 6cb2 f0ad
00000010: 15bd 6039 fc39 8f38
