Training/train_ckpt/no_reject/734/FLOAT16.tflite (tflite, 5776 bytes, 5 tensors)

sequential_48/dense_144/BiasAdd/ReadVariableOp f2 [16]
-0.01069 -0.12054 -0.0917 0.1428 -0.1902 -0.04788 0.3567 0.275
-0.05692 0.2001 -0.2415 -0.264 -0.4053 -0.4136 -0.06097 0.0158
00000000: 79a1 b7af dead 9230 16b2 21aa b535 6634
00000010: 49ab 6732 bab3 39b4 7cb6 9eb6 ceab 0b24

sequential_48/dense_145/BiasAdd/ReadVariableOp f2 [6]
-0.4734 -0.2223 0.544 -0.299 -0.3752 0.2773
00000000: 93b7 1db3 5a38 c9b4 01b6 7034

sequential_48/dense_144/MatMul f2 [16, 62]
-0.1272 0.01582 -0.139 -0.008484 0.3176 0.2688 -0.0687 -0.3062
-0.2336 0.2537 -0.05716 -0.3936 0.3726 0.798 0.2267 0.419
0.1434 0.1084 -0.1962 0.05383 -0.5234 0.12427 -0.2041 0.003304
0.0819 0.1886 0.3396 0.1868 0.1935 -0.1354 -0.2617 -0.2808
-0.5405 0.09973 -0.008705 -0.04895 0.2434 0.1879 0.3025 -0.1665
0.07855 -0.1622 0.0464 0.12103 -0.5576 0.1534 0.072 0.1043
0.2491 0.62 0.3665 0.3452 0.273 -0.12317 -0.0755 0.08295
-0.1733 0.521 -0.0776 -0.205 0.6646 0.05658 0.05838 -0.3682
-0.00887 -0.06476 -0.10815 -0.2695 0.05325 0.3633 0.2003 -0.1023
0.1172 0.002493 -0.05402 -1.092 -0.2905 -1.27 -0.363 -0.11755
0.2302 -0.0897 -0.02423 -0.2382 -0.06445 0.1849 -0.2416 -0.7383
0.02051 -0.3762 -0.05655 0.0852 -0.013245 -0.1694 -0.3481 0.1134
0.05066 -0.1873 -0.581 -0.2913 -0.1148 -0.03632 -0.2954 0.0486
-0.02556 0.1385 -0.536 0.05417 0.1273 -0.1326 -0.0001528 -0.8535
0.0321 -1.206 -0.42 0.05945 -0.07263 0.231 0.2842 0.2115
0.005146 0.11273 -0.00787 -0.01058 0.05527 -0.2406 0.07336 -0.2598
-0.0502 0.1792 -0.2474 0.0371 -0.08813 -0.1334 0.04266 -0.10425
-0.0296 0.556 0.2223 0.3655 -0.03772 0.0908 -0.04163 0.0767
0.1461 -0.1215 -0.00929 -0.1621 -0.3992 0.2021 -0.145 0.1268
0.002806 -0.2825 0.01072 -0.299 -0.01692 -0.3506 -0.21 0.007526
-0.246 0.01038 -0.3584 -0.1458 -0.133 -0.04968 0.1263 0.1215
0.1478 -0.156 -0.1311 -0.1655 -0.2026 0.21 -0.2964 0.5796
-0.3057 -0.2722 -0.2046 -0.2289 0.3171 -0.3904 -0.03662 -0.0895
-0.1798 -0.1097 0.2856 0.1768 0.1986 0.2418 -0.0232 -0.364
-0.07007 0.2322 -0.4714 0.5713 -0.06107 0.2068 0.6626 0.7993
0.5933 1.008 -0.1395 0.00913 -0.01767 0.1729 -0.3162 0.532
-0.01736 0.0609 -0.3005 -0.4695 0.298 0.0808 -0.2507 -0.487
-0.11786 -0.1548 -0.335 -0.2081 -0.1362 -0.1772 0.05225 -0.1796
0.1825 -0.1993 0.06573 -0.04547 -0.1154 0.2593 -0.0567 -0.166
-0.02376 -0.1992 0.3682 0.736 0.2852 0.855 0.0717 -0.3452
-0.0658 0.1025 -0.4248 0.3884 -0.03452 0.10406 0.416 -0.0866
-0.1868 -0.1748 -0.1606 -0.7207 -0.2607 -0.4463 0.3435 0.1665
00000000: 12b0 0d24 73b0 58a0 1535 4d34 66ac e6b4
00000010: 7ab3 0f34 51ab 4cb6 f635 623a 4133 b436
00000020: 9730 f02e 47b2 e42a 30b8 f42f 88b2 c41a
00000030: 3e2d 0932 6f35 fa31 3132 55b0 30b4 7eb4
00000040: 53b8 622e 75a0 44aa ca33 0332 d734 54b1
00000050: 072d 31b1 f029 bf2f 76b8 e930 9c2c ad2e
00000060: f933 f638 dd35 8635 5e34 e2af d5ac 4f2d
00000070: 8cb1 2b38 f7ac 8fb2 5139 3e2b 792b e4b5
00000080: 8ba0 25ac ecae 50b4 d12a d035 6932 8cae
00000090: 802f 1b19 eaaa 5ebc a6b4 14bd cfb5 86af
000000a0: 5e33 bead 34a6 9fb3 20ac eb31 bbb3 e8b9
000000b0: 4025 05b6 3dab 742d c8a2 6cb1 92b5 422f
000000c0: 7c2a feb1 a6b8 a9b4 59af a6a8 bab4 392a
000000d0: 8ba6 6f30 4ab8 ef2a 1330 3eb0 0289 d4ba
000000e0: 1c28 d3bc b8b6 9c2b a6ac 6433 8c34 c532
000000f0: 451d 372f 08a0 6ba1 132b b3b3 b22c 28b4
00000100: 6daa bc31 ebb3 c028 a4ad 45b0 7629 acae
00000110: 94a7 7338 1d33 d935 d4a8 d02d 54a9 e92c
00000120: ad30 c7af c2a0 30b1 63b6 7832 a4b0 0f30
00000130: bf19 85b4 7d21 c9b4 55a4 9cb5 b8b2 b51f
00000140: dfb3 5121 bcb5 aab0 42b0 5caa 0b30 c72f
00000150: bb30 feb0 32b0 4cb1 7cb2 b832 beb4 a338
00000160: e4b4 5bb4 8cb2 53b3 1335 3fb6 b0a8 baad
00000170: c1b1 05af 9234 a831 5b32 bd33 f0a5 d3b5
00000180: 7cac 6e33 8bb7 9238 d1ab 9e32 4d39 653a
00000190: bf38 083c 77b0 ad20 86a4 8831 0fb5 4238
000001a0: 72a4 cc2b cfb4 83b7 c534 2c2d 03b4 cbb7
000001b0: 8baf f4b0 5cb5 a9b2 5cb0 acb1 b02a bfb1
000001c0: d731 61b2 352c d2a9 63af 2634 42ab 50b1
000001d0: 15a6 60b2 e435 e339 9034 d73a 972c 86b5
000001e0: 36ac 8f2e ccb6 3736 6ba8 a92e a836 8bad
000001f0: fab1 98b1 24b1 c4b9 2cb4 24b7 7f35 5431

sequential_48/dense_145/MatMul f2 [6, 16]
0.1272 0.3828 -0.2325 0.08826 0.1615 0.3186 -0.1727 -0.07153
0.05603 -0.399 0.2683 0.28 0.418 0.705 -0.2644 -0.01255
-0.3296 0.1968 -0.2045 -0.0893 0.12213 0.1635 -0.1685 -0.1311
0.1832 -0.2747 -0.5127 -0.1562 0.1443 -0.1398 -0.2683 -0.1112
0.3782 0.425 -0.1633 0.374 0.05267 0.4167 -0.1943 0.3127
0.1322 0.0797 0.01474 -0.449 -0.292 0.3074 0.06915 -0.0309
-0.2397 -0.398 0.1345 0.335 0.02596 0.02834 -0.3293 -0.0872
-0.578 0.1432 -0.3843 -0.2151 -0.2479 -0.03146 0.4187 -0.4421
0.351 -0.11084 0.133 0.265 -0.4353 0.2803 -0.2416 -0.1421
-0.5283 -0.04828 -0.3406 -0.2847 0.05646 -0.2979 -0.0552 -0.007477
0.11127 0.4653 0.2793 0.5684 -0.199 -0.3755 0.2457 0.04178
-0.05276 0.2457 0.3335 -0.072 -0.1754 -0.157 -0.1552 0.2822
00000000: 1230 2036 71b3 a62d 2b31 1935 87b1 94ac
00000010: 2c2b 62b6 4b34 7b34 b036 a439 3bb4 6da2
00000020: 46b5 4c32 8bb2 b7ad d12f 3b31 64b1 32b0
00000030: dd31 65b4 1ab8 00b1 9e30 79b0 4bb4 1eaf
00000040: 0d36 cd36 3ab1 fc35 be2a ab36 38b2 0135
00000050: 3b30 1a2d 8c23 2fb7 acb4 eb34 6d2c e9a7
00000060: acb3 5eb6 4e30 5c35 a526 4127 45b5 95ad
00000070: a0b8 9530 26b6 e2b2 efb3 07a8 b336 13b7
00000080: 9e35 18af 4230 3d34 f7b6 7c34 bbb3 8cb0
00000090: 3ab8 2eaa 73b5 8eb4 3a2b c4b4 11ab a89f
000000a0: 1f2f 7237 7834 8c38 5eb2 02b6 dd33 5929
000000b0: c1aa dd33 5635 9cac 9db1 06b1 f7b0 8434

sequential_48/dense_146/MatMul f2 [2, 6]
0.2568 0.3103 -0.556 0.0744 -0.2196 0.1747 0.1272 0.2465
-0.4805 0.396 0.04633 0.2052
00000000: 1c34 f734 73b8 c32c 07b3 9731 1230 e333
00000010: b0b7 5636 ee29 9132
