Training/train_ckpt/layernorm/238/FLOAT16.tflite (tflite, 15980 bytes, 9 tensors)

sequential_15/layer_normalization_31/mul_2/ReadVariableOp f2 [6]
0	0x3bd5	0.979
1	0x3af6	0.87
2	0x3d9d	1.403
3	0x3d84	1.379
4	0x3d34	1.301
5	0x3b7c	0.9355

sequential_15/layer_normalization_31/add/ReadVariableOp f2 [6]
0	0x2f00	0.1094
1	0xad8a	-0.08655
2	0x32bf	0.2108
3	0x3388	0.2354
4	0x32a7	0.2079
5	0x29ac	0.0443

sequential_15/layer_normalization_30/mul_2/ReadVariableOp f2 [16]
0	0x3bee	0.991
1	0x3b99	0.9497
2	0x3ae6	0.8623
3	0x3cd8	1.211
4	0x3c46	1.068
5	0x3b2b	0.896
6	0x3c58	1.086
7	0x3c6b	1.1045
8	0x3b48	0.91
9	0x3c4f	1.077
10	0x3d2e	1.295
11	0x3b2d	0.897
12	0x3bc7	0.972
13	0x3b63	0.9233
14	0x3a0f	0.7573
15	0x3afe	0.874

sequential_15/layer_normalization_30/add/ReadVariableOp f2 [16]
0	0xa5d6	-0.0228
1	0xaf0b	-0.11005
2	0xaddc	-0.09155
3	0x27f9	0.03114
4	0x2bc2	0.0606
5	0x271c	0.02777
6	0xa6d7	-0.02672
7	0x236d	0.0145
8	0xadc1	-0.0899
9	0xa2a5	-0.01298
10	0x1333	0.000879
11	0xa26d	-0.01255
12	0xa409	-0.01576
13	0xab81	-0.05862
14	0xb015	-0.1276
15	0xaa26	-0.04803

sequential_15/dense_46/BiasAdd/ReadVariableOp f2 [6]
0	0xaa98	-0.0515
1	0xb104	-0.1567
2	0x2e7f	0.1015
3	0xa54d	-0.0207
4	0x2b4b	0.05698
5	0x10c9	0.000584

sequential_15/dense_45/BiasAdd/ReadVariableOp f2 [16]
0	0x3404	0.251
1	0xb397	-0.2372
2	0xb061	-0.1368
3	0x3665	0.3997
4	0x325d	0.1989
5	0x349f	0.2888
6	0x354b	0.3308
7	0xb620	-0.3828
8	0xb4be	-0.2964
9	0x3497	0.2869
10	0xb70f	-0.4412
11	0xb1c8	-0.1807
12	0x31a9	0.1769
13	0xaedc	-0.1072
14	0x2e05	0.09406
15	0xaec0	-0.10547

sequential_15/dense_45/MatMul f2 [16, 62]
0	0xa87d	-0.03506
1	0x3866	0.55
2	0x2bc7	0.06076
3	0x3881	0.563
4	0x37a2	0.477
5	0x3956	0.667
6	0x3289	0.2042
7	0xb0bc	-0.148
8	0xb566	-0.3374
9	0xac0b	-0.0632
10	0x32c4	0.2114
11	0xae2a	-0.0963
12	0x3713	0.4421
13	0x3927	0.644
14	0x36ec	0.4326
15	0x3a6f	0.804
16	0x35dd	0.3665
17	0x393f	0.656
18	0x3247	0.1962
19	0x13eb	0.0009665
20	0xb394	-0.2368
21	0x2c7c	0.07007
22	0xb20a	-0.1887
23	0xaea0	-0.1035
24	0x38c3	0.595
25	0x3560	0.336
26	0x3284	0.2036
27	0x35ca	0.3618
28	0x3844	0.533
29	0x2c2f	0.06537
30	0xad49	-0.0826
31	0x32d9	0.214
32	0xa663	-0.02495
33	0xaad4	-0.05334
34	0xac74	-0.0696
35	0x9d0f	-0.00494
36	0x3869	0.5513
37	0x349b	0.2878
38	0x2551	0.02077
39	0x310c	0.1577
40	0x3551	0.3323
41	0x36e4	0.4307
42	0x31b1	0.1779
43	0xae35	-0.097
44	0x2c2c	0.0652
45	0xb4c1	-0.297
46	0xb1ec	-0.185
47	0xaba8	-0.0598
48	0x35ca	0.3618
49	0x3a12	0.759
50	0x3673	0.403
51	0x376d	0.464
52	0x3951	0.6646
53	0x3157	0.1669
54	0x2b4e	0.05707
55	0xa008	-0.00787
56	0xb36c	-0.2319
57	0x3474	0.2783
58	0xacbc	-0.074
59	0xaacb	-0.05307
60	0x377b	0.4675
61	0xb280	-0.2031
62	0xaeae	-0.1044
63	0xb422	-0.2583
64	0xb528	-0.3223
65	0xb08e	-0.1423
66	0xb8cb	-0.599
67	0xb880	-0.5625
68	0x30d3	0.1508
69	0x3403	0.2507
70	0x36ad	0.4172
71	0xbaed	-0.8657
72	0x3504	0.3135
73	0x2f8c	0.1179
74	0xb432	-0.2622
75	0xbb57	-0.9175
76	0xaf54	-0.1145
77	0xb9dd	-0.733
78	0xb3e9	-0.2472
79	0xb856	-0.542
80	0x333b	0.226
81	0x30a2	0.1448
82	0x37c0	0.4844
83	0xba64	-0.799
84	0xa167	-0.01055
85	0xb072	-0.1389
86	0x2f32	0.1124
87	0x2f66	0.1156
88	0x2d3d	0.08185
89	0xb7cc	-0.4873
90	0xb4d8	-0.3027
91	0xb3ce	-0.2439
92	0xa97c	-0.04285
93	0x2f72	0.11633
94	0x326a	0.2004
95	0xb156	-0.1667
96	0x2ad0	0.05322
97	0xaff5	-0.1243
98	0xb3cc	-0.2437
99	0xb529	-0.3225
100	0xb637	-0.3884
101	0x2997	0.04367
102	0xb466	-0.275
103	0xb73b	-0.452
104	0x2d6d	0.0848
105	0x181c	0.002007
106	0x3127	0.161
107	0x297e	0.0429
108	0xa972	-0.04254
109	0xa5a8	-0.0221
110	0xb0fc	-0.1558
111	0xb6b5	-0.4192
112	0xb58f	-0.3474
113	0xbb2b	-0.896
114	0xb58c	-0.3467
115	0xb86e	-0.5537
116	0xb05b	-0.1361
117	0x2d59	0.08356
118	0x34c1	0.297
119	0xb8cb	-0.599
120	0xb215	-0.1901
121	0xa957	-0.04172
122	0xb95a	-0.669
123	0x2ff6	0.1244
124	0xb478	-0.2793
125	0x285d	0.0341
126	0xb1fc	-0.187
127	0xb6aa	-0.4165
128	0xb87a	-0.5596
129	0xb89b	-0.5757
130	0x32e9	0.216
131	0x2f81	0.11725
132	0x37c6	0.4858
133	0xb802	-0.501
134	0xaf1e	-0.1112
135	0x31f1	0.1857
136	0xb5ee	-0.3706
137	0xb9e5	-0.737
138	0xae40	-0.09766
139	0xb9e7	-0.738
140	0xb3b2	-0.2405
141	0xb694	-0.4111
142	0x2d6b	0.08466
143	0xb264	-0.1997
144	0x387d	0.561
145	0xb557	-0.3337
146	0xad01	-0.0782
147	0x9ca1	-0.00452
148	0x3418	0.2559
149	0x295c	0.04187
150	0xb3ec	-0.2476
151	0xb4b8	-0.295
152	0xb847	-0.5347
153	0xafe5	-0.12335
154	0xb348	-0.2275
155	0x2e85	0.10187
156	0x36a6	0.4155
157	0xb49f	-0.2888
158	0x2ec6	0.10583
159	0xa621	-0.02394
160	0xb230	-0.1934
161	0xafcc	-0.1218
162	0xaa21	-0.04788
163	0xafb3	-0.1203
164	0xb7ce	-0.4878
165	0xa8ef	-0.03854
166	0x9f8c	-0.00737
167	0xa62a	-0.02408
168	0x38b7	0.5894
169	0xb364	-0.231
170	0x257a	0.0214
171	0x3417	0.2556
172	0xb767	-0.4626
173	0xb7a2	-0.477
174	0xb641	-0.3909
175	0xb527	-0.322
176	0xb60b	-0.3777
177	0xb51d	-0.3196
178	0x3560	0.336
179	0xabd0	-0.06104
180	0x3401	0.2502
181	0xb489	-0.2834
182	0xb10b	-0.1576
183	0x32c6	0.2117
184	0xb4d5	-0.302
185	0x2cf5	0.07745
186	0xac4f	-0.0673
187	0x38b7	0.5894
188	0x2f98	0.11865
189	0x3941	0.6567
190	0x36ab	0.4167
191	0x38cb	0.599
192	0x21b2	0.01112
193	0xaf2c	-0.11206
194	0xbab2	-0.837
195	0x391e	0.6396
196	0x23ab	0.01498
197	0xad11	-0.07916
198	0x39fd	0.7485
199	0x3cec	1.23
200	0x3a9f	0.8276
201	0x3c97	1.147
202	0x38de	0.6084
203	0x359a	0.35
204	0x298a	0.04327
205	0x2493	0.01787
206	0xb71f	-0.445
207	0x3b19	0.887
208	0xb0bd	-0.1481
209	0xb500	-0.3125
210	0x35b5	0.3567
211	0x382b	0.521
212	0x37c1	0.4846
213	0x35d2	0.3638
214	0x3511	0.3167
215	0x2f9a	0.1188
216	0xa087	-0.00884
217	0x311e	0.1599
218	0xb5c1	-0.3596
219	0x27b0	0.03003
220	0x2cc6	0.0746
221	0x2a68	0.05005
222	0x35df	0.367
223	0x2d0f	0.07904
224	0x3585	0.345
225	0x3498	0.287
226	0x3a26	0.7686
227	0x35a2	0.352
228	0x2df9	0.0933
229	0x1cfe	0.004875
230	0xba16	-0.7607
231	0x35c7	0.361
232	0x9e66	-0.00625
233	0x2dd8	0.0913
234	0x3855	0.5415
235	0x3d04	1.254
236	0x3acb	0.849
237	0x3d96	1.396
238	0x36bb	0.4207
239	0x35cd	0.3625
240	0xb069	-0.1378
241	0x2e23	0.0959
242	0xbac3	-0.845
243	0x3c03	1.003
244	0xadc3	-0.09
245	0xb2de	-0.2146
246	0x38bf	0.5933
247	0x3040	0.1328
248	0x35bb	0.3582
249	0x35e9	0.3694
250	0x3295	0.2057
251	0x30a0	0.1445
252	0x3594	0.3486
253	0xb25b	-0.1986
254	0x3327	0.2235
255	0x33ac	0.2397

sequential_15/dense_46/MatMul f2 [6, 16]
0	0x3845	0.5337
1	0xb669	-0.4006
2	0xb0ac	-0.146
3	0x3696	0.4116
4	0xacc9	-0.07477
5	0xaa6f	-0.05026
6	0x2ae4	0.05383
7	0xb220	-0.1914
8	0xb492	-0.2856
9	0xb667	-0.4001
10	0x326f	0.201
11	0xadee	-0.09265
12	0xb5fb	-0.3738
13	0xb1d7	-0.1825
14	0xad88	-0.0864
15	0x368c	0.4092
16	0xac99	-0.07184
17	0x2eed	0.1082
18	0x3137	0.163
19	0x2844	0.03333
20	0xb572	-0.3403
21	0x31c1	0.1798
22	0xa55d	-0.02095
23	0x330e	0.2205
24	0xb82e	-0.5225
25	0xaee4	-0.10767
26	0xa5f9	-0.02333
27	0x3248	0.1963
28	0x2541	0.02052
29	0xb437	-0.2634
30	0x3623	0.3835
31	0xb017	-0.1278
32	0x3588	0.3457
33	0xb615	-0.3801
34	0xb4a8	-0.291
35	0x3841	0.5317
36	0x3502	0.313
37	0x3732	0.4497
38	0x363a	0.3892
39	0xb5b8	-0.3574
40	0xb21c	-0.1909
41	0x8fa2	-0.0004659
42	0xb908	-0.629
43	0xb3ce	-0.2439
44	0x3217	0.1903
45	0x28fc	0.03894
46	0x3686	0.4077
47	0x2b14	0.0553
48	0xb48e	-0.2847
49	0xb47c	-0.2803
50	0xb593	-0.3484
51	0xb418	-0.2559
52	0x3544	0.329
53	0xb536	-0.3257
54	0x30db	0.1517
55	0x360e	0.3784
56	0x34d5	0.302
57	0xb90c	-0.631
58	0x3647	0.3923
59	0xb507	-0.3142
60	0xb11d	-0.1598
61	0x2de0	0.0918
62	0x3202	0.1877
63	0xb226	-0.1921
64	0x355c	0.335
65	0x3532	0.3247
66	0x343b	0.2644
67	0xaeed	-0.1082
68	0xb44f	-0.2693
69	0xb3bb	-0.2416
70	0x368a	0.4087
71	0x382a	0.5205
72	0xb67b	-0.405
73	0xb89a	-0.575
74	0x3442	0.266
75	0x2d0c	0.07886
76	0xb665	-0.3997
77	0x1a77	0.003157
78	0x3412	0.2544
79	0x3336	0.2253
80	0xb616	-0.3804
81	0x2370	0.01453
82	0xb006	-0.1257
83	0xac2c	-0.0652
84	0x2ceb	0.07684
85	0xaea9	-0.10406
86	0x3760	0.461
87	0x3283	0.2035
88	0xb5d9	-0.3655
89	0xaf2b	-0.112
90	0xb2e4	-0.2153
91	0xb195	-0.1744
92	0xb52f	-0.324
93	0xb075	-0.1393
94	0xb468	-0.2754
95	0x296f	0.04245

sequential_15/dense_47/MatMul f2 [2, 6]
0	0xba44	-0.783
1	0x3852	0.54
2	0xbc48	-1.07
3	0x38c1	0.594
4	0x3676	0.4038
5	0x3556	0.3335
6	0xba44	-0.783
7	0xb55c	-0.335
8	0x3048	0.1338
9	0xb89c	-0.576
10	0xbba3	-0.9546
11	0x3960	0.672
