Training/train_ckpt/pca/394/INT8.tflite (tflite, 3840 bytes, 3 tensors)

sequential_26/quant_dense_79/MatMul;sequential_26/quant_dense_79/LastValueQuant/FakeQuantWithMinMaxVars i1 [6, 8] scale=0.0053507485 zero_point=0
0.5618286 0.0053507485 0.3103434 -0.16052246 0.021402994 0.64744055 0.5725301 -0.010701497
-0.60998535 -0.1765747 -0.1872762 0.27823892 0.29429117 0.32104492 -0.04280599 0.67954504
-0.13911946 0.28894043 -0.09096272 0.27823892 0.24078369 0.41200763 -0.032104492 0.47086588
-0.4173584 -0.1872762 0.18192545 -0.2086792 0.14447021 0.27288818 -0.021402994 0.28358966
0.12841797 0.1872762 0.064208984 -0.31569415 0.12841797 0.3638509 0.09631348 0.21938069
-0.20332845 0.44411212 -0.55647784 0.53507483 -0.55647784 -0.22473145 0.28894043 0.30499268
00000000: 6901 3ae2 0479 6bfe 8edf dd34 373c f87f
00000010: e636 ef34 2d4d fa58 b2dd 22d9 1b33 fc35
00000020: 1823 0cc5 1844 1229 da53 9864 98d6 3639

sequential_26/quant_dense_78/MatMul;sequential_26/quant_dense_78/LastValueQuant/FakeQuantWithMinMaxVars i1 [8, 12] scale=0.0038924254 zero_point=0
-0.10898791 -0.019462127 -0.20629855 -0.36978042 0.10509549 0.13234246 0.182944 0.05060153
-0.031139404 -0.04281668 -0.10509549 -0.20629855 -0.05060153 0.007784851 -0.007784851 -0.16348186
0.023354553 0.17905158 0.28414705 0.2296531 -0.05838638 0.17515914 -0.2296531 -0.3542107
0.05060153 0.10509549 0.47876832 0.49433804 -0.062278807 -0.43205923 -0.1518046 0.027246978
0.10898791 -0.038924254 -0.062278807 -0.3853501 0.12066519 0.038924254 0.36978042 0.43595165
-0.05060153 -0.1985137 -0.20240612 0.062278807 0.2296531 0.054493956 0.124557614 -0.046709105
0.007784851 0.046709105 -0.45152134 -0.4437365 -0.08563336 -0.3853501 -0.12066519 0.31139404
-0.29582435 0.31917888 -0.11677276 -0.17515914 0.2763622 0.28025463 0.2140834 0.3542107
-0.2724698 0.015569702 0.14401974 0.4593062 -0.4164895 -0.08563336 -0.29971677 -0.015569702
-0.1985137 0.19072884 -0.2763622 -0.124557614 0.03503183 0.1518046 0.3036092 -0.19462126
-0.19072884 0.19072884 -0.21797583 0.08952579 -0.21019098 -0.0038924254 0.17126672 -0.36978042
-0.10120306 0.4437365 0.40481225 0.28025463 0.3814577 -0.3230713 -0.33085617 -0.31917888
00000000: e4fb cba1 1b22 2f0d f8f5 e5cb f302 fed6
00000010: 062e 493b f12d c5a5 0d1b 7b7f f091 d907
00000020: 1cf6 f09d 1f0a 5f70 f3cd cc10 3b0e 20f4
00000030: 020c 8c8e ea9d e150 b452 e2d3 4748 375b
00000040: ba04 2576 95ea b3fc cd31 b9e0 0927 4ece
00000050: cf31 c817 caff 2ca1 e672 6848 62ad abae

sequential_26/quant_dense_80/MatMul;sequential_26/quant_dense_80/LastValueQuant/FakeQuantWithMinMaxVars i1 [2, 6] scale=0.0059607774 zero_point=0
0.059607774 -0.29803887 0.6914502 0.29207808 -0.75701874 0.5543523 -0.11325477 -0.017882332
0.29207808 -0.16690177 -0.059607774 0.5603131
00000000: 0ace 7431 815d edfd 31e4 f65e
