Training/train_ckpt/model_best/134/FLOAT16.tflite (tflite, 5596 bytes, 5 tensors)

sequential_8/re_lu_16/Relu;sequential_8/batch_normalization_8/batchnorm/add_1 f2 [16]
00000000: f3b9 12be b3bc 163d a3c0 c4bc fcbd 3cbf
00000010: 0433 79bc d2b4 3c25 5eba f2bd feb9 35bc
-0.7437 -1.518 -1.175 1.271 -2.318 -1.191 -1.496 -1.809
0.2192 -1.118 -0.3013 0.02045 -0.796 -1.486 -0.749 -1.052

sequential_8/batch_normalization_8/batchnorm/mul_1 f2 [16, 62]
00000000: 2f24 cfa6 db23 fba3 6824 a726 c696 0c21
00000010: b81d 5c16 2d18 151f eaa1 e7ae 35a2 72af
00000020: 5424 1624 4a97 1c1f 7010 239e 611a de1c
00000030: 69a4 41a9 d922 279a fd24 a025 0507 1684
00000040: a39c b028 3d08 a517 b1a1 8524 ea21 5721
00000050: a722 f821 4808 2513 8ca2 1127 2188 0d90
00000060: 5aa4 f5af 50a2 1eb0 1923 6025 3312 a699
00000070: 18a0 a31c fa95 279a af21 2625 2d21 8da4
00000080: da21 53a4 0daa 3ead 3999 ca24 c8a9 a32b
00000090: c703 481c 0f29 4530 eb25 902f 80a5 39ad
000000a0: ca0b 4a9f 841f 5d24 3e90 c919 88a8 eaad
000000b0: 1d1e bba6 57ac 97ac 608c 4116 62a4 fba8
000000c0: 6c92 b49d 74a2 09ac bd1b cba9 98ab caac
000000d0: 6e10 2313 ffa9 6ea9 590f 6b98 7b25 d22e
000000e0: da24 e32d 8aa8 56ac fd8e dea1 08a3 5d28
000000f0: 1211 1a1c 5796 fea2 2d1f 8c1d 431e 370f
00000100: 121c 211c a690 d31e 1320 d19e 0591 5f1e
00000110: aea1 39a4 cc9f 1ea3 f398 c21b b414 611e
00000120: 631d 6b9c d616 381e e19f 3115 fb1f 9420
00000130: b918 b120 250f 2589 0399 6722 a20b 1711
00000140: bfa2 5298 fc1f f721 4416 181e 200a 3c17
00000150: 008a 291e e110 d984 d0a2 4fa1 73a2 289f
00000160: af99 491d c80b 4a19 eb1d cd17 868e fb1c
00000170: a99e 1520 071d 84ac 7717 dbac cfac 812c
00000180: d992 fb18 942a 572d ba90 0e13 689d 72b7
00000190: 5098 fab7 c0a8 0baa 0995 771c 0128 38b0
000001a0: 4c14 0f09 aea2 04b6 241a 73ad 31a9 611c
000001b0: 3011 c283 3630 c62b d10e f40f bda2 1b26
000001c0: 1998 8528 7ca9 fe25 4000 ee10 f42e f728
000001d0: 8a0f bd11 ac9c 10b8 1c9d 59b8 52ad 5da8
000001e0: 4812 9f0c c82f 24b0 0695 3a15 5eb0 ce21
000001f0: cb21 00a1 1a1b e79b ac24 0f23 9721 0097
0.01634 -0.0266 0.01534 -0.01559 0.01721 0.02599 -0.001654 0.00986
0.005585 0.001553 0.002039 0.006916 -0.01155 -0.10785 -0.01212 -0.11633
0.0169 0.01596 -0.00178 0.006943 0.0005417 -0.005993 0.003115 0.004753
-0.01723 -0.04105 0.013374 -0.003004 0.01949 0.02197 0.0001071 -6.235e-05
-0.004528 0.03662 0.0001293 0.001866 -0.011116 0.01765 0.01155 0.01043
0.01299 0.01166 0.0001307 0.000872 -0.01279 0.0276 -0.000126 -0.0004945
-0.017 -0.1243 -0.01233 -0.1287 0.01386 0.021 0.0007567 -0.002758
-0.007996 0.004528 -0.001459 -0.003004 0.0111 0.02011 0.01011 -0.01778
0.01143 -0.01689 -0.04727 -0.0819 -0.00255 0.0187 -0.04517 0.05966
5.764e-05 0.00418 0.03952 0.1334 0.02312 0.11816 -0.02148 -0.0816
0.0002377 -0.00712 0.00734 0.01704 -0.000518 0.002825 -0.0354 -0.0924
0.00597 -0.02629 -0.0678 -0.0717 -0.000267 0.001527 -0.01712 -0.0389
-0.000784 -0.00557 -0.0126 -0.06305 0.003778 -0.04526 -0.05933 -0.0748
0.0005407 0.000871 -0.04684 -0.04242 0.0004485 -0.002157 0.02141 0.10657
0.01895 0.092 -0.03546 -0.06775 -0.0004265 -0.01146 -0.01373 0.0341
0.000619 0.004005 -0.001548 -0.01366 0.007008 0.005417 0.006115 0.0004404
0.003975 0.004032 -0.0005674 0.006664 0.00796 -0.006657 -0.0006127 0.00622
-0.01109 -0.0165 -0.007614 -0.0139 -0.002417 0.003788 0.001148 0.00623
0.00526 -0.004314 0.001669 0.006073 -0.007694 0.001267 0.007793 0.00894
0.002306 0.00916 0.000436 -0.000157 -0.002447 0.012505 0.0002329 0.0006213
-0.013176 -0.00211 0.007797 0.01165 0.00153 0.00595 0.0001869 0.001766
-0.0001831 0.006016 0.0005956 -7.397e-05 -0.013306 -0.01037 -0.012596 -0.00699
-0.002775 0.00516 0.0002375 0.002583 0.00578 0.0019045 -0.0003982 0.004864
-0.006504 0.00797 0.00491 -0.07056 0.001822 -0.07587 -0.07513 0.0704
-0.000836 0.002432 0.0514 0.08344 -0.000577 0.000861 -0.00528 -0.4653
-0.002106 -0.4985 -0.0371 -0.0472 -0.001229 0.00436 0.03128 -0.1318
0.001049 0.0001544 -0.01305 -0.376 0.002998 -0.08514 -0.04056 0.004276
0.0006332 -5.734e-05 0.1316 0.06073 0.000416 0.0004854 -0.01316 0.02385
-0.002 0.0353 -0.04285 0.0234 3.8e-06 0.000602 0.10864 0.0388
0.0004601 0.0007005 -0.004562 -0.508 -0.00499 -0.5435 -0.0831 -0.0341
0.0007668 0.000282 0.1216 -0.1294 -0.001226 0.001276 -0.1365 0.01134
0.011314 -0.009766 0.003468 -0.003859 0.01825 0.01379 0.01092 -0.001709

sequential_8/dense_25/BiasAdd/ReadVariableOp f2 [6]
00000000: 8234 0fb6 5834 9c32 9a35 4cb5
0.2817 -0.3787 0.2715 0.2065 0.35 -0.331

sequential_8/dense_25/MatMul f2 [6, 16]
00000000: 7dba 0b38 b8b9 aeb8 1b25 e0b9 2ab5 bbb8
00000010: 9e38 56b0 4a37 c835 192b cca9 d533 68a9
00000020: a4b3 63b6 54b5 613a 07b3 d636 3a30 ddb5
00000030: 92a5 f2b6 1537 8131 512e b019 d535 c5b6
00000040: 96a8 9434 dbaf c8b8 14b8 38b5 bfb0 b9b9
00000050: 46b5 55b5 0238 3d35 0cb5 fdb8 bd37 8a28
00000060: 2437 e8ae 31b5 233b 5b33 ff37 0d37 2e3a
00000070: a0ad 9e37 d2b3 baac 4cad 1b38 adab 7f37
00000080: 0331 2a33 43b6 0cad 5429 72b1 28b6 7ab1
00000090: 3c37 9630 5fb7 ae2f ba38 de28 7328 46b7
000000a0: f938 6132 c635 bfb2 afb5 7db5 fbb9 fc39
000000b0: 5a2c 9a38 e234 c930 d4b2 8739 b534 0633
-0.811 0.5054 -0.715 -0.585 0.01994 -0.7344 -0.3228 -0.5913
0.577 -0.1355 0.4556 0.3613 0.05545 -0.0453 0.2448 -0.04224
-0.2388 -0.3992 -0.333 0.7974 -0.2196 0.4272 0.1321 -0.3665
-0.02176 -0.434 0.4426 0.172 0.0987 0.002777 0.3645 -0.423
-0.03583 0.2861 -0.12274 -0.5977 -0.51 -0.3262 -0.1483 -0.7153
-0.3296 -0.3333 0.501 0.3274 -0.3154 -0.6235 0.4836 0.03546
0.4463 -0.1079 -0.3245 0.892 0.2299 0.4998 0.4407 0.7725
-0.0879 0.476 -0.2444 -0.07385 -0.08276 0.513 -0.05997 0.4685
0.1566 0.2239 -0.3914 -0.07886 0.04163 -0.1702 -0.3848 -0.1711
0.4521 0.1433 -0.4607 0.12 0.591 0.03802 0.03476 -0.4546
0.6216 0.1993 0.3608 -0.2108 -0.3552 -0.343 -0.7476 0.748
0.068 0.575 0.3052 0.1495 -0.2134 0.691 0.2942 0.2195

sequential_8/dense_26/MatMul f2 [2, 6]
00000000: 8db8 603b 30b5 4f3a 8a2e d335 953a ca38
00000010: f23a a9bc 973a e8b2
-0.569 0.922 -0.3242 0.7886 0.1022 0.364 0.8228 0.5986
0.868 -1.165 0.8237 -0.2158
