Training/train_ckpt/5features/42/8_5_model_features_2023-09-17-08:38:53.514192.tflite (tflite, 4736 bytes, 6 tensors)

sequential/re_lu/Relu;sequential/batch_normalization/batchnorm/add_1 f4 [8]
000000 59 96 6e 3f 8f 01 d2 be 3a be f3 bf 36 9a 08 c0
       0.9319816 -0.41016814 -1.9042428 -2.1344123
000010 e1 06 ac bf d0 1e 0b c0 ac 4e 34 bf dd 90 bb bf
       -1.3439599 -2.1737556 -0.70432544 -1.4653584

sequential/batch_normalization/batchnorm/mul_1 f4 [8, 67]
000000 7c 97 9b bb ff 57 8e 3c cf e5 a7 3d 4f c4 d2 3c
       -0.004748283 0.017375944 0.081981294 0.025728373
000010 a4 10 90 3d 6c 19 a5 3c 69 e5 19 3b 54 47 ea ba
       0.07034424 0.020153724 0.0023482686 -0.0017874041
000020 91 75 ac 3b 75 a7 8f bc cb a7 80 bb 72 5d 5e b8
       0.0052630384 -0.017535904 -0.0039262525 -5.3015952e-05
000030 60 8c 8e 3b 1b 0e f4 bb b1 8b 8e 3b c7 bb 02 3d
       0.00435023 -0.0074479706 0.0043501486 0.03191736
000040 e9 be f7 3b d2 6d f0 3c 5e c8 10 3c 71 b2 3e 3c
       0.0075606 0.029349241 0.008836834 0.011639223
000050 1c 5b 2d bb 88 29 ee bb 85 2b 12 bc 3a 6c 3d 3c
       -0.002645201 -0.0072681345 -0.008921509 0.011561448
000060 d6 27 1a bb b3 18 03 bc c4 aa 25 3b 32 4d 6e 3c
       -0.002352228 -0.008001494 0.0025278786 0.014544772
000070 43 49 bb bb d0 a9 93 3c 7f e5 bc bb f6 67 a6 3c
       -0.0057155206 0.018025309 -0.0057646628 0.020313244
000080 b4 9c ab 3a 8d c0 85 ba 34 33 0e b9 60 9f 8c bc
       0.0013092966 -0.0010204479 -0.0001356125 -0.01716584
000090 ee df 6c ba 9f 27 ba ba 33 7d 3c 36 a6 c6 d8 37
       -0.00090360537 -0.0014202482 2.8087059e-06 2.584171e-05
0000a0 b9 0c 76 3a f5 b7 59 3c d1 4e 18 ba 57 ee 09 3c
       0.0009386051 0.013288488 -0.00058100844 0.008418641
0000b0 64 9c 2a 3c 22 c8 54 3c 87 0e 3a bb 35 81 7b 3a
       0.010413263 0.0129871685 -0.0028390007 0.00095941435
0000c0 a2 42 b6 bb 3c 8b 30 3c f8 12 42 bb a8 16 d9 ba
       -0.0055621425 0.010775384 -0.0029613357 -0.0016562538
0000d0 38 b4 8d ba e7 5c 10 3b 47 80 2c 3c a1 79 50 bb
       -0.0010811156 0.002202803 0.010528631 -0.0031810778
0000e0 7e 86 27 3c 06 30 4e 3c 98 05 a1 bc b8 02 d9 b9
       0.0102249365 0.012584692 -0.019655988 -0.0004139149
0000f0 12 32 46 3a ba 19 0d bc e8 84 56 bc 1f 85 94 b9
       0.00075605616 -0.008612091 -0.013093211 -0.00028327943
000100 58 fd df 37 01 9d a5 3c 9b 10 01 3c 54 d4 3f 3c
       2.6701644e-05 0.020216467 0.007877494 0.011708338
000110 97 e4 e0 3c 15 e8 1d 3e 2e 34 13 3c ad b9 12 3e
       0.02745275 0.15420564 0.008984609 0.14328642
000120 76 d9 05 3d b5 77 5b 3c 70 80 30 ba 83 07 2b bb
       0.03267809 0.01339524 -0.0006733006 -0.0026097007
000130 e5 fb c9 bc cb 6a 82 bb c8 6d d6 38 cd 51 82 ba
       -0.024656245 -0.003980016 0.000102247635 -0.0009942591
000140 ab 80 9b bb 84 dc 09 3b 0e c2 c8 3d 83 57 f8 38
       -0.004745563 0.0021035979 0.09802638 0.00011841862
000150 65 96 cd 3d b9 37 14 3d c8 2f a6 3c 5d 7f 0f bb
       0.10038451 0.036185954 0.020286456 -0.0021895983
000160 82 6f 79 bb 32 1c 01 bd 81 9f e5 3c bd 5b a8 ba
       -0.0038060849 -0.03152103 0.028030159 -0.0012844723
000170 a4 b7 47 bb 5d f2 cc 3b 3e 9f 8d 3c 84 23 32 3c
       -0.0030474449 0.006254478 0.017287847 0.010872725
000180 a4 3b b2 3c 22 30 1f 3b 05 45 17 3d dd 92 10 bb
       0.021756954 0.0024290164 0.036931057 -0.0022060194
000190 44 2a c3 ba 6f 55 43 ba 0c ad ff bc 83 84 2d 3c
       -0.0014889915 -0.000745139 -0.031210445 0.010590675
0001a0 55 d2 c1 ba f5 af 0c bb b4 cd b1 bb 3c 51 86 3b
       -0.0014787415 -0.0021467183 -0.005426133 0.0040990394
0001b0 25 67 07 3d e9 94 87 3b af 43 27 3d 9a 62 d6 3c
       0.03305735 0.0041376245 0.040836032 0.026170064
0001c0 f2 2c 2c 3d 0a 22 0a bb 43 50 12 3b e4 3e a8 bc
       0.04203505 -0.0021077418 0.0022325672 -0.020537801
0001d0 1d 58 b4 3c 9e 78 1b bb 10 21 de 3a 55 c7 f8 3b
       0.022014672 -0.0023723016 0.0016947109 0.0075921216
0001e0 11 56 c2 3c d0 54 ac 3d 3b 06 a0 3c 08 f6 92 3d
       0.02372268 0.08414614 0.01953422 0.07175833
0001f0 e1 0d 44 3d 0e 9d 65 bc 03 ac 10 38 dd 66 96 3a
       0.0478648 -0.014014496 3.4492474e-05 0.0011474747
000200 6a 3d 36 bd c7 f9 97 bc c0 a6 85 39 c4 d3 e4 3a
       -0.044492163 -0.01855172 0.00025491975 0.0017458131
000210 77 84 da 3c 73 9d f7 3b d9 a3 ce 3a 89 7e 0d bc
       0.026674492 0.007556611 0.0015765383 -0.008636125
000220 04 05 5b bd ef f1 ad bb 57 d1 62 bd 9d 4a 47 bc
       -0.05347158 -0.0053083817 -0.055375423 -0.012163785
000230 49 73 bb bb f0 12 36 ba 7d a0 31 3a af c3 b4 3b
       -0.00572053 -0.0006945571 0.0006775929 0.0055164914
000240 0d 9c 34 bc ad 2e 91 ba fa fb 03 ba 0e c5 a0 ba
       -0.0110235335 -0.0011076533 -0.0005034801 -0.0012265758
000250 54 98 23 3b c2 42 28 bd d7 45 f8 3b 14 0c 0a bd
       0.002496262 -0.04107929 0.007576685 -0.033702925
000260 9b ef 3a bc b6 15 72 3b 41 53 57 3c e4 be 3a 3c
       -0.011409665 0.003693921 0.013142408 0.011398051
000270 3b c9 fc 3b 4f a5 17 3b 4c 7b 72 3a 09 12 4c 3b
       0.007714418 0.0023139303 0.000924994 0.003113868
000280 8f a9 98 bb 73 ff ba bb 93 f8 ad bc 75 f9 14 bb
       -0.004658885 -0.0057067215 -0.021236693 -0.0022731696
000290 42 39 8f bc d0 eb 75 bc 84 79 e0 bb 4e 47 06 3a
       -0.017483357 -0.015009835 -0.0068504233 0.00051223196
0002a0 27 63 46 b8 6f 0e 50 3c f2 6c bc bb 23 42 44 3a
       -4.729922e-05 0.012698754 -0.005750292 0.0007486662
0002b0 90 45 25 39 90 a5 d5 3b 5c 90 6d 3b c1 38 bd bc
       0.0001576154 0.0065199807 0.0036249375 -0.023098351
0002c0 81 53 8f 3b 51 15 c2 bc 57 61 72 bc 62 ca c2 bb
       0.004373968 -0.023691805 -0.014793715 -0.005944536
0002d0 9d 3f 35 3a 9d 2f 9b 3a 17 9c 40 3c 25 34 e7 bb
       0.0006914081 0.0011839751 0.011755965 -0.0070557767
0002e0 f3 21 0c ba 38 2a 15 3b 53 bc 20 bb 8e f5 00 bc
       -0.0005345635 0.002276076 -0.0024526312 -0.007871045
0002f0 b4 7f d4 bc 28 8e 01 bc 2b 55 f5 bc b2 22 89 bc
       -0.0259398 -0.007907428 -0.029947838 -0.016740177
000300 f4 82 d8 bb ea 31 23 b9 03 b8 fc 38 96 38 49 3c
       -0.0066074077 -0.00015563486 0.00012050571 0.012281558
000310 51 9c b2 bb f9 2e 29 37 08 5d 51 b9 29 c7 5e bc
       -0.0054507633 1.0084122e-05 -0.0001996645 -0.013597288
000320 b6 ec 7e 3a 3c f1 90 ba 0d cf 2b bc 8c b8 8e bd
       0.0009724604 -0.0011058222 -0.0104863765 -0.06968793
000330 8d de bd bb c6 51 78 bd 9a ba cc bb de 3c 1f bb
       -0.0057943524 -0.06062486 -0.0062478306 -0.0024297754
000340 eb 8f 99 b9 fb c0 e0 3a 08 cc c2 3b 7b 3a 08 3b
       -0.0002928966 0.0017147356 0.0059447326 0.002078681
000350 56 d1 19 3c 6f 69 71 bb 48 00 ef 3b 43 ab b7 3b
       0.0093882885 -0.0036836525 0.0072937347 0.005605133
000360 e2 59 20 bd 22 d8 b7 3b b8 38 15 bd af 30 ce bb
       -0.03914822 0.005610482 -0.036431044 -0.0062924246
000370 20 39 9e 3b f2 f9 c8 ba 9f 6a b3 3b 40 b8 45 bb
       0.004828587 -0.0015333279 0.0054753567 -0.0030169636
000380 fc 72 19 3c 04 3a 1c 3a a2 54 ad 3b 3d d6 da ba
       0.009365793 0.0005959573 0.00528963 -0.0016695928
000390 f2 1d a7 bb 26 9e 9e bb e5 35 cf 39 35 68 0b 3c
       -0.0051000053 -0.00484063 0.0003952227 0.008508732
0003a0 14 18 08 bc c6 5f a0 3a 4c 70 9e 38 49 86 b7 39
       -0.008306522 0.0012235574 7.554944e-05 0.0003500453
0003b0 d1 f2 84 bb cf 84 61 3c ae 19 3b ba 65 27 aa ba
       -0.0040572663 0.013764574 -0.00071373105 -0.0012981711
0003c0 b8 79 93 bb 20 69 ed 3b 18 25 68 bc 69 ee 02 3b
       -0.004500594 0.007245198 -0.014169 0.001997853
0003d0 cf 30 9b bc c6 e6 fd bb 4a 12 9d ba 8e 31 c5 3b
       -0.018944172 -0.0077484576 -0.00119836 0.0060178703
0003e0 c2 6a 7b 3a 88 79 a9 bb cc ad 40 3c 10 b0 90 39
       0.0009590798 -0.0051719584 0.011760186 0.00027596997
0003f0 e7 cd 48 3a 70 bc 9d 3b 14 0a 9b bb 95 a4 be bc
       0.00076600764 0.0048137233 -0.004731426 -0.023271838

sequential/dense_2/BiasAdd/ReadVariableOp f4 [2]
000000 f7 6c 3d 3e f4 6c 3d be
       0.18498598 -0.18498594

sequential/dense_1/BiasAdd/ReadVariableOp f4 [5]
000000 6a fe be 3e 8b c2 7c 3e 95 10 47 3e 29 22 af be
       0.37303478 0.24683587 0.1943992 -0.3420575
000010 f6 55 a3 3e
       0.3190152

sequential/dense_1/MatMul f4 [5, 8]
000000 b1 59 e6 be 5b 4a 0d bf 24 4c 1d 3f 13 4d e6 3e
       -0.44990304 -0.5519158 0.61444306 0.44980678
000010 e6 a1 36 bf d1 e6 fc 3e f6 a1 22 bf 38 93 0d 3f
       -0.7134079 0.4939485 -0.6352838 0.55302763
000020 f1 d5 b6 3d b5 8a 53 bf 6f 0f bf be c3 99 c7 be
       0.08927525 -0.82633525 -0.37316462 -0.38984498
000030 e3 0b d6 3e c2 57 2b bf 2a b4 d5 3e 57 a8 3a bf
       0.41805944 -0.6693078 0.41739017 -0.72913116
000040 1a b4 3f bf 68 cf 25 3f 53 e6 dd bd 1e eb a1 be
       -0.7488419 0.647696 -0.108349465 -0.31624693
000050 92 df a8 3e 09 a4 2b be ea cc 32 be 50 4b 05 bf
       0.3298307 -0.16761793 -0.17460981 -0.5206804
000060 e9 ec 24 bf 9f f7 d4 be 91 a0 17 bf a3 7e 9f be
       -0.64423996 -0.4159517 -0.5922938 -0.31151304
000070 48 b2 f2 bd 8c 86 83 be 09 b0 10 bf e6 61 4a 3d
       -0.11850411 -0.2568859 -0.5651861 0.04940977
000080 d5 d2 ba 3e a8 30 15 3f 37 68 d5 be 56 3d 5a bf
       0.36488977 0.5827737 -0.41681072 -0.8524984
000090 3a 5b 60 bc b9 1b d9 be 3c cc 1e 3e ff 3e 3a bf
       -0.013693625 -0.42403963 0.15507597 -0.72752374

sequential/dense_2/MatMul f4 [2, 5]
000000 39 f4 ac 3f 5a 9d a9 bf 47 20 32 3e 51 6a ed 3d
       1.3512031 -1.3251145 0.17395125 0.11592544
000010 fd cc 38 bf 09 55 79 bf 4a d1 52 3e 55 d0 83 3f
       -0.7218779 -0.9739538 0.2058765 1.0297953
000020 73 16 b4 3e 33 97 dd 3e
       0.35173377 0.43279418
