Training/train_ckpt/model_best/658/FLOAT16.tflite (tflite, 5636 bytes, 5 tensors)

sequential_43/re_lu_86/Relu;sequential_43/batch_normalization_43/batchnorm/add_1 f2 [16]
0	0x3c42	1.064
1	0xbcdb	-1.214
2	0xbb94	-0.9473
3	0x3e7b	1.62
4	0xbac9	-0.848
5	0xbee0	-1.719
6	0x3ef8	1.742
7	0xbf3d	-1.81
8	0x3fc8	1.945
9	0xbcc7	-1.194
10	0xb820	-0.5156
11	0x3d18	1.273
12	0xbc8a	-1.135
13	0xbf34	-1.801
14	0x3836	0.5264
15	0x3b64	0.924

sequential_43/batch_normalization_43/batchnorm/mul_1 f2 [16, 62]
0	0x160b	0.001475
1	0x1d86	0.005394
2	0x995a	-0.002613
3	0x19e5	0.002878
4	0x1865	0.002146
5	0x95b2	-0.00139
6	0x9c1c	-0.004013
7	0x999a	-0.002735
8	0x0e98	0.0004025
9	0x1dad	0.005543
10	0x98e2	-0.002384
11	0x97c6	-0.001898
12	0x1a96	0.003216
13	0x1e87	0.006374
14	0x1c8a	0.004433
15	0x1a44	0.00306
16	0x84d7	-7.385e-05
17	0x997d	-0.00268
18	0x988c	-0.00222
19	0x9770	-0.001816
20	0x14ac	0.001141
21	0x1d3c	0.00511
22	0x9312	-0.000863
23	0x8fca	-0.0004754
24	0x9a85	-0.003183
25	0x1aed	0.003382
26	0x1ace	0.003323
27	0x1d67	0.005276
28	0x1954	0.002602
29	0x9bad	-0.003748
30	0x1850	0.002106
31	0x80df	-1.33e-05
32	0x9c99	-0.00449
33	0x8ece	-0.0004153
34	0x146c	0.00108
35	0x9a5a	-0.003101
36	0x1bcd	0.003809
37	0x9740	-0.00177
38	0x17e4	0.001926
39	0x187f	0.002195
40	0x91ea	-0.000722
41	0x1aec	0.00338
42	0x185a	0.002125
43	0x945c	-0.001064
44	0x9ca6	-0.00454
45	0x0608	9.2e-05
46	0x9319	-0.0008664
47	0x96ca	-0.0016575
48	0x1c45	0.00417
49	0x1f31	0.007023
50	0x1bda	0.003834
51	0x1fa5	0.007465
52	0x1b97	0.003706
53	0x98f2	-0.002415
54	0x9486	-0.001104
55	0x9156	-0.0006514
56	0x9d2d	-0.005054
57	0x98a8	-0.002274
58	0x9c16	-0.00399
59	0x1b31	0.003511
60	0x18b8	0.002304
61	0x16f7	0.0017
62	0x163a	0.00152
63	0x8ce7	-0.0002992
64	0x99d5	-0.002848
65	0x8f86	-0.0004592
66	0x9af0	-0.003387
67	0x11f9	0.000729
68	0x1c59	0.004246
69	0x1c4f	0.004208
70	0x14ff	0.00122
71	0x907a	-0.0005465
72	0x1ad2	0.00333
73	0x07bc	0.000118
74	0x93f4	-0.000971
75	0x9304	-0.0008564
76	0x9946	-0.002575
77	0x9d53	-0.0052
78	0x9ab5	-0.003275
79	0x934a	-0.00089
80	0x100c	0.000494
81	0x1b9e	0.00372
82	0x1c45	0.00417
83	0x1849	0.002092
84	0x0cba	0.0002885
85	0x0e51	0.0003855
86	0x14e5	0.001195
87	0x8cb6	-0.0002875
88	0x18a6	0.00227
89	0x9b5c	-0.003593
90	0x97a9	-0.00187
91	0x1942	0.002567
92	0x98bc	-0.002312
93	0x16a7	0.001624
94	0x1194	0.000681
95	0x1924	0.00251
96	0x16eb	0.001689
97	0x16e5	0.001683
98	0x96f8	-0.001701
99	0x9100	-0.0006104
100	0x1a15	0.00297
101	0x1807	0.001966
102	0x9537	-0.001273
103	0x8cc2	-0.0002904
104	0x9813	-0.00199
105	0x959c	-0.001369
106	0x954d	-0.001294
107	0x0f45	0.0004437
108	0x1648	0.0015335
109	0x9891	-0.00223
110	0x82b3	-4.12e-05
111	0x9d39	-0.0051
112	0x1618	0.001488
113	0x9893	-0.002234
114	0x9a83	-0.00318
115	0x1834	0.002052
116	0x8c54	-0.0002642
117	0x9911	-0.002474
118	0x9762	-0.001802
119	0x9556	-0.001303
120	0x1c58	0.004242
121	0x0f7b	0.0004566
122	0x95ad	-0.001386
123	0x1343	0.0008864
124	0x92fe	-0.0008535
125	0x9715	-0.001729
126	0x9ade	-0.003353
127	0x9840	-0.002075
128	0x952f	-0.001266
129	0x98d6	-0.002361
130	0x18cf	0.002348
131	0x1eab	0.00651
132	0x13ea	0.000966
133	0x900e	-0.000495
134	0x18fc	0.002434
135	0x1508	0.001228
136	0x9e10	-0.00592
137	0x9dd8	-0.005707
138	0x9877	-0.00218
139	0xa06c	-0.00864
140	0x9d15	-0.004963
141	0x9eaa	-0.006508
142	0x1743	0.001773
143	0x1d52	0.005196
144	0x1fec	0.007736
145	0x9bb5	-0.003763
146	0x19b7	0.00279
147	0x957f	-0.001342
148	0x1bba	0.003773
149	0x9e5e	-0.006218
150	0x9382	-0.0009165
151	0x9cca	-0.004677
152	0x191b	0.002493
153	0x9816	-0.001995
154	0x98ed	-0.002405
155	0x952c	-0.001263
156	0x16f4	0.001698
157	0x98ee	-0.002407
158	0x0a49	0.0001918
159	0x9af4	-0.003395
160	0x0d97	0.0003412
161	0x992d	-0.002527
162	0x1b61	0.003603
163	0x9d76	-0.005333
164	0x9bba	-0.003773
165	0x9ad4	-0.003334
166	0x1840	0.002075
167	0x947f	-0.001098
168	0x1754	0.001789
169	0x99d4	-0.002846
170	0x922c	-0.0007534
171	0x9571	-0.001328
172	0x9e1d	-0.00597
173	0x0f68	0.000452
174	0x96ad	-0.00163
175	0x93df	-0.000961
176	0x9aa1	-0.003237
177	0x9b52	-0.003574
178	0x9a23	-0.002996
179	0x15be	0.001402
180	0x1f42	0.007088
181	0x1963	0.00263
182	0x1d91	0.005436
183	0x142a	0.001017
184	0x18a6	0.00227
185	0x9b05	-0.003428
186	0x94fb	-0.001216
187	0x9937	-0.002546
188	0x18a5	0.002268
189	0x90f3	-0.000604
190	0x9560	-0.001312
191	0x1b1d	0.003473
192	0x1624	0.001499
193	0x9d60	-0.00525
194	0x9b82	-0.003666
195	0x93be	-0.000945
196	0x99ef	-0.002897
197	0x16f9	0.001702
198	0x93f0	-0.000969
199	0x1dcd	0.005665
200	0x14b7	0.001151
201	0x1afa	0.003407
202	0x1553	0.0013
203	0x1ca1	0.00452
204	0x13aa	0.0009356
205	0x89e8	-0.0001802
206	0x157c	0.001339
207	0x18fd	0.002436
208	0x8ca6	-0.0002837
209	0x9369	-0.0009046
210	0x1947	0.002577
211	0x920c	-0.000738
212	0x93e1	-0.000962
213	0x1c7b	0.004375
214	0x1cbb	0.00462
215	0x18d5	0.00236
216	0x9891	-0.00223
217	0x90a0	-0.0005646
218	0x1727	0.001746
219	0x97eb	-0.001933
220	0x9056	-0.0005293
221	0x9786	-0.001837
222	0x134c	0.0008907
223	0x9ae2	-0.00336
224	0x1c70	0.004333
225	0x8c28	-0.0002537
226	0x1a55	0.003092
227	0x9b1f	-0.003477
228	0x98e0	-0.00238
229	0x1567	0.001319
230	0x9e5e	-0.006218
231	0x14f0	0.001205
232	0x9175	-0.000666
233	0x1bd9	0.003832
234	0x8754	-0.0001118
235	0x1f48	0.00711
236	0x15e2	0.001436
237	0x9088	-0.000553
238	0x19dc	0.002861
239	0x1cbd	0.004627
240	0x9cf4	-0.004837
241	0x1a2c	0.003014
242	0x985e	-0.002132
243	0x1d2f	0.005062
244	0x0ebc	0.000411
245	0x93af	-0.000938
246	0x1746	0.001776
247	0x1a38	0.003036
248	0x195e	0.00262
249	0x9371	-0.0009084
250	0x91d1	-0.00071
251	0x97d6	-0.001913
252	0x1100	0.0006104
253	0x9bdd	-0.00384
254	0x1123	0.000627
255	0x1d5f	0.005245

sequential_43/dense_130/BiasAdd/ReadVariableOp f2 [6]
0	0x8c1e	-0.0002513
1	0x2bcd	0.06094
2	0x3016	0.1277
3	0x30ba	0.1477
4	0x2e13	0.0949
5	0x2fe9	0.1236

sequential_43/dense_130/MatMul f2 [6, 16]
0	0xb7df	-0.492
1	0xae61	-0.0997
2	0xb417	-0.2556
3	0x3026	0.1296
4	0xaf63	-0.1154
5	0xb5c3	-0.36
6	0xb197	-0.1747
7	0x315d	0.1676
8	0xb140	-0.1641
9	0x3252	0.1975
10	0xb322	-0.2229
11	0xb803	-0.5015
12	0x36e2	0.4302
13	0x234f	0.014275
14	0x2ef9	0.10895
15	0xae07	-0.0942
16	0x3018	0.1279
17	0x2c25	0.06476
18	0x388c	0.5684
19	0xaa9c	-0.05164
20	0x38e5	0.612
21	0xb1d0	-0.1816
22	0xb15d	-0.1676
23	0xb316	-0.2214
24	0xb357	-0.2294
25	0xaba1	-0.0596
26	0xb4e6	-0.3062
27	0xb666	-0.4
28	0xabfc	-0.06238
29	0xb1e2	-0.1838
30	0xac43	-0.0666
31	0xb4c7	-0.2986
32	0x34a0	0.289
33	0x9d28	-0.005035
34	0x31e8	0.1846
35	0x2bc1	0.06058
36	0x3020	0.1289
37	0x2f40	0.1133
38	0x38de	0.6084
39	0xb3a6	-0.239
40	0xb41e	-0.2573
41	0xb60d	-0.3782
42	0xb23f	-0.1952
43	0xb184	-0.1724
44	0xb75b	-0.4597
45	0xac60	-0.06836
46	0x363a	0.3892
47	0x369b	0.4128
48	0xaa4c	-0.0492
49	0xabcd	-0.06094
50	0x2aa5	0.0519
51	0xaeaf	-0.10443
52	0x3661	0.3987
53	0x119a	0.000684
54	0xb155	-0.1666
55	0xb392	-0.2366
56	0xb538	-0.3262
57	0xab18	-0.05542
58	0xaad9	-0.0535
59	0x2b0a	0.055
60	0x394a	0.661
61	0x3906	0.628
62	0x31f1	0.1857
63	0xb683	-0.407
64	0xb60c	-0.378
65	0x3796	0.474
66	0x373a	0.4517
67	0xb1ac	-0.1772
68	0x304e	0.1345
69	0x338f	0.2362
70	0xa477	-0.01744
71	0x33e5	0.2467
72	0xb416	-0.2554
73	0x37f0	0.496
74	0x372c	0.4482
75	0xb527	-0.322
76	0x391d	0.639
77	0x3807	0.5034
78	0xb284	-0.2036
79	0xb75e	-0.4604
80	0x34bf	0.2966
81	0x3615	0.3801
82	0xb1f6	-0.1863
83	0x36c9	0.424
84	0x31e8	0.1846
85	0xa256	-0.012375
86	0x367a	0.4048
87	0xa4f1	-0.0193
88	0x387d	0.561
89	0x35e4	0.3682
90	0x301e	0.1287
91	0x3640	0.3906
92	0x2eae	0.1044
93	0xb2df	-0.2147
94	0x3406	0.2515
95	0xb2cd	-0.2125

sequential_43/dense_131/MatMul f2 [2, 6]
0	0xba45	-0.7837
1	0x3b6d	0.928
2	0xb768	-0.463
3	0x2f93	0.11835
4	0x3b3f	0.906
5	0xac46	-0.0668
6	0xba8f	-0.82
7	0xba9e	-0.827
8	0x304a	0.134
9	0xb4d7	-0.3025
10	0xb4fb	-0.3113
11	0x3886	0.5654
