Training/train_ckpt/norm/58/NONE.tflite (tflite, 7000 bytes, 6 tensors)

sequential_3/dense_10/BiasAdd/ReadVariableOp f4 [6]
1.2062486 -0.49809393 -0.22524339 -0.2569321 -0.67702436 1.3737512
00000000: 5b66 9a3f 2b06 ffbe 34a6 66be 9b8c 83be
00000010: 7851 2dbf 14d7 af3f

sequential_3/dense_11/BiasAdd/ReadVariableOp f4 [2]
-0.5464718 0.5464719
00000000: 93e5 0bbf 95e5 0b3f

sequential_3/dense_9/BiasAdd/ReadVariableOp f4 [16]
0.07850312 -0.19176415 0.3458347 -0.5851863 0.013483273 0.06915752 -0.054456826 -0.12200193
-0.49543914 -0.5611691 -0.19218558 0.4792001 -0.19225876 -0.13528228 -0.6499087 -0.69474363
00000000: 3ec6 a03d d25d 44be 3f11 b13e c5ce 15bf
00000010: f2e8 5c3c 75a2 8d3d 1f0e 5fbd 26dc f9bd
00000020: 33aa fdbe c7a8 0fbf 4ccc 44be b759 f53e
00000030: 7bdf 44be 7087 0abe 6b60 26bf b8da 31bf

sequential_3/dense_9/MatMul f4 [16, 62]
-0.044676702 -0.15508215 -0.14471619 -0.21447289 -0.24306136 -0.027245712 -0.026870558 0.28461823
-0.09109626 0.25235778 -0.034606006 0.19666937 -0.04766817 0.37872356 0.07773991 0.055134583
-0.102352515 -0.01768019 -0.04024096 0.017637668 0.20990846 0.22426392 -0.013403579 -0.4443141
-0.14769244 -0.73546463 0.05502303 -0.12910303 -0.17390543 -0.5109724 0.00479662 0.07233406
-0.49317104 -0.20273635 -0.045193523 0.14108196 -0.05325017 -0.3056354 0.17509541 0.36029118
-0.032356463 -0.6328714 0.1246925 -0.030016856 -0.43991616 -0.24553873 0.045201715 -0.024887057
0.18805753 0.26413172 0.30626023 0.053189345 0.026565738 -0.14916453 -0.072436176 -0.1870406
0.023071185 0.17977633 0.04989789 -0.23499358 -0.22918713 -0.20068814 0.04305659 -0.27263996
-0.23110873 -0.0745808 -0.00477344 0.11685383 -0.23036966 -0.34983772 0.35622725 0.10927015
-0.083386324 -0.4043539 -0.174057 0.033572033 0.01671385 -0.38215518 0.046413276 -0.18522581
-0.20417917 -0.1508785 0.3750078 -0.37109926 0.025331508 -0.29664287 0.21059167 -0.22446322
0.008268128 -0.2550221 -0.21902184 0.11065411 -0.015956383 -0.110098824 -0.07273494 -0.15368499
-0.030105028 0.0973087 -0.22821231 -0.0163779 -0.321384 -0.027522238 0.080496 0.016011419
-0.16584155 -0.108458705 0.30382684 -0.069180824 -0.1425438 -0.14221928 -0.32064265 -0.33358684
-0.045533244 -0.41462192 0.035801012 -0.4041659 0.01904209 0.009202281 -0.043244153 -0.2616484
0.07065937 0.002231627 -0.38127896 0.027479243 0.2313856 0.55450195 0.11255764 0.54801625
0.43546376 0.34658962 -0.03266324 0.10551095 -1.0980513 1.7110312 -0.07334079 -0.22297136
0.4798241 1.4283309 0.48741585 1.574617 0.61148727 -0.047018953 -0.05454252 0.21874762
-0.95270425 1.7573044 -0.043622084 0.20288101 -0.41997445 -0.3152774 0.8338388 0.5976881
-0.2493442 -0.3803638 -0.105344355 -0.1921364 -1.4741969 0.32555497 -0.08753 -0.08935517
-0.31846532 -0.013129774 0.8044979 0.6394621 0.006608368 -0.56974566 -0.05067807 0.066463575
-1.668649 0.16297406 -0.058491513 -0.13442624 0.66593033 1.0337727 0.36392048 1.4398456
0.66079223 0.19296809 -0.08467244 0.10445014 -1.0672383 1.2843592 -0.04527598 0.19815923
0.71201366 -0.4619983 0.036320277 -0.7779929 -0.04619109 -0.5579892 -0.94912714 -0.6010032
0.002297278 -0.012208802 0.916338 -0.9677497 -0.026129652 0.04190765 -0.38772154 -2.8095877
-0.43811852 -2.8882074 -1.00213 -0.6301344 -0.0070294943 0.010306907 0.8638859 -1.196907
-0.011520334 0.073417775 -0.34493762 -1.2287245 -0.1250016 -0.49526834 -0.54877996 0.1371471
0.0026796088 -0.0030435193 0.775671 0.18709838 0.000267246 0.012412513 -0.27836883 -0.024726719
-0.11224546 0.029065179 -0.9327348 -0.34501874 0.0001027832 0.01286019 0.6745469 -0.41170463
-0.004824892 0.005509058 -0.3107542 -2.7023 -0.37536094 -2.9126263 -0.77909076 -0.6869365
0.26102403 -0.09655964 1.1860958 -1.2239764 -0.012545485 0.011145065 -1.2399737 0.016966071
-0.038975816 0.3205319 0.08873368 -0.1963456 -0.057176452 -0.23565744 -0.082118034 0.06700816
00000000: ebfe 36bd dbcd 1ebe 7b30 14be c89e 5bbe
00000010: 14e5 78be 6632 dfbc a51f dcbc 7bb9 913e
00000020: ad90 babd 0a35 813e 07bf 0dbd b263 493e
00000030: b33f 43bd 0ee8 c13e 1a36 9f3d cdd4 613d
00000040: 329e d1bd 0cd6 90bc b4d3 24bd df7c 903c
00000050: 3ef2 563e 71a5 653e af9a 5bbc 237d e3be
00000060: b03c 17be 6947 3cbf d45f 613d 9633 04be
00000070: 4414 32be 16cf 02bf f72c 9d3b e123 943d
00000080: ea80 fcbe 1e9a 4fbe d81c 39bd ca77 103e
00000090: da1c 5abd 3e7c 9cbe 364c 333e 1678 b83e
000000a0: 3688 04bd dc03 22bf c85e ff3d e9e5 f5bc
000000b0: b13c e1be 816e 7bbe 6f25 393d f1df cbbc
000000c0: 2792 403e 463c 873e 24ce 9c3e 12dd 593d
000000d0: 64a0 d93c 96be 18be 6b59 94bd 9287 3fbe
000000e0: c8ff bc3c 4917 383e bb61 4c3d 28a2 70be
000000f0: 08b0 6abe 3181 4dbe 1b5c 303d 7797 8bbe
00000100: c4a7 6cbe d2bd 98bd 846a 9cbb 1051 ef3d
00000110: 06e6 6bbe ee1d b3be 6b63 b63e 07c9 df3d
00000120: 73c6 aabd 7907 cfbe 003c 32be d482 093d
00000130: 7ceb 883c d8a9 c3be d91b 3e3d d6ab 3dbe
00000140: 5814 51be e57f 1abe 0601 c03e b900 bebe
00000150: 0684 cf3c 93e1 97be 58a5 573e b0d9 65be
00000160: 0b77 073c 4292 82be 4347 60be 9f9e e23d
00000170: f6b6 82bc 7e7b e1bd 0ef6 94bd 995f 1dbe
00000180: d29e f6bc c949 c73d 7db0 69be f22a 86bc
00000190: 728c a4be 5176 e1bc 16db a43d 612a 833c
000001a0: 5ed2 29be 991f debd 318f 9b3e adae 8dbd
000001b0: 00f7 11be eea1 11be 462b a4be e5cb aabe
000001c0: 1181 3abd 5349 d4be 15a4 123d d5ee cebe
000001d0: 28fe 9b3c 2ac5 163c c820 31bd c7f6 85be
000001e0: dcb5 903d 7d40 123b ff36 c3be 261c e13c
000001f0: 59f0 6c3e d7f3 0d3f 9f84 e63d cb4a 0c3f
00000200: 1bf5 de3e 3274 b13e e4c9 05bd 2016 d83d
00000210: f28c 8cbf 1203 db3f b233 96bd 9b52 64be
00000220: 81ab f53e 8cd3 b63f 928e f93e 0d8d c93f
00000230: 6e8a 1c3f f296 40bd fa67 5fbd 60ff 5f3e
00000240: 6de4 73bf 5aef e03f 12ad 32bd 0ac0 4f3e
00000250: e406 d7be 0a6c a1be 7676 553f 1602 193f
00000260: 1654 7fbe 0bbf c2be c8be d7bd 68bf 44be
00000270: 7cb2 bcbf 24af a63e ee42 b3bd d8ff b6bd
00000280: e30d a3be 431e 57bc 93f3 4d3f cab3 233f
00000290: 028b d83b dada 11bf cf93 4fbd 0e1e 883d
000002a0: 4a96 d5bf ace2 263e cc94 6fbd 08a7 09be
000002b0: 697a 2a3f aa52 843f c953 ba3e dc4c b83f
000002c0: ae29 293f 6d99 453e bf68 adbd f4e9 d53d
000002d0: 449b 88bf e265 a43f 4e73 39bd 41ea 4a3e
000002e0: 8746 363f 0b8b ecbe 92c4 143d 8b2a 47bf
000002f0: de32 3dbd 61d8 0ebf fff9 72bf 59db 19bf
00000300: ee8d 163b 6d07 48bc 2195 6a3f 72be 77bf
00000310: da0d d6bc 5ba7 2b3d 7083 c6be 49d0 33c0
00000320: 1251 e0be 64d8 38c0 cc45 80bf 7d50 21bf
00000330: ac57 e6bb 4dde 283c a027 5d3f 4034 99bf
00000340: c8bf 3cbc 0f5c 963d aa9b b0be d846 9dbf
00000350: 6b00 00be d093 fdbe d87c 0cbf 4a70 0c3e
00000360: 609c 2f3b c875 47bb 6092 463f b896 3f3e
00000370: 271d 8c39 da5d 4b3c 5c86 8ebe b08f cabc
00000380: f3e0 e5bd 191a ee3c b5c7 6ebf 4ca6 b0be
00000390: 4f8d d738 8cb3 523c 1baf 2c3f f3ca d2be
000003a0: 211a 9ebb 5485 b43b 2d1b 9fbe 7cf2 2cc0
000003b0: 4f2f c0be 7868 3ac0 7e72 47bf 12db 2fbf
000003c0: f1a4 853e 0fc1 c5bd fdd1 973f 42ab 9cbf
000003d0: 948b 4dbc ca99 363c 75b7 9ebf 6efc 8a3c
000003e0: 1ba5 1fbd c21c a43e 01ba b53d d20e 49be
000003f0: db31 6abd 2f50 71be 802d a8bd 933b 893d

sequential_3/dense_10/MatMul f4 [6, 16]
0.46434292 0.45909056 0.36923534 -0.55403 -0.16211103 0.27554756 0.62077194 0.49370426
-0.28142744 -0.60735464 -0.14801893 -0.16631892 -0.2835109 -0.15519044 -0.09845433 0.20330961
-0.1814415 0.38066655 -0.5379745 0.016821306 -0.44279867 -0.10266993 0.1907058 0.18265317
-0.55121505 -0.10632671 0.3674925 -0.38475257 -0.45218638 0.32515877 -0.18795036 -0.28113115
-0.18156552 0.40812525 -0.41868663 0.16680104 -0.2910457 -0.094176985 -0.29458648 0.005871766
0.14932942 0.21673465 -0.12283019 -0.04227099 0.059256278 0.15913805 -0.22341338 -0.3149128
0.001029306 -0.2111819 -0.07464885 -0.08227381 -0.26618993 -0.35974717 -0.110429294 0.026783876
0.15483537 -0.4104274 0.3010226 -0.14456773 -0.20183957 -0.27622724 -0.030520178 -0.06499005
0.44279605 0.046205703 -0.0027472512 0.5501461 -0.34386647 0.37844792 0.21125321 0.30517143
0.11931065 0.3441522 0.13198236 0.06439409 0.08150067 -0.122435056 0.4919557 0.5171432
0.13738906 -0.24688339 0.14156172 -0.22899906 0.0032200292 0.46207094 0.08030807 0.16980284
-0.26554942 -0.6275929 0.053389397 0.42604932 -0.104472265 0.28655052 -0.08668561 0.09104098
00000000: 5bbe ed3e eb0d eb3e 6a0c bd3e e9d4 0dbf
00000010: 6f00 26be 9214 8d3e e9ea 1e3f cec6 fc3e
00000020: 4217 90be 987b 1bbf 4692 17be 824f 2abe
00000030: 5728 91be 3eea 1ebe 6ca2 c9bd 6530 503e
00000040: cdcb 39be bae6 c23e b2b8 09bf d6cc 893c
00000050: 82b6 e2be 9d44 d2bd 6248 433e 6f09 3b3e
00000060: 6e1c 0dbf d1c1 d9bd fa27 bc3e 4afe c4be
00000070: f984 e7be 367b a63e 0f76 40be 6cf0 8fbe
00000080: 50ec 39be cbf5 d03e 185e d6be e4cd 2a3e
00000090: f103 95be dddf c0bd 0ad4 96be f167 c03b
000000a0: d0e9 183e b0ef 5d3e 658e fbbd 5824 2dbd
000000b0: b6b6 723d 16f5 223e 7ac6 64be 403c a1be
000000c0: c7e9 863a 1140 58be 7fe1 98bd 2c7f a8bd
000000d0: 0c4a 88be c830 b8be c128 e2bd dc69 db3c
000000e0: 2a8d 1e3e 8a23 d2be a21f 9a3e 9009 14be
000000f0: 08af 4ebe a86d 8dbe 7405 fabc 8119 85bd
00000100: 2ab6 e23e 3142 3d3d 3a0b 34bb 60d6 0c3f
00000110: 440f b0be edc3 c13e c352 583e 6e3f 9c3e
00000120: 2459 f43d b834 b03e 6226 073e 0ce1 833d
00000130: d3e9 a63d 3bbf fabd 9ee1 fb3e 7f63 043f
00000140: b8af 0c3e 00cf 7cbe 8ef5 103e bb7e 6abe
00000150: 2007 533b 9094 ec3e 8f78 a43d cce0 2d3e
00000160: 18f6 87be eea9 20bf d7ae 5a3d 2323 da3e
00000170: 8ef5 d5bd c0b6 923e 3a88 b1bd b173 ba3d

sequential_3/dense_11/MatMul f4 [2, 6]
-0.32544586 0.11439521 0.25299034 -0.00053073425 0.000453658 0.1922894 -0.20706524 0.11698499
-0.17485107 -0.3773708 -0.14590077 0.3185895
00000000: d7a0 a6be 0948 ea3d f387 813e f920 0bba
00000010: f2d8 ed39 83e7 443e e908 54be d495 ef3d
00000020: 290c 33be bf36 c1be 0367 15be 2a1e a33e
