Training/train_ckpt/no_reject/481/FLOAT16.tflite (tflite, 5776 bytes, 5 tensors)

sequential_32/dense_96/BiasAdd/ReadVariableOp f2 [16]
000000 83 b7 e4 b4 71 b7 27 ab 27 b7 90 ad 70 2a b5 b5
       -0.4695 -0.3057 -0.465 -0.05588 -0.447 -0.0869 0.0503 -0.3567
000010 58 b0 1d ac 87 a8 0f 33 71 31 74 b8 bd aa 14 31
       -0.1357 -0.0643 -0.03537 0.2206 0.17 -0.5566 -0.05264 0.1587

sequential_32/dense_97/BiasAdd/ReadVariableOp f2 [6]
000000 b0 b8 92 9a 9b 35 61 bc 15 24 a4 30
       -0.586 -0.003208 0.3503 -1.095 0.01595 0.145

sequential_32/dense_96/MatMul f2 [16, 62]
000000 a3 ac 1c b5 d1 14 f7 b8 47 bc 75 b8 0f a9 b6 aa
       -0.07245 -0.3193 0.001176 -0.6206 -1.069 -0.557 -0.03952 -0.05243
000010 c8 39 17 b8 be ab de a5 21 b4 34 c1 aa b2 f3 c0
       0.7227 -0.511 -0.0605 -0.02292 -0.258 -2.602 -0.2083 -2.475
000020 38 bb b3 ba 61 aa b2 2c 71 3a c7 b9 17 36 d9 ac
       -0.9023 -0.8374 -0.04984 0.07336 0.805 -0.722 0.3806 -0.07574
000030 b5 b8 ec bb a6 30 d2 33 24 ba da b5 ac 18 ba 9f
       -0.5884 -0.99 0.1453 0.2444 -0.7676 -0.3657 0.002281 -0.007545
000040 45 37 e6 38 96 9c a9 9e 4f b6 68 ad e9 2f d2 36
       0.4543 0.6123 -0.00448 -0.006504 -0.3943 -0.0845 0.1236 0.4263
000050 0b b9 cd b6 73 04 9b 24 0c 38 15 34 b5 9f c8 1b
       -0.6304 -0.425 6.79e-05 0.01799 0.506 0.2551 -0.007526 0.0038
000060 66 b4 0a c0 58 b3 0f c0 b3 bb 2b b8 cb a8 7f 1e
       -0.275 -2.02 -0.2295 -2.03 -0.9624 -0.521 -0.03745 0.006344
000070 27 3b 8b b9 6c a9 4b 20 c7 bb eb 31 b9 b2 57 b9
       0.894 -0.693 -0.04236 0.008385 -0.972 0.1849 -0.2101 -0.6675
000080 66 a6 02 b6 ce b7 c1 b4 fd 2d 19 36 29 38 8d b7
       -0.025 -0.3755 -0.4878 -0.297 0.09357 0.381 0.52 -0.472
000090 21 b1 60 a9 0a b7 06 bf d3 b4 21 bd f5 b7 91 27
       -0.1603 -0.042 -0.44 -1.756 -0.3015 -1.282 -0.4973 0.02956
0000a0 74 aa 41 ad f7 37 48 b9 05 b2 5a 2f 94 b4 83 b6
       -0.0504 -0.0821 0.4978 -0.66 -0.1881 0.11487 -0.2861 -0.407
0000b0 95 27 31 b4 a6 2d 13 36 aa 9d 5f 9d c4 37 87 27
       0.02962 -0.262 0.08826 0.3796 -0.00553 -0.005245 0.4854 0.0294
0000c0 4a 19 7b 1c 2c ad b8 b1 4e b4 0c b5 a4 b1 bd 36
       0.002583 0.004375 -0.0808 -0.1787 -0.269 -0.3154 -0.1763 0.4211
0000d0 90 a0 85 0f dd 35 78 2c 7b 8d 8a a4 b8 b3 c2 bc
       -0.00891 0.000459 0.3665 0.0698 -0.0003345 -0.01773 -0.2412 -1.189
0000e0 17 b2 1b be e7 b3 ef 30 a6 35 26 b1 7e 39 96 b8
       -0.1903 -1.526 -0.247 0.1542 0.353 -0.1609 0.6865 -0.573
0000f0 3a 26 ae 2f a3 b9 cb 28 98 b4 11 b8 12 b4 a1 ba
       0.02432 0.12 -0.7046 0.03745 -0.287 -0.5083 -0.2544 -0.8286
000100 30 ba e1 ba 42 aa 1f 30 60 3c e0 bb 3e 2c ec aa
       -0.7734 -0.86 -0.0489 0.1288 1.094 -0.9844 0.0663 -0.05408
000110 cb b3 24 bf 80 b3 7b bf 9e ba 14 b8 70 20 21 2c
       -0.2435 -1.785 -0.2344 -1.87 -0.827 -0.51 0.00867 0.0645
000120 d6 3a 52 bb 3c a4 3c ae 22 b2 9e ba 37 ae 1c ae
       0.8545 -0.915 -0.01654 -0.0974 -0.1917 -0.827 -0.0971 -0.09546
000130 ab b7 0f b5 49 9d d9 a5 37 39 14 2c 59 98 49 b1
       -0.4792 -0.3162 -0.00516 -0.02284 0.652 0.0637 -0.002123 -0.1652
000140 f8 b4 9c b2 f6 28 97 b4 8c b8 5a b6 80 9b ee 21
       -0.3105 -0.2065 0.03876 -0.2869 -0.5684 -0.397 -0.003662 0.01158
000150 ed 35 b6 b0 28 a3 4d a9 6d b1 00 bc 12 b4 54 bb
       0.3704 -0.1472 -0.01398 -0.0414 -0.1696 -1.0 -0.2544 -0.916
000160 3d b9 2c ba be a5 17 2e 9b 3c ef bb 7a 34 8d b0
       -0.655 -0.7715 -0.02243 0.09515 1.151 -0.9917 0.2798 -0.1422
000170 c3 bc a9 34 99 ae 62 2e 65 a9 a6 b4 f3 ad 6d ae
       -1.19 0.2913 -0.1031 0.09973 -0.04214 -0.2905 -0.09296 -0.1004
000180 bf 20 70 b0 ce 2c 26 2c c1 a9 73 b0 44 37 bc 38
       0.00927 -0.1387 0.0751 0.0648 -0.04495 -0.139 0.454 0.592
000190 dd 37 3a 38 52 b4 bd ae d5 af d1 9e d1 35 14 b6
       0.4915 0.5283 -0.27 -0.1053 -0.1224 -0.006657 0.3635 -0.38
0001a0 e8 aa cf 35 b3 b2 65 b8 ee b1 cd b6 6a a9 0c b5
       -0.05396 0.363 -0.2094 -0.5493 -0.1853 -0.425 -0.0423 -0.3154
0001b0 cd ae a0 29 32 ac f1 b9 32 b2 2e 1e 4d 2c d5 2c
       -0.10626 0.04395 -0.06555 -0.7427 -0.1936 0.006035 0.0672 0.0755
0001c0 19 b4 8d b5 92 b2 59 b9 63 2d 48 31 f9 2d eb b7
       -0.256 -0.347 -0.2053 -0.6685 0.08417 0.165 0.0933 -0.4949
0001d0 23 af b0 2a 66 34 b4 36 09 35 7e 38 3c ae 3b b8
       -0.1115 0.05225 0.275 0.419 0.3147 0.5615 -0.0974 -0.529
0001e0 29 b0 fd 2e 38 af b6 b2 85 ab 60 32 cf ac 26 31
       -0.13 0.1092 -0.1128 -0.2097 -0.05875 0.1992 -0.07513 0.1609
0001f0 4a 32 02 bb cf 33 97 bb 9c ba 63 b7 5a 2d 18 31
       0.1965 -0.876 0.244 -0.9487 -0.826 -0.4617 0.0836 0.1592

sequential_32/dense_97/MatMul f2 [6, 16]
000000 24 b6 a7 b2 c0 b9 26 33 c3 b9 1f a8 fa b4 9f b8
       -0.3838 -0.2079 -0.7188 0.2234 -0.72 -0.0322 -0.311 -0.5776
000010 39 b6 df 2b 06 b5 81 34 ac b4 48 ba 4a 38 0b 38
       -0.389 0.0615 -0.314 0.2815 -0.292 -0.785 0.536 0.5054
000020 1a ad 0b 30 c9 36 49 b3 60 2e e5 2d 86 a4 10 26
       -0.0797 0.1263 0.424 -0.2277 0.0996 0.0921 -0.01767 0.02368
000030 2f 36 f3 b1 9a a4 b9 a9 30 b1 e2 b6 dc b4 e4 b3
       0.3865 -0.1859 -0.01797 -0.0447 -0.1621 -0.4302 -0.3037 -0.2466
000040 19 2c aa 2c 4f 2f a9 b3 91 38 80 1c 75 b4 49 b1
       0.064 0.0729 0.1142 -0.2394 0.571 0.004395 -0.2786 -0.1652
000050 64 ae 40 32 47 b0 24 b5 a0 a1 5c b8 95 1e 82 a5
       -0.09985 0.1953 -0.1337 -0.3213 -0.01099 -0.545 0.006428 -0.02151
000060 80 35 ce 2d ba 33 9e af 94 32 8d 2b df ac c9 36
       0.3438 0.0907 0.2415 -0.119 0.2056 0.059 -0.0761 0.424
000070 1c 23 b4 a4 9b b5 a5 b5 5a a4 c0 34 e4 b2 58 ad
       0.013885 -0.01837 -0.3503 -0.3528 -0.017 0.2969 -0.2153 -0.0835
000080 67 2e 42 b1 2e 32 87 2c dc 33 f5 ab e9 b0 0d b4
       0.10004 -0.1643 0.1931 0.07074 0.2456 -0.06216 -0.1534 -0.2532
000090 35 b4 30 b8 f5 35 dc b1 45 2a 2f b1 56 b6 43 ae
       -0.263 -0.5234 0.3723 -0.1831 0.04898 -0.162 -0.396 -0.09784
0000a0 94 b7 70 b3 f1 ae 5e 30 12 bb 94 32 c5 31 68 b5
       -0.4736 -0.2324 -0.10846 0.1365 -0.884 0.2056 0.1803 -0.338
0000b0 d2 37 c0 9e a7 b6 0d 37 85 35 b3 b1 0a 33 61 b3
       0.4888 -0.00659 -0.4158 0.4407 0.345 -0.1781 0.22 -0.2306

sequential_32/dense_98/MatMul f2 [2, 6]
000000 66 ab 5a b7 96 ad 28 b8 73 b2 fd 22 30 2a 75 b8
       -0.0578 -0.4595 -0.0873 -0.5195 -0.2015 0.01365 0.04834 -0.557
000010 0f b4 4c ba 26 b6 02 31
       -0.2537 -0.787 -0.3843 0.1565
