Training/train_ckpt/layernorm/548/INT8.tflite (tflite, 16256 bytes, 5 tensors)

sequential_36/quant_dense_109/MatMul;sequential_36/quant_dense_109/LastValueQuant/FakeQuantWithMinMaxVars i1 [6, 16] scale=0.0064343573 zero_point=0
-0.25093994 -0.47614244 0.13512151 -0.5018799 -0.6756075 0.038606144 -0.28311172 -0.3024148
0.0128687145 -0.78499156 0.2573743 0.0450405 0.24450557 0.090081 -0.3152835 -0.5855265
-0.057909217 -0.23163687 0.19303071 0.39249578 -0.23807122 0.4375363 0.38606143 -0.36675838
0.19303071 0.450405 -0.11581843 -0.025737429 -0.41179886 0.4375363 -0.2573743 0.14799021
0.25093994 0.5147486 -0.720648 -0.20589943 -0.41179886 -0.5855265 0.13512151 -0.2573743
-0.07077793 0.27024302 -0.3024148 -0.25093994 -0.4053645 -0.6691732 -0.07721229 0.2573743
-0.18659636 -0.18659636 0.0064343573 -0.19303071 0.23163687 -0.0064343573 -0.2573743 -0.21876815
0.032171786 -0.5855265 -0.019303072 -0.2252025 -0.122252785 0.14155586 -0.42466757 -0.36675838
0.41823322 -0.1672933 -0.18659636 -0.39249578 0.102949716 -0.38606143 0.057909217 0.81716335
0.5726578 -0.11581843 -0.019303072 0.6949106 0.47614244 -0.41823322 0.37319273 -0.27667737
0.16085893 -0.0450405 0.39249578 0.2573743 -0.12868714 0.3152835 -0.29598042 -0.4053645
-0.28311172 0.37319273 0.14155586 -0.4053645 -0.37962708 -0.09651536 -0.0064343573 -0.17372765
00000000: d9b6 15b2 9706 d4d1 0286 2807 260e cfa5
00000010: f7dc 1e3d db44 3cc7 1e46 eefc c044 d817
00000020: 2750 90e0 c0a5 15d8 f52a d1d9 c198 f428
00000030: e3e3 01e2 24ff d8de 05a5 fddd ed16 bec7
00000040: 41e6 e3c3 10c4 097f 59ee fd6c 4abf 3ad5
00000050: 19f9 3d28 ec31 d2c1 d43a 16c1 c5f1 ffe5

sequential_36/layer_normalization_72/add/ReadVariableOp i1 [16] scale=0.0027877933 zero_point=95
-0.13938966 -0.2090845 -0.2871427 -0.26484036 -0.26205257 -0.2481136 -0.2955061 0.089209385
0.0027877933 -0.21466008 -0.6216779 -0.10872394 -0.11429953 -0.26484036 -0.09199718 -0.2955061
00000000: 2d14 f800 0106 f57f 6012 8038 3600 3ef5

sequential_36/layer_normalization_72/mul_2/ReadVariableOp i1 [16] scale=0.006272255 zero_point=-128
0.80284864 0.97847176 1.0286498 0.87184346 0.84675443 0.8404822 0.66485906 1.5994251
1.0411943 1.0600111 0.614681 1.1415504 1.1352781 0.9408382 0.9408382 1.0223776
00000000: 001c 240b 0706 ea7f 2629 e236 3516 1623

sequential_36/quant_dense_108/MatMul;sequential_36/quant_dense_108/LastValueQuant/FakeQuantWithMinMaxVars i1 [16, 62] scale=0.031023802 zero_point=0
-0.09307141 -0.34126183 -0.37228563 -0.37228563 -0.8996903 -0.86866647 -0.062047604 0.12409521
1.3960711 -1.2099283 0.46535704 0.062047604 -0.15511902 -1.4581187 -0.21716662 -1.6752853
-0.65149987 -0.43433324 -0.031023802 0.0 0.83764267 -1.3340235 0.09307141 -0.031023802
0.24819042 0.0 -0.43433324 -0.68252367 -0.55842847 -0.062047604 0.0 0.031023802
0.55842847 -0.37228563 0.0 -0.31023803 -0.062047604 -0.031023802 -0.46535704 -0.55842847
-0.74457127 -0.062047604 -0.031023802 0.09307141 0.55842847 -0.09307141 0.0 0.0
-0.062047604 -0.68252367 -0.062047604 -0.74457127 -0.9927617 -0.12409521 -0.12409521 0.18614282
1.0237855 -1.3029997 0.0 0.15511902 -0.9617379 0.34126183 -0.31023803 0.37228563
-0.37228563 -0.031023802 -0.18614282 -0.40330943 0.15511902 -0.24819042 1.0858331 -1.8924519
0.18614282 0.062047604 -0.09307141 -0.18614282 0.09307141 -0.12409521 -0.86866647 -0.31023803
0.062047604 -0.09307141 0.8996903 -1.4270949 -0.18614282 -0.12409521 0.8996903 1.9544995
-0.58945227 -0.12409521 0.031023802 0.31023803 0.031023802 0.062047604 0.77559507 -0.40330943
0.0 -0.43433324 0.62047607 1.2099283 -0.49638084 -0.34126183 -0.09307141 -0.09307141
0.031023802 -0.062047604 1.2409521 -0.24819042 0.0 -0.43433324 0.12409521 0.58945227
0.0 0.55842847 -0.55842847 0.031023802 0.0 0.031023802 0.9307141 -1.4270949
0.031023802 0.09307141 -0.86866647 0.27921423 0.062047604 0.40330943 -0.062047604 0.68252367
0.18614282 -0.062047604 -0.031023802 0.0 -1.3650473 1.5511901 0.031023802 -0.18614282
0.24819042 1.7683567 0.40330943 2.20269 0.40330943 0.062047604 -0.062047604 0.27921423
-0.71354747 1.4270949 -0.09307141 0.18614282 -0.12409521 -0.34126183 0.27921423 0.49638084
-0.65149987 -0.18614282 -0.031023802 -0.12409521 -1.1789045 0.0 0.0 -0.031023802
0.09307141 -0.15511902 0.15511902 0.52740467 -0.18614282 -0.43433324 0.031023802 0.15511902
-1.3650473 0.37228563 0.0 -0.031023802 0.24819042 1.3340235 0.55842847 1.4581187
0.27921423 0.27921423 -0.062047604 0.18614282 -1.1478807 0.9927617 0.0 0.21716662
1.1168569 -0.71354747 0.09307141 0.52740467 -0.18614282 0.52740467 -0.52740467 -0.49638084
-0.062047604 0.18614282 -0.49638084 0.83764267 0.0 0.0 0.062047604 2.978285
0.49638084 2.823166 -0.21716662 -0.9307141 -0.062047604 0.0 -0.18614282 0.9617379
-0.09307141 -0.12409521 -0.12409521 -0.58945227 0.15511902 -0.24819042 -0.68252367 -1.3340235
0.062047604 0.031023802 -0.18614282 -0.55842847 0.031023802 -0.031023802 0.031023802 -0.83764267
0.031023802 -0.18614282 -0.31023803 -0.86866647 0.031023802 0.12409521 -0.77559507 -0.62047607
0.0 0.031023802 0.37228563 2.947261 0.43433324 2.512928 -0.31023803 -0.83764267
-0.062047604 0.062047604 -0.09307141 0.62047607 0.0 -0.031023802 0.15511902 -0.27921423
0.062047604 -0.31023803 -0.09307141 -0.18614282 0.40330943 0.62047607 -0.15511902 0.09307141
00000000: fdf5 f4f4 e3e4 fe04 2dd9 0f02 fbd1 f9ca
00000010: ebf2 ff00 1bd5 03ff 0800 f2ea eefe 0001
00000020: 12f4 00f6 feff f1ee e8fe ff03 12fd 0000
00000030: feea fee8 e0fc fc06 21d6 0005 e10b f60c
00000040: f4ff faf3 05f8 23c3 0602 fdfa 03fc e4f6
00000050: 02fd 1dd2 fafc 1d3f edfc 010a 0102 19f3
00000060: 00f2 1427 f0f5 fdfd 01fe 28f8 00f2 0413
00000070: 0012 ee01 0001 1ed2 0103 e409 020d fe16
00000080: 06fe ff00 d432 01fa 0839 0d47 0d02 fe09
00000090: e92e fd06 fcf5 0910 ebfa fffc da00 00ff
000000a0: 03fb 0511 faf2 0105 d40c 00ff 082b 122f
000000b0: 0909 fe06 db20 0007 24e9 0311 fa11 eff0
000000c0: fe06 f01b 0000 0260 105b f9e2 fe00 fa1f
000000d0: fdfc fced 05f8 ead5 0201 faee 01ff 01e5
000000e0: 01fa f6e4 0104 e7ec 0001 0c5f 0e51 f6e5
000000f0: fe02 fd14 00ff 05f7 02f6 fdfa 0d14 fb03

sequential_36/quant_dense_110/MatMul;sequential_36/quant_dense_110/LastValueQuant/FakeQuantWithMinMaxVars i1 [2, 6] scale=0.010247085 zero_point=0
0.9837202 -0.47136593 0.47136593 0.25617713 1.3013798 -0.44062465 0.52260137 1.1681677
-0.29716548 -0.5430955 -0.59433097 0.59433097
00000000: 60d2 2e19 7fd5 3372 e3cb c63a
